Activelearning/SeedModels/simple_model.pth (torch, 15071 bytes, 24 tensors)

dropout_mu f4 [4]
1.3184321 1.0064497 1.2784282 1.0503198
00000000: 62c2 a83f 58d3 803f 89a3 a33f e170 863f

dropout_logvar f4 [4]
-8.991742 -8.998885 -9.015417 -8.98185
00000000: 2dde 0fc1 6ffb 0fc1 263f 10c1 a8b5 0fc1

weight_mu f4 [10, 4]
-1.0076052 0.14157958 0.40795314 0.017870884 0.6805538 -0.11367018 -0.541217 0.33110514
-0.05781343 0.6709502 -1.3092449 0.022257775 0.56149805 -0.59524786 0.7828678 -0.7257935
0.072495475 -0.35483658 0.73617107 0.029292494 -1.0168827 -0.38673705 0.20133351 0.01986103
0.19736037 -0.9130126 0.2877736 0.7942701 -0.23276366 0.2936027 0.53145736 0.51111495
0.31366783 0.47274706 0.6429737 0.5773232 0.32046798 -1.0655097 0.19546871 -0.4225268
00000000: 35f9 80bf 3dfa 103e 3cdf d03e f665 923c
00000010: c638 2e3f e9cb e8bd 338d 0abf 9d86 a93e
00000020: c6cd 6cbd 64c3 2b3f 5695 a7bf f055 b63c
00000030: 56be 0f3f 2a62 18bf 066a 483f 9acd 39bf
00000040: 8278 943d 24ad b5be b575 3c3f d0f6 ef3c
00000050: 3629 82bf 6602 c6be 5f2a 4e3e 99b3 a23c
00000060: d618 4a3e 32bb 69bf 1057 933e 4955 4b3f
00000070: 9959 6ebe 1853 963e 970d 083f 6ed8 023f
00000080: 1299 a03e e70b f23e ed99 243f 74cb 133f
00000090: 6114 a43e 9f62 88bf f328 483e 6f55 d8be

weight_logvar f4 [10, 4]
-8.962627 -9.003135 -9.01084 -8.988649 -9.013228 -8.992732 -8.992322 -9.000363
-9.005128 -8.98612 -8.997214 -8.994453 -8.995179 -9.005042 -8.995942 -9.001645
-9.025978 -9.000449 -9.007644 -9.004835 -9.007352 -8.99376 -8.976271 -8.986929
-8.999443 -8.997459 -8.989817 -9.000824 -9.000791 -9.0020895 -9.003443 -8.981857
-9.012752 -9.016557 -9.000941 -9.013915 -9.003012 -8.996119 -8.993264 -9.022533
00000000: ec66 0fc1 d70c 10c1 672c 10c1 82d1 0fc1
00000010: 2f36 10c1 3be2 0fc1 8de0 0fc1 7d01 10c1
00000020: 0115 10c1 26c7 0fc1 97f4 0fc1 48e9 0fc1
00000030: 41ec 0fc1 a714 10c1 61ef 0fc1 bd06 10c1
00000040: 686a 10c1 d701 10c1 4f1f 10c1 ce13 10c1
00000050: 1d1e 10c1 71e6 0fc1 ce9e 0fc1 76ca 0fc1
00000060: b8fd 0fc1 98f5 0fc1 4ad6 0fc1 6003 10c1
00000070: 3d03 10c1 8f08 10c1 1a0e 10c1 b0b5 0fc1
00000080: 3b34 10c1 d143 10c1 db03 10c1 ff38 10c1
00000090: 560c 10c1 1af0 0fc1 69e4 0fc1 4c5c 10c1

bias_mu f4 [10]
0.05075846 0.19982044 0.13967279 0.28722203 0.10653597 0.11230769 0.3339651 -0.19811156
0.5320633 -0.027792046
00000000: 1ae8 4f3d bb9d 4c3e 6206 0f3e c40e 933e
00000010: 882f da3d 9301 e63d 79fd aa3e c2dd 4abe
00000020: 4d35 083f 25ac e3bc

bias_logvar f4 [10]
-9.011754 -8.992733 -8.993391 -9.005347 -9.010394 -8.995266 -9.010291 -8.995706
-9.01817 -8.99203
00000000: 2530 10c1 3ce2 0fc1 eee4 0fc1 e715 10c1
00000010: 932a 10c1 9cec 0fc1 272a 10c1 69ee 0fc1
00000020: 6d4a 10c1 5bdf 0fc1

posterior_weight_variance f4 [10, 4]
0.0002227037 0.00012461591 0.00019952614 0.0001376963 0.00021170668 0.00012591892 0.0002032574 0.00013609444
0.00021342155 0.00012676096 0.00020228678 0.00013689943 0.00021556024 0.00012438351 0.00020252772 0.00013592657
0.00020901776 0.00012495264 0.00020017057 0.00013548555 0.00021296313 0.00012579162 0.00020654238 0.00013793341
0.00021463883 0.00012533758 0.00020376407 0.00013603985 0.00021435002 0.00012474722 0.00020100936 0.00013863886
0.00021180212 0.00012295753 0.00020151478 0.000134266 0.00021387517 0.00012551037 0.00020306213 0.00013311146
00000000: 9285 6939 54ab 0239 e437 5139 9262 1039
00000010: 94fd 5d39 1a09 0439 7e21 5539 93b4 0e39
00000020: e9c9 5f39 23eb 0439 f21c 5439 a98c 0f39
00000030: 0308 6239 f26c 0239 9f5d 5439 8387 0e39
00000040: c72b 5b39 b805 0339 e1e4 5139 2011 0e39
00000050: db4e 5f39 eee6 0339 4c93 5839 38a2 1039
00000060: ac10 6139 0d6d 0339 80a9 5539 eba5 0e39
00000070: 25c3 6039 94ce 0239 0ac6 5239 965f 1139
00000080: 3317 5e39 29ee 0039 b64d 5339 c1c9 0c39
00000090: ae43 6039 6f9b 0339 13ed 5439 d693 0b39

posterior_weight_mean f4 [10, 4]
-1.328459 0.14249273 0.5215388 0.018770143 0.89726394 -0.114403315 -0.6919071 0.34776628
-0.07622308 0.6752776 -1.6737756 0.023377782 0.740297 -0.59908706 1.0008403 -0.7623153
0.09558036 -0.35712516 0.94114184 0.030766487 -1.3406907 -0.38923138 0.25739044 0.020860432
0.26020625 -0.91890126 0.3678979 0.8342376 -0.3068831 0.29549634 0.67943007 0.5368342
0.41354975 0.47579613 0.82199574 0.60637397 0.42251527 -1.0723819 0.24989271 -0.44378826
00000000: f20a aabf 9de9 113e 9183 053f d8c3 993c
00000010: 17b3 653f 494c eabd d320 31bf 6c0e b23e
00000020: d91a 9cbd fede 2c3f 473e d6bf c382 bf3c
00000030: 1b84 3d3f c55d 19bf 891b 803f 1827 43bf
00000040: a3bf c33d 1cd9 b6be acee 703f 000a fc3c
00000050: c19b abbf 5649 c7be aec8 833e 7fe3 aa3c
00000060: c139 853e 1d3d 6bbf 1d5d bc3e 9890 553f
00000070: c81f 9dbe 4c4b 973e 21ef 2d3f f76d 093f
00000080: cbbc d33e 8d9b f33e 506e 523f 533b 1b3f
00000090: ec53 d83e cf43 89bf e0e3 7f3e 3738 e3be

dropout_mu f4 [10]
1.1831241 1.1037151 1.1972371 1.2477955 1.1461332 1.3011965 1.2022536 0.9731582
1.3019292 0.96606076
00000000: 9c70 973f 8946 8d3f 113f 993f c3b7 9f3f
00000010: 7eb4 923f 9b8d a63f 72e3 993f e520 793f
00000020: 9ea5 a63f c24f 773f

dropout_logvar f4 [10]
-8.99521 -9.008389 -9.0055 -9.006306 -9.010469 -9.014286 -8.992863 -9.000468
-8.993397 -8.995606
00000000: 61ec 0fc1 5d22 10c1 8716 10c1 d419 10c1
00000010: e22a 10c1 843a 10c1 c4e2 0fc1 eb01 10c1
00000020: f4e4 0fc1 01ee 0fc1

weight_mu f4 [20, 10]
0.13754319 0.03295025 -0.55609745 -0.19951583 0.009127205 0.15544248 0.23795544 0.43969807
0.1289508 -0.021341681 -0.16457407 0.3411269 -0.6139605 -0.09575972 0.42794928 0.123505905
0.056312483 -0.5799524 -0.080138184 0.261073 -0.5384361 0.39229313 0.2715721 0.14958084
-0.15803869 0.03342208 0.19367951 0.1708108 0.047771037 0.32204083 -0.22290619 -0.32985377
-0.33217746 0.46918994 0.16360268 -0.9186932 0.12400221 0.057159293 0.50364906 -0.53420657
-0.09649614 -0.67686504 -0.13993473 -1.0836773 -0.19038077 -0.8233246 -0.7322156 0.24670778
0.10050493 -0.41863096 0.12861909 0.1216148 0.22876269 0.5395628 0.41900218 0.15579785
0.039859347 0.052217115 0.70608336 -0.028073572 -0.3546338 0.11095233 -0.046391036 -0.5216619
0.67777354 -0.32904032 -0.235625 0.5075137 0.26429087 -0.0027595693 0.6680969 0.36497083
-0.6269019 -0.06841013 0.32346576 0.003561341 -0.08875676 -0.4059407 0.00081685954 0.27203804
0.4613456 0.55110216 -0.31859145 -0.3754424 -0.17052467 0.14979945 0.38506988 -0.21008462
-0.2811039 0.04186272 0.006002552 0.4063752 -0.022319587 -0.21059348 -0.2142929 0.586639
-0.13630374 -0.17125994 -0.02311017 -0.17252205 -0.053033113 -0.3259579 -0.52645314 -0.5444843
-0.79884136 0.24876054 -0.4148644 0.31608477 -0.102257274 -0.00019053642 -0.32947594 0.3695994
-0.3564291 0.40358025 0.77737993 -0.12215958 0.51756406 -0.020106118 0.83959866 0.16762552
0.27877948 -0.2072322 -0.59150547 0.12247091 0.38396534 0.009653928 -0.2563131 -0.111813344
-0.3556364 0.20753421 -0.662307 0.052428342 -0.67364657 0.5403324 -0.4147651 -0.4879354
-0.5953667 0.17602237 0.020764964 0.77279663 -0.014501286 0.5894757 -0.3523747 0.22702944
0.31341442 0.13658907 -0.25781158 0.029832717 -0.1395864 0.6233765 -0.12967223 0.38893378
-0.45801896 -0.07616318 -0.20568074 -0.4174297 -0.078483626 0.4327604 0.6002303 0.11441492
-0.6475272 0.119566925 -0.36432222 -0.20960766 -0.120482825 -0.87494916 0.24624394 -0.42817363
0.31586182 -0.3883493 -0.061196312 -0.15378445 0.056015093 -0.21931213 0.47834373 -0.42239854
-0.380078 0.40917748 0.08652656 -0.9110711 -0.10090899 0.4826059 -0.30820632 0.34410316
-0.004881715 -0.07541121 0.48261586 0.064229764 0.2753866 0.09575125 0.79003686 -0.13052242
0.5954752 -0.59286934 0.021810343 0.6547555 -0.10787735 0.20378178 -0.18761517 0.11013878
00000000: 1fd8 0c3e d7f6 063d 675c 0ebf e14d 4cbe
00000010: 468a 153c 502c 1f3e 97aa 733e 1b20 e13e
00000020: ae0b 043e c0d4 aebc 1b86 28be 2fa8 ae3e
00000030: 842c 1dbf ac1d c4bd 2b1c db3e aaf0 fc3d
00000040: eba7 663d c377 14bf 7d1f a4bd 5cab 853e
00000050: f3d6 09bf a5da c83e 800b 8b3e b82b 193e
00000060: e5d4 21be 97e5 083d ec53 463e 07e9 2e3e
00000070: 90ab 433d 89e2 a43e 8541 64be 98e2 a8be
00000080: 2a13 aabe aa39 f03e 7687 273e 7a2f 6bbf
00000090: dff4 fd3d dd1f 6a3d 25ef 003f c3c1 08bf
000000a0: c59f c5bd 0747 2dbf 0d4b 0fbe f0b5 8abf
000000b0: 2df3 42be 67c5 52bf 7b72 3bbf f7a0 7c3e
000000c0: 87d5 cd3d cc56 d6be b9b4 033e 2e11 f93d
000000d0: c440 6a3e ca20 0a3f 7487 d63e 7989 1f3e
000000e0: 8e43 233d 9de1 553d e1c1 343f 8cfa e5bc
000000f0: 9092 b5be fa3a e33d 8704 3ebd a28b 05bf
00000100: 9182 2d3f f977 a8be ae47 71be 6bec 013f
00000110: 2251 873e e4d9 34bb 6608 2b3f 75dd ba3e
00000120: a57c 20bf 9c1a 8cbd 4e9d a53e 6365 693b
00000130: 1bc6 b5bd 76d7 cfbe 8422 563a 9248 8b3e
00000140: 7e35 ec3e 0815 0d3f 6b1e a3be fc39 c0be
00000150: 059e 2ebe 0765 193e e127 c53e 6c20 57be
00000160: daec 8fbe 3e78 2b3d 0eb1 c43b 6910 d03e
00000170: 91d7 b6bc d1a5 57be 996f 5bbe f92d 163f
00000180: 3593 0bbe c45e 2fbe 8a51 bdbc 9fa9 30be
00000190: 4039 59bd f4e3 a6be a2c5 06bf 5363 0bbf
000001a0: de80 4cbf 15bb 7e3e 1b69 d4be ddd5 a13e
000001b0: 436c d1bd bbca 47b9 12b1 a8be 223c bd3e
000001c0: e07d b6be 12a2 ce3e 5f02 473f cd2e fabd
000001d0: 147f 043f 96b5 a4bc f0ef 563f 06a6 2b3e
000001e0: 2fbc 8e3e ae34 54be e76c 17bf 07d2 fa3d
000001f0: 1b97 c43e 822b 1e3c 783b 83be 65fe e4bd
00000200: f915 b6be d983 543e f48c 29bf 1abf 563d
00000210: 1a74 2cbf 3953 0a3f 175c d4be abd2 f9be
00000220: f469 18bf 353f 343e 491b aa3c 00d6 453f
00000230: cd96 6dbc e1e7 163f 756a b4be 687a 683e
00000240: db77 a03e 01de 0b3e e1ff 83be be63 f43c
00000250: bdef 0ebe 9a95 1f3f ccc8 04be 5422 c73e
00000260: 7681 eabe 71fb 9bbd f99d 52be 58b9 d5be
00000270: 06bc a0bd c592 dd3e b1a8 193f 5f52 ea3d
00000280: 58c4 25bf 81df f43d 7188 babe 64a3 56be
00000290: b3bf f6bd abfc 5fbf 5f27 7c3e 9339 dbbe
000002a0: a4b8 a13e b8d5 c6be fca8 7abd ac79 1dbe
000002b0: 1570 653d 5c93 60be 78e9 f43e 9f44 d8be
000002c0: 9599 c2be b67f d13e d634 b13d f53b 69bf
000002d0: 5fa9 cebd 1f18 f73e 38cd 9dbe 4a2e b03e
000002e0: cbf6 9fbb 3171 9abd 6d19 f73e e58a 833d
000002f0: 79ff 8c3e 3b19 c43d db3f 4a3f aba7 05be
00000300: 1071 183f 49c6 17bf 9bab b23c 0e9e 273f
00000310: cdee dcbd 2cac 503e 311e 40be 7190 e13d

weight_logvar f4 [20, 10]
-9.010764 -9.014257 -8.991258 -8.996341 -9.025732 -8.995278 -8.995722 -8.992562
-8.9880905 -9.02104 -8.995427 -9.01041 -8.996368 -8.995934 -9.000992 -8.986955
-9.004603 -8.989058 -8.984166 -8.9873085 -9.001717 -9.004717 -9.00589 -9.018157
-9.007072 -8.99949 -8.990853 -9.010514 -9.010072 -9.024326 -9.017527 -8.995622
-8.999993 -8.988255 -9.020309 -8.987378 -9.003894 -9.0121355 -9.007483 -9.005802
-9.000491 -8.999342 -9.005398 -9.00245 -9.000847 -8.985565 -9.02356 -8.999697
-9.027155 -8.998828 -9.009785 -9.008318 -8.9957 -8.998955 -8.998158 -8.994658
-9.004525 -9.018484 -8.979844 -8.988293 -8.985783 -9.008446 -9.001231 -8.9965
-8.999612 -8.9954815 -9.017702 -8.996078 -9.00241 -9.000622 -9.004834 -9.013034
-9.001347 -8.983611 -8.997525 -9.003071 -8.998016 -9.008627 -9.000093 -9.026367
-9.01479 -9.01744 -9.003179 -8.997659 -8.986427 -9.002284 -9.006396 -8.996609
-9.00889 -8.984248 -9.011429 -9.004136 -8.996318 -9.015019 -9.004618 -9.005405
-8.9867 -8.997795 -8.996308 -8.994759 -8.994866 -9.008895 -8.983511 -8.993189
-9.023012 -9.017965 -9.027287 -9.01415 -8.996209 -8.996015 -9.008279 -9.001272
-8.989555 -9.010329 -9.004633 -9.010413 -8.98462 -8.993567 -9.012101 -9.000858
-8.998834 -8.982879 -8.992904 -9.00625 -8.990132 -8.998793 -8.992659 -9.006937
-9.010784 -8.981992 -9.014072 -9.003393 -8.995658 -9.00783 -9.01433 -9.008867
-8.996019 -8.985829 -9.010383 -8.99491 -9.000588 -9.013442 -9.014377 -9.003295
-9.012607 -8.99927 -9.000292 -9.002475 -9.00362 -9.0030985 -9.025183 -8.981732
-9.017138 -8.980591 -9.002209 -9.009816 -9.00233 -9.005076 -8.994958 -9.007969
-9.000798 -9.003755 -9.003316 -8.997586 -8.997214 -9.002236 -8.992237 -8.996462
-8.992112 -9.016059 -9.001725 -8.998461 -8.991808 -8.993054 -8.989838 -8.999018
-9.000382 -9.014554 -8.989195 -9.002262 -9.006907 -8.996686 -9.007928 -8.999981
-8.9976225 -9.005881 -8.996398 -9.015429 -9.0134 -9.006554 -8.997657 -9.017769
-9.008142 -9.022478 -8.998712 -9.009752 -9.00312 -8.990186 -9.002152 -9.021844
00000000: 172c 10c1 663a 10c1 31dc 0fc1 03f1 0fc1
00000010: 6669 10c1 a9ec 0fc1 7aee 0fc1 89e1 0fc1
00000020: 38cf 0fc1 2e56 10c1 45ed 0fc1 a42a 10c1
00000030: 20f1 0fc1 58ef 0fc1 1004 10c1 91ca 0fc1
00000040: db12 10c1 2ed3 0fc1 25bf 0fc1 04cc 0fc1
00000050: 0807 10c1 5213 10c1 2018 10c1 5f4a 10c1
00000060: f81c 10c1 e9fd 0fc1 89da 0fc1 112b 10c1
00000070: 4129 10c1 a463 10c1 ca47 10c1 11ee 0fc1
00000080: f9ff 0fc1 e4cf 0fc1 3053 10c1 4dcc 0fc1
00000090: f30f 10c1 b531 10c1 a61e 10c1 c417 10c1
000000a0: 0302 10c1 4efd 0fc1 1c16 10c1 090a 10c1
000000b0: 7803 10c1 e0c4 0fc1 8060 10c1 c2fe 0fc1
000000c0: 3a6f 10c1 33fb 0fc1 1428 10c1 1222 10c1
000000d0: 63ee 0fc1 b8fb 0fc1 75f8 0fc1 1fea 0fc1
000000e0: 8912 10c1 b64b 10c1 71ad 0fc1 0cd0 0fc1
000000f0: c4c5 0fc1 9822 10c1 0b05 10c1 aaf1 0fc1
00000100: 69fe 0fc1 7eed 0fc1 8248 10c1 efef 0fc1
00000110: df09 10c1 8c02 10c1 cd13 10c1 6335 10c1
00000120: 8405 10c1 dfbc 0fc1 ddf5 0fc1 940c 10c1
00000130: e0f7 0fc1 5623 10c1 6200 10c1 006c 10c1
00000140: 943c 10c1 6f47 10c1 050d 10c1 69f6 0fc1
00000150: 68c8 0fc1 5b09 10c1 331a 10c1 1cf2 0fc1
00000160: 6a24 10c1 7bbf 0fc1 d02e 10c1 f110 10c1
00000170: ebf0 0fc1 853d 10c1 ea12 10c1 2416 10c1
00000180: 86c9 0fc1 f8f6 0fc1 e1f0 0fc1 88ea 0fc1
00000190: f9ea 0fc1 6f24 10c1 76bc 0fc1 1ae4 0fc1
000001a0: 425e 10c1 9649 10c1 c46f 10c1 f539 10c1
000001b0: 79f0 0fc1 adef 0fc1 e921 10c1 3605 10c1
000001c0: 38d5 0fc1 4f2a 10c1 fa12 10c1 a72a 10c1
000001d0: 01c1 0fc1 a7e5 0fc1 9131 10c1 8403 10c1
000001e0: 39fb 0fc1 dfb9 0fc1 efe2 0fc1 9a19 10c1
000001f0: 95d7 0fc1 0efb 0fc1 eee1 0fc1 6a1c 10c1
00000200: 2c2c 10c1 3db6 0fc1 a439 10c1 e60d 10c1
00000210: 37ee 0fc1 1220 10c1 b23a 10c1 5224 10c1
00000220: b2ef 0fc1 f5c5 0fc1 872a 10c1 27eb 0fc1
00000230: 6902 10c1 0f37 10c1 e33a 10c1 7f0d 10c1
00000240: a333 10c1 03fd 0fc1 3201 10c1 230a 10c1
00000250: d40e 10c1 b10c 10c1 2667 10c1 2db5 0fc1
00000260: 3246 10c1 80b0 0fc1 0c09 10c1 3528 10c1
00000270: 8b09 10c1 cb14 10c1 59eb 0fc1 a420 10c1
00000280: 4503 10c1 610f 10c1 950d 10c1 1df6 0fc1
00000290: 97f4 0fc1 2909 10c1 34e0 0fc1 82f1 0fc1
000002a0: b1df 0fc1 c741 10c1 1107 10c1 b2f9 0fc1
000002b0: 72de 0fc1 8de3 0fc1 60d6 0fc1 fafb 0fc1
000002c0: 9101 10c1 9d3b 10c1 bed3 0fc1 4409 10c1
000002d0: 4b1c 10c1 6df2 0fc1 7920 10c1 ecff 0fc1
000002e0: 43f6 0fc1 1718 10c1 3ff1 0fc1 323f 10c1
000002f0: e336 10c1 d81a 10c1 67f6 0fc1 c848 10c1
00000300: 5a21 10c1 125c 10c1 b9fa 0fc1 f227 10c1
00000310: c80c 10c1 cdd7 0fc1 d108 10c1 7959 10c1

bias_mu f4 [20]
0.20110352 -0.10669013 0.14917402 0.24003483 -0.2213869 0.29946506 -0.17908524 -0.019011378
-0.18659759 0.47985414 -0.04623288 0.166632 0.10245997 -0.09011463 0.5003084 -0.100347616
-0.30930638 -0.15305938 -0.034748442 0.17609853
00000000: 15ee 4d3e 5b80 dabd 13c1 183e b1cb 753e
00000010: 3fb3 62be 7c53 993e 1f62 37be c0bd 9bbc
00000020: 7013 3fbe 71af f53e b05e 3dbd 94a1 2a3e
00000030: 88d6 d13d 058e b8bd 3614 003f 0d83 cdbd
00000040: 685d 9ebe 99bb 1cbe 6254 0ebd 2c53 343e

bias_logvar f4 [20]
-8.996179 -9.006946 -8.996955 -9.002098 -8.991472 -8.99838 -9.007695 -8.984684
-9.010936 -8.990949 -8.999225 -8.995201 -9.005585 -9.004291 -9.004283 -9.012346
-8.990369 -8.997102 -9.000771 -8.997732
00000000: 59f0 0fc1 731c 10c1 87f3 0fc1 9808 10c1
00000010: 12dd 0fc1 5df9 0fc1 851f 10c1 44c1 0fc1
00000020: cb2c 10c1 edda 0fc1 d3fc 0fc1 58ec 0fc1
00000030: e016 10c1 9311 10c1 8b11 10c1 9232 10c1
00000040: 8dd8 0fc1 21f4 0fc1 2803 10c1 b6f6 0fc1

posterior_weight_variance f4 [20, 10]
0.00017089769 0.00014820803 0.00017845072 0.00019285329 0.00015799544 0.00020993591 0.00017914387 0.000117749114
0.00021168846 0.000112777125 0.00017353907 0.00014878104 0.00017754204 0.00019293137 0.00016195579 0.00021169052
0.000177559 0.00011816472 0.00021252067 0.00011664719 0.00017245504 0.00014963107 0.00017585504 0.00018869125
0.00016097163 0.0002090533 0.00018001786 0.00011565166 0.00020708583 0.00011240865 0.00016974634 0.00015099753
0.00017689561 0.00019442182 0.0001588549 0.00021161349 0.00017768523 0.00011546393 0.00020762654 0.0001145131
0.00017266221 0.00015044211 0.00017594079 0.0001916958 0.00016197706 0.00021199496 0.00017423286 0.00011691
0.0002035783 0.00011531284 0.0001710651 0.00014909112 0.00017765586 0.00019235362 0.0001624152 0.0002100661
0.00017757287 0.000114733215 0.00021344889 0.00011653141 0.00017522239 0.00014907205 0.00017667512 0.00019282608
0.00016218361 0.00020989456 0.00017524917 0.00011733691 0.0002086796 0.000115103496 0.0001719206 0.00014839144
0.00017666066 0.00019532337 0.00016251703 0.00020830598 0.00017873252 0.0001158722 0.0002091625 0.000112179034
0.00017021404 0.00014774162 0.00017633289 0.0001926008 0.00016432951 0.00020847029 0.00017724317 0.00011727133
0.00020733185 0.0001170037 0.00017078384 0.00014971818 0.00017754531 0.00018928453 0.00016136756 0.00020782539
0.00018076679 0.00011713206 0.00020995573 0.0001157808 0.00017363604 0.0001490065 0.00017983798 0.00019346598
0.00015843516 0.00020522729 0.00017357928 0.00011523305 0.00020997669 0.00011563501 0.0001713243 0.00015014714
0.00017875197 0.00019017617 0.0001613735 0.00020678237 0.00018114704 0.00011762785 0.00020667663 0.0001150767
0.00017294967 0.00015293297 0.00017815783 0.00019095124 0.0001637236 0.00020919906 0.0001796936 0.00011606587
0.00020694024 0.00011726864 0.00017033957 0.00014982701 0.0001776694 0.00019065407 0.00015980979 0.00020710558
0.00017909515 0.00011854208 0.00020702143 0.00011577198 0.00017264526 0.00014833409 0.00017436966 0.00019151696
0.00016008432 0.00020909944 0.0001783272 0.000116584764 0.00020842643 0.000114824696 0.00016845122 0.00015311006
0.0001738902 0.00019591422 0.00016175673 0.00020690823 0.00017796321 0.000116284675 0.00021024497 0.00011426111
0.00017261546 0.00014977303 0.00017630917 0.00019261328 0.0001625662 0.00020849134 0.00017976928 0.000117290685
0.00021084012 0.00011334254 0.00017244919 0.00015056816 0.00017834787 0.00019348823 0.00016377307 0.00020915468
0.00017831224 0.00011518748 0.00021145467 0.00011492751 0.00017155791 0.0001508388 0.00017549733 0.00019215372
0.00016249964 0.00020772146 0.00017902549 0.00011508434 0.00020639884 0.00011442288 0.00017316171 0.00014768876
0.00017546357 0.00018788251 0.00016232276 0.00020692521 0.00017782264 0.00011802695 0.00020873283 0.00011268667
00000000: 0033 3339 4a68 1b39 801e 3b39 a938 4a39
00000010: 94ab 2539 3e22 5c39 91d8 3b39 13f0 f638
00000020: b0f8 5d39 c282 ec38 0af8 3539 1b02 1c39
00000030: 942a 3a39 9f4d 4a39 add2 2939 3ef9 5d39
00000040: 222f 3a39 33cf f738 15d8 5e39 7ca0 f438
00000050: 0cd5 3439 49e6 1c39 ba65 3839 6cdb 4539
00000060: 7eca 2839 5135 5b39 2dc3 3c39 038a f238
00000070: 2e25 5939 efbc eb38 f0fd 3139 1755 1e39
00000080: 0e7d 3939 b6dd 4b39 4a92 2639 90e4 5d39
00000090: 0451 3a39 3a25 f238 53b6 5939 c126 f038
000000a0: a90c 3539 ffbf 1d39 bf7c 3839 f301 4939
000000b0: 63d8 2939 f74a 5e39 47b2 3639 942d f538
000000c0: a277 5539 1cd4 f138 f05f 3339 5855 1c39
000000d0: 2249 3a39 88b2 4939 004e 2a39 3045 5c39
000000e0: db32 3a39 ed9c f038 40d1 5f39 5362 f438
000000f0: e7bb 3739 3950 1c39 de41 3939 5b31 4a39
00000100: d50f 2a39 2417 5c39 17c3 3739 c612 f638
00000110: 01d1 5a39 b863 f138 9645 3439 8699 1b39
00000120: fc3d 3939 b8cf 4c39 5569 2a39 b66c 5a39
00000130: 256a 3b39 6a00 f338 a252 5b39 a941 eb38
00000140: 7c7b 3239 17eb 1a39 00e6 3839 e2f4 4939
00000150: de4f 2c39 d198 5a39 5ada 3939 91ef f538
00000160: 3867 5939 e25f f538 7014 3339 abfd 1c39
00000170: 752b 3a39 ae7a 4639 c634 2939 b4eb 5939
00000180: 378c 3d39 cca4 f538 9027 5c39 58cf f238
00000190: 1212 3639 a13e 1c39 e492 3c39 21dd 4a39
000001a0: 9d21 2639 4832 5739 d502 3639 46a9 f138
000001b0: 302d 5c39 1381 f238 84a5 3339 d170 1d39
000001c0: 5e6f 3b39 076a 4739 5e36 2939 b8d3 5839
000001d0: 4af2 3d39 f9ae f638 56b7 5839 5555 f138
000001e0: d359 3539 a25c 2039 e1cf 3a39 153a 4839
000001f0: 38ad 2b39 725c 5b39 226c 3c39 6468 f338
00000200: 19fe 5839 1fee f538 2e9d 3239 e21a 1d39
00000210: c44c 3a39 50ea 4739 9d92 2739 7b2a 5939
00000220: 7dcb 3b39 cb99 f838 e413 5939 9cca f238
00000230: 1c08 3539 218a 1b39 00d7 3639 f1d1 4839
00000240: 4fdc 2739 b441 5b39 58fd 3a39 f87e f438
00000250: 0b8d 5a39 0ace f038 48a2 3039 2b8c 2039
00000260: 4c56 3639 536e 4d39 3e9d 2939 81f5 5839
00000270: a39b 3a39 dcdd f338 3475 5c39 779f ef38
00000280: 1c00 3539 640c 1d39 a2df 3839 3cf8 4939
00000290: 8876 2a39 789e 5a39 7380 3c39 f5f9 f538
000002a0: f714 5d39 50b2 ed38 7ad3 3439 d5e1 1d39
000002b0: e402 3b39 1ae3 4a39 80ba 2b39 8850 5b39
000002c0: 54f9 3a39 cf90 f138 eeb9 5d39 3d05 f138
000002d0: 3ae4 3339 7b2a 1e39 b505 3839 df7c 4939
000002e0: aa64 2a39 cecf 5939 cab8 3b39 6f59 f138
000002f0: c46c 5839 51f6 ef38 be92 3539 e6dc 1a39
00000300: a5fc 3739 5402 4539 2f35 2a39 10fa 5839
00000310: e775 3a39 3c85 f738 4bdf 5a39 3252 ec38

posterior_weight_mean f4 [20, 10]
0.16273065 0.036367685 -0.66578054 -0.24895495 0.010460992 0.2022612 0.28608277 0.42789578
0.16788483 -0.02061736 -0.19471155 0.3765069 -0.73505634 -0.119488545 0.49048686 0.16070545
0.06770188 -0.5643854 -0.10433424 0.25221238 -0.63703674 0.43297982 0.3251362 0.18664628
-0.18113339 0.043488692 0.2328519 0.16622593 0.062194508 0.311111 -0.26372567 -0.36406457
-0.39769518 0.5854531 0.18751046 -1.1954004 0.1490821 0.055625033 0.6557154 -0.516076
-0.11416691 -0.74706614 -0.16753507 -1.3522077 -0.21820171 -1.0713071 -0.8803088 0.24008569
0.1308503 -0.40442294 0.15217234 0.13422808 0.2738832 0.673264 0.4802323 0.20272362
0.047921043 0.05081551 0.9192706 -0.027120776 -0.41957578 0.12245976 -0.055541072 -0.6509273
0.77681875 -0.4281461 -0.283281 0.49389112 0.34408802 -0.0026659116 0.7904415 0.4028238
-0.75055027 -0.085361846 0.37073484 0.004634004 -0.10670813 -0.39504454 0.0010634933 0.26280528
0.5458291 0.60825974 -0.38142952 -0.4684753 -0.19544399 0.19491851 0.46295163 -0.20444557
-0.3659774 0.04044193 0.0071017635 0.44852242 -0.026721839 -0.2627776 -0.2456082 0.76333255
-0.16387166 -0.166663 -0.030087806 -0.16666679 -0.06274475 -0.35976464 -0.63028926 -0.67940503
-0.9155786 0.32368633 -0.4987722 0.30760047 -0.13313173 -0.00018406975 -0.38981092 0.40793243
-0.42673016 0.5035856 0.89098096 -0.1589536 0.6222432 -0.019566434 1.093098 0.16193643
0.3298307 -0.22872531 -0.7081723 0.15281865 0.44007543 0.012561657 -0.30815333 -0.10881207
-0.4630134 0.20049065 -0.7835914 0.05786595 -0.8065147 0.6742243 -0.47537604 -0.6348998
-0.71578175 0.17129761 0.027034514 0.7465685 -0.01715682 0.6506132 -0.42187607 0.2832863
0.35921466 0.1777292 -0.30995488 0.029031953 -0.18173163 0.6022196 -0.15341833 0.42927206
-0.5483573 -0.09503607 -0.23573752 -0.54315805 -0.09435722 0.4211443 0.78145736 0.11053177
-0.76610506 0.13196781 -0.43618008 -0.26154748 -0.13808936 -1.1384808 0.29604766 -0.41668066
0.41122973 -0.375169 -0.07240283 -0.16973422 0.06706335 -0.2736567 0.5482456 -0.5496235
-0.45695013 0.3981944 0.11265145 -0.8801501 -0.11938785 0.5326594 -0.36899605 0.42937037
-0.0055950955 -0.098124795 0.58022666 0.06250572 0.35853386 0.09250152 0.93471164 -0.14405955
0.712925 -0.73977965 0.024997558 0.8519655 -0.12969594 0.19831191 -0.24426168 0.10640076
00000000: dda2 263e 48f6 143d 9870 2abf 0cee 7ebe
00000010: 9564 2b3c 8f1d 4f3e 7179 923e 2815 db3e
00000020: 00ea 2b3e bde5 a8bc 7762 47be 83c5 c03e
00000030: a72c 3cbf 69b6 f4bd 1821 fb3e f88f 243e
00000040: 49a7 8a3d 907b 10bf 31ad d5bd fb21 813e
00000050: d714 23bf 88af dd3e 4178 a63e 3420 3f3e
00000060: 087b 39be 3321 323d ba70 6e3e 2137 2a3e
00000070: abbf 7e3d f149 9f3e 0d07 87be ac66 babe
00000080: b49e cbbe 41e0 153f be02 403e e102 99bf
00000090: faa8 183e 13d7 633d f7dc 273f 8f1d 04bf
000000a0: 57d0 e9bd ba3f 3fbf 508e 2bbe 2415 adbf
000000b0: 4570 5fbe 9720 89bf eb5b 61bf 06d9 753e
000000c0: 9ffd 053e 8610 cfbe 11d3 1b3e 1673 093e
000000d0: 6b3a 8c3e 085b 2c3f 02e1 f53e c896 4f3e
000000e0: db48 443d ed23 503d 5155 6b3f 642c debc
000000f0: a3d2 d6be 2fcc fa3d 097f 63bd 2ca3 26bf
00000100: 98dd 463f f735 dbbe 350a 91be 4cdf fc3e
00000110: 4e2c b03e 93b6 2ebb 605a 4a3f ec3e ce3e
00000120: 1024 40bf 31d2 aebd f5d0 bd3e d8d8 973b
00000130: cb89 dabd 4743 cabe ea64 8b3a 6a8e 863e
00000140: 75bb 0b3f e9b6 1b3f bb4a c3be ffdb efbe
00000150: 7822 48be b898 473e ff07 ed3e 2e5a 51be
00000160: 6461 bbbe 70a6 253d e9b5 e83b bba4 e53e
00000170: c2e7 dabc c98a 86be b780 7bbe c369 433f
00000180: f9cd 27be b5a9 2abe b47a f6bc b3aa 2abe
00000190: 5280 80bd 1233 b8be a35a 21bf 7ded 2dbf
000001a0: 5c63 6abf 37ba a53e 125f ffbe cf7d 9d3e
000001b0: af53 08be d902 41b9 4c95 c7be 85dc d03e
000001c0: 607c dabe fcea 003f 5417 643f bcc4 22be
000001d0: 554b 1f3f c949 a0bc a3ea 8b3f aad2 253e
000001e0: 92df a83e f836 6abe c84a 35bf 7e7c 1c3e
000001f0: 9151 e13e 68cf 4d3c 46c6 9dbe ddd8 debd
00000200: 1810 edbe 6c4d 4d3e 7299 48bf d904 6d3d
00000210: bf77 4ebf f799 2c3f 7d64 f3be cb88 22bf
00000220: 793d 37bf a468 2f3e 7c77 dd3c 1d1f 3f3f
00000230: 768c 8cbc 968e 263f 2400 d8be e70a 913e
00000240: fcea b73e a5fe 353e 68b2 9ebe 6bd4 ed3c
00000250: db17 3abe 102b 1a3f b219 1dbe 8cc9 db3e
00000260: 2561 0cbf 45a2 c2bd 2d65 71be 680c 0bbf
00000270: 5c3e c1bd 3aa0 d73e 970d 483f 7b5e e23d
00000280: 761f 44bf 9222 073e ff52 dfbe 8de9 85be
00000290: 4c67 0dbe bdb9 91bf 8f93 973e 2b57 d5be
000002a0: b48c d23e 2716 c0be ef47 94bd cfce 2dbe
000002b0: 8258 893d bb1c 8cbe d359 0c3f 20b4 0cbf
000002c0: 5ef5 e9be 23e0 cb3e ceb5 e63d 8451 61bf
000002d0: 9e81 f4bd 5e5c 083f 0ded bcbe 6fd6 db3e
000002e0: 1057 b7bb a7f5 c8bd bc89 143f 0003 803d
000002f0: c091 b73e 7071 bd3d 4349 6f3f 5984 13be
00000300: 4182 363f 3362 3dbf aec7 cc3c 691a 5a3f
00000310: 03cf 04be 4712 4b3e bc1f 7abe a4e8 d93d

dropout_mu f4 [20]
1.5728283 1.2607476 1.6277928 1.6788125 1.0483282 1.6781043 1.4397527 1.3024125
1.4326998 1.825974 1.4164649 2.0221527 1.5657356 1.011281 1.5281439 1.0899721
0.81457967 1.612807 1.0758599 2.3870804
00000000: 7052 c93f 2d60 a13f 845b d03f 54e3 d63f
00000010: 9e2f 863f 1fcc d63f d149 b83f 74b5 a63f
00000020: b562 b73f 84b9 e93f b94e b53f f36a 0140
00000030: 066a c83f a871 813f 389a c33f 3584 8b3f
00000040: 4b88 503f 7670 ce3f c7b5 893f edc5 1840

dropout_logvar f4 [20]
-8.99209 -9.002152 -8.994667 -8.998378 -8.9928255 -9.015031 -9.01043 -9.000498
-9.00098 -9.0221615 -9.00637 -9.013158 -8.99859 -8.993787 -9.017341 -9.016223
-8.995045 -9.007767 -9.006726 -9.011525
00000000: 9adf 0fc1 d108 10c1 28ea 0fc1 5bf9 0fc1
00000010: 9de2 0fc1 913d 10c1 b92a 10c1 0a02 10c1
00000020: 0404 10c1 c65a 10c1 171a 10c1 e535 10c1
00000030: 3afa 0fc1 8de6 0fc1 0747 10c1 7342 10c1
00000040: b4eb 0fc1 d01f 10c1 8d1b 10c1 352f 10c1

weight_mu f4 [5, 20]
-0.4798026 -0.19675507 -0.32849732 -0.4441912 -0.13824643 -0.7706588 -0.23276936 -0.52341133
-0.7376835 -0.71351224 -0.65959334 -1.4027807 -0.63436073 -0.14470741 -0.6898408 -0.45239636
-0.03419683 0.55613065 -0.11720434 0.8485695 -0.034717917 0.18380298 0.108843386 0.7444325
0.63512266 0.24869917 -0.06288568 -0.043833196 0.37076813 0.7239423 0.48121783 -0.5835098
0.077471755 0.4054214 0.10340534 -0.22528172 0.13259424 0.4189349 0.10781245 0.38951167
0.27048182 -0.23510596 0.4548336 0.055180356 -0.112515055 0.6920121 0.33991814 0.4948537
0.13877444 0.3872195 0.44530517 0.11315357 0.32276636 -0.20504282 0.31693622 0.062820904
0.19659953 0.39282897 0.31958038 0.0058600917 -0.14618862 0.34254122 0.3837721 0.089081466
-0.02140477 0.019443734 0.1425356 0.4377165 0.11916733 0.21334146 -0.44920388 0.4653674
0.0575829 -0.23547359 0.29027703 -0.22015356 0.16345426 -0.09134443 -0.21597117 -0.8141654
-0.7766102 -0.69734776 -0.5893238 -0.4070325 -0.014584014 -0.55321836 -0.73877084 -0.13862333
-0.47071072 -1.1649863 -0.6531497 0.5291905 -0.51207274 -0.20341015 -0.45978358 -0.45556954
-0.19755055 -1.1399938 -0.18852764 -1.7006902
00000000: b0a8 f5be 297a 49be cd30 a8be 076d e3be
00000010: 7990 0dbe e549 45bf 175b 6ebe 49fe 05bf
00000020: d3d8 3cbf bda8 36bf 1cdb 28bf 518e b3bf
00000030: 7765 22bf 2e2e 14be 6899 30bf 7fa0 e7be
00000040: fa11 0cbd 945e 0e3f d408 f0bd da3b 593f
00000050: 6034 0ebd d936 3c3e 48e9 de3d 2193 3e3f
00000060: 6697 223f ffaa 7e3e 35ca 80bd 708a 33bd
00000070: 52d5 bd3e 4854 393f 2f62 f63e e660 15bf
00000080: 83a9 9e3d 6593 cf3e 2ec6 d33d 40b0 66be
00000090: c9c6 073e a37e d63e c6cc dc3d 136e c73e
000000a0: 987c 8a3e 9ebf 70be f3df e83e cc04 623d
000000b0: 4b6e e6bd b427 313f c009 ae3e 775d fd3e
000000c0: e31a 0e3e a241 c63e 0aff e33e 0fbd e73d
000000d0: a241 a53e bff6 51be 7745 a23e 3fa8 803d
000000e0: 6351 493e e120 c93e 0aa0 a33e 0306 c03b
000000f0: 78b2 15be 9061 af3e c77d c43e 5870 b63d
00000100: 0e59 afbc 7748 9f3c daf4 113e 611c e03e
00000110: 000e f43d 2f76 5a3e 0dfe e5be a344 ee3e
00000120: 0cdc 6b3d fd1f 71be 319f 943e ef6f 61be
00000130: 8e60 273e ca12 bbbd 8c27 5dbe 256d 50bf
00000140: edcf 46bf 6285 32bf eddd 16bf 9066 d0be
00000150: caf1 6ebc b89f 0dbf 1620 3dbf 46f3 0dbe
00000160: ff00 f1be 451e 95bf d234 27bf 0779 073f
00000170: 3317 03bf c04a 50be c168 ebbe 6940 e9be
00000180: b14a 4abe 51eb 91bf 640d 41be 37b0 d9bf

weight_logvar f4 [5, 20]
-9.010897 -9.0163145 -8.991034 -8.999675 -9.017739 -8.998734 -9.005927 -9.005384
-9.007494 -9.003715 -9.01369 -9.011276 -9.007218 -9.004476 -8.993814 -8.992976
-9.010464 -8.996984 -8.991442 -9.019142 -8.985122 -8.988832 -9.000404 -8.9991255
-8.996961 -8.99453 -9.009766 -8.987329 -9.0060835 -8.994202 -8.990453 -9.0121355
-8.995717 -8.993179 -8.998672 -9.00107 -8.997677 -8.997065 -9.014889 -9.013545
-9.014965 -8.992246 -8.996099 -9.0164995 -9.012455 -9.003458 -9.000473 -8.9993515
-9.009365 -8.99807 -9.000388 -8.996191 -8.988887 -9.013819 -9.012633 -9.001672
-9.009616 -9.011075 -8.995457 -8.992194 -9.01028 -8.997173 -8.995816 -9.000105
-9.008294 -8.995096 -9.013936 -9.002495 -8.985996 -8.9905205 -8.99275 -9.016787
-9.010588 -8.988429 -8.993978 -8.993227 -9.011026 -8.993443 -9.008469 -9.014366
-8.9932575 -8.993455 -8.991848 -9.002818 -8.994984 -8.98678 -9.021985 -8.988542
-9.000739 -8.995915 -9.006295 -9.001174 -8.999231 -9.002105 -8.99711 -8.986404
-8.993482 -9.005402 -9.004564 -9.009261
00000000: a22c 10c1 d342 10c1 46db 0fc1 abfe 0fc1
00000010: a948 10c1 d1fa 0fc1 4718 10c1 0e16 10c1
00000020: b21e 10c1 370f 10c1 1338 10c1 302e 10c1
00000030: 911d 10c1 5512 10c1 aae6 0fc1 3be3 0fc1
00000040: dc2a 10c1 a5f3 0fc1 f2dc 0fc1 684e 10c1
00000050: 0fc3 0fc1 42d2 0fc1 a801 10c1 6bfc 0fc1
00000060: 8df3 0fc1 98e9 0fc1 0028 10c1 19cc 0fc1
00000070: eb18 10c1 40e8 0fc1 e5d8 0fc1 b531 10c1
00000080: 75ee 0fc1 10e4 0fc1 8ffa 0fc1 6204 10c1
00000090: 7cf6 0fc1 faf3 0fc1 fc3c 10c1 7b37 10c1
000000a0: 4c3d 10c1 3de0 0fc1 06f0 0fc1 9543 10c1
000000b0: 0433 10c1 2a0e 10c1 f001 10c1 58fd 0fc1
000000c0: 5c26 10c1 18f8 0fc1 9701 10c1 66f0 0fc1
000000d0: 7bd2 0fc1 9a38 10c1 bf33 10c1 d906 10c1
000000e0: 6327 10c1 5d2d 10c1 64ed 0fc1 07e0 0fc1
000000f0: 1b2a 10c1 6cf4 0fc1 ddee 0fc1 6e00 10c1
00000100: f921 10c1 eaeb 0fc1 1539 10c1 380a 10c1
00000110: a4c6 0fc1 2cd9 0fc1 4ee2 0fc1 c244 10c1
00000120: 5e2b 10c1 9bd0 0fc1 55e7 0fc1 42e4 0fc1
00000130: 2a2d 10c1 24e5 0fc1 b022 10c1 d83a 10c1
00000140: 62e4 0fc1 31e5 0fc1 9cde 0fc1 8b0b 10c1
00000150: 74eb 0fc1 dac9 0fc1 0d5a 10c1 11d1 0fc1
00000160: 0703 10c1 45ef 0fc1 c919 10c1 cf04 10c1
00000170: dafc 0fc1 9f08 10c1 2af4 0fc1 50c8 0fc1
00000180: 4de5 0fc1 2016 10c1 b212 10c1 ef25 10c1

bias_mu f4 [5]
-0.0856763 0.11519338 0.16128203 0.03624417 -0.22072387
00000000: 0e77 afbd 82ea eb3d 1e27 253e c474 143d
00000010: 7005 62be

bias_logvar f4 [5]
-9.014529 -8.985533 -8.99404 -9.0112505 -8.993328
00000000: 833b 10c1 bec4 0fc1 96e7 0fc1 152e 10c1
00000010: ace4 0fc1

posterior_weight_variance f4 [5, 20]
0.0003019847 0.00019298428 0.00032994698 0.00034793574 0.00013324198 0.0003479752 0.00025430374 0.00020821739
0.00025143148 0.00040995263 0.00024424595 0.000499006 0.00030037266 0.0001256466 0.00028998478 0.0001476522
8.103498e-05 0.0003219814 0.00014407164 0.0006898857 0.00030986595 0.00019836135 0.00032686812 0.00034813237
0.00013604545 0.00034943342 0.0002533287 0.00021200688 0.00025178023 0.00041387128 0.00024998494 0.0004985533
0.0003038412 0.0001270762 0.00028857277 0.00014645967 8.207807e-05 0.0003219533 0.00014073287 0.00069374946
0.00030075622 0.00019768579 0.00032828128 0.0003421279 0.00013394783 0.00034633372 0.00025569546 0.00020947692
0.00025095357 0.0004122679 0.000247513 0.00050656113 0.00030592515 0.00012447847 0.0002845731 0.00014637085
8.1104285e-05 0.00031747372 0.00014349572 0.00070871855 0.0003021679 0.000196715 0.00032837337 0.00034778324
0.00013450615 0.00034923461 0.00025227465 0.00020881869 0.00025688706 0.00041539042 0.0002494108 0.000496238
0.0002993563 0.0001276796 0.00028993163 0.00014761282 8.098979e-05 0.00032311902 0.00014163982 0.0006931876
0.00030736445 0.00019745347 0.00032968208 0.0003468433 0.00013630844 0.0003521556 0.00025026 0.00021175014
0.0002531307 0.00041317503 0.00024605865 0.0005040473 0.00030277923 0.00012594515 0.00028902665 0.0001486258
8.242347e-05 0.0003192972 0.00014219375 0.00069676863
00000000: b353 9e39 d35b 4a39 bcfc ac39 256b b639
00000010: dfb6 0b39 7170 b639 1254 8539 ee54 5a39
00000020: 90d2 8339 e9ee d639 230e 8039 bacf 023a
00000030: 567b 9d39 01c0 0339 1909 9839 16d3 1a39
00000040: 53f1 a938 9dcf a839 f011 1739 72d9 343a
00000050: 8175 a239 38ff 4f39 7f5f ab39 8985 b639
00000060: 6ca7 0e39 2934 b739 34d1 8439 2a4e 5e39
00000070: 5f01 8439 ddfc d839 6910 8339 58b1 023a
00000080: e04c 9f39 c23f 0539 954b 9739 f892 1939
00000090: 5421 ac38 d7cb a839 b191 1339 bddc 353a
000000a0: d1ae 9d39 e049 4f39 2b1d ac39 a15f b339
000000b0: 5974 0c39 2094 b539 dd0e 8639 08a7 5b39
000000c0: 6b92 8339 a925 d839 a2c4 8139 beca 043a
000000d0: 9464 a039 6f86 0239 c132 9539 207b 1939
000000e0: 8816 aa38 9a72 a639 5777 1639 4cc9 393a
000000f0: 4a6c 9e39 4845 4e39 8729 ac39 ad56 b639
00000100: 380a 0d39 7a19 b739 bb43 8439 57f6 5a39
00000110: ccae 8639 c2c8 d939 5ac3 8239 f815 023a
00000120: ecf2 9c39 bbe1 0539 f701 9839 84c8 1a39
00000130: 10d9 a938 4d68 a939 2685 1439 08b7 353a
00000140: c225 a139 830b 4f39 2ed9 ac39 85d8 b539
00000150: 05ee 0e39 86a1 b839 5435 8339 3f09 5e39
00000160: a1b6 8439 6a9f d839 6f01 8139 0b22 043a
00000170: 57be 9e39 2510 0439 8088 9739 6fd8 1b39
00000180: c3da ac38 5867 a739 d819 1539 5aa7 363a

posterior_weight_mean f4 [5, 20]
-0.75464714 -0.24805847 -0.5347256 -0.7457137 -0.14492762 -1.2932458 -0.3351303 -0.6816975
-1.0568789 -1.3028548 -0.9342908 -2.8366365 -0.9932412 -0.14633986 -1.054176 -0.49309942
-0.027856043 0.8969314 -0.12609544 2.0256038 -0.054605324 0.23172915 0.17717448 1.2497627
0.66581696 0.41734314 -0.09053983 -0.057088904 0.5311994 1.3218998 0.68162817 -1.179946
0.12130029 0.40999496 0.15801825 -0.2455508 0.10800857 0.67566115 0.11599109 0.9297957
0.42542148 -0.29640928 0.74037486 0.09263747 -0.1179527 1.1612685 0.48939806 0.64450365
0.19882211 0.7070527 0.6307592 0.2288138 0.5053668 -0.20735592 0.48432416 0.06847303
0.16014598 0.6335573 0.3438237 0.01398851 -0.2299296 0.431858 0.6247015 0.14955108
-0.022439223 0.032628614 0.205216 0.5700875 0.17073101 0.38955596 -0.63628155 0.9410439
0.090159595 -0.23812997 0.44358507 -0.23996124 0.13314652 -0.14732094 -0.23235473 -1.9434783
-1.2214745 -0.8791795 -0.95929706 -0.68333125 -0.015288833 -0.9283581 -1.0636473 -0.18054475
-0.67438716 -2.1272347 -0.9251637 1.0701039 -0.8017705 -0.20570482 -0.7026155 -0.4965581
-0.16092066 -1.83859 -0.20282933 -4.0596843
00000000: 8e30 41bf 0a03 7ebe c7e3 08bf 18e7 3ebf
00000010: e867 14be 1489 a5bf 3396 abbe ba83 2ebf
00000020: cf47 87bf f2c3 a6bf af2d 6fbf 748b 35c0
00000030: 0e45 7ebf 1eda 15be 3def 86bf 8777 fcbe
00000040: 5b32 e4bc 4c9d 653f 2a1f 01be 7ea3 0140
00000050: d5a9 5fbd 684a 6d3e 3a6d 353e 39f8 9f3f
00000060: fb72 2a3f 00ae d53e f26c b9bd 0ed6 69bd
00000070: affc 073f 0334 a93f 2f7f 2e3f 7808 97bf
00000080: 496c f83d dcea d13e 89cf 213e ab71 7bbe
00000090: 9933 dd3d 21f8 2c3f bd8c ed3d 1707 6e3f
000000a0: d8d0 d93e f5c2 97be 3589 3d3f b7b8 bd3d
000000b0: 2f91 f1bd 72a4 943f 6292 fa3e 31fe 243f
000000c0: 0698 4b3e 6801 353f 6f79 213f 2a4e 6a3e
000000d0: b85f 013f 1c55 54be 56f9 f73e 973b 8c3d
000000e0: 4ffd 233e d030 223f a909 b03e 1030 653c
000000f0: aa72 6bbe 7e1c dd3e 70ec 1f3f eb23 193e
00000100: 76d2 b7bc 95a5 053d 2524 523e 41f1 113f
00000110: 1cd4 2e3e e173 c73e 59e3 22bf 41e8 703f
00000120: 98a5 b83d 58d8 73be 951d e33e 66b8 75be
00000130: 9057 083e 4ddb 16be 66ee 6dbe e6c3 f8bf
00000140: 4759 9cbf e811 61bf 7e94 75bf ccee 2ebf
00000150: 037e 7abc e0a8 6dbf 9825 88bf b9e0 38be
00000160: a3a4 2cbf 9d24 08c0 87d7 6cbf 2af9 883f
00000170: d540 4dbf 49a4 52be 9cde 33bf dd3c febe
00000180: 63c8 24be eb56 ebbf 7eb2 4fbe efe8 81c0
