Activelearning/SeedModels/simple_model_AL.pth (torch, 15597 bytes, 24 tensors)

dropout_mu f4 [4]
000000 51 06 ac 3f f9 5f ac 3f ed 84 bd 3f 05 ea 8d 3f
       1.3439428 1.3466789 1.4806191 1.1087042

dropout_logvar f4 [4]
000000 2d de 0f c1 6f fb 0f c1 26 3f 10 c1 a8 b5 0f c1
       -8.991742 -8.998885 -9.015417 -8.98185

weight_mu f4 [10, 4]
000000 c2 f1 84 bf 5c 3a 35 3e 64 82 02 3f a4 a8 73 3c
       -1.0386279 0.17698044 0.5098021 0.01487175
000010 06 74 22 3f 1a 75 b4 be 65 fd 1d bf 98 07 2a 3e
       0.6345829 -0.3524559 -0.61714774 0.1660446
000020 79 6c 71 bd 43 0a e6 3e ea 75 ae bf e6 6f 4d 3e
       -0.05894134 0.44929704 -1.3629735 0.20062217
000030 72 1c 38 3f b0 15 0a bf 3a 8a 65 3f ff 90 3d bf
       0.71918404 -0.5393934 0.8966404 -0.7404937
000040 ee 15 ae 3d 1f fe c1 be a3 a8 59 3f 45 c2 e5 bc
       0.085002765 -0.37889192 0.85022944 -0.028046736
000050 7c f1 7a bf 1d 0d 4a bf f6 32 7b 3e 1b a7 11 bd
       -0.98024726 -0.7892626 0.24531159 -0.035559755
000060 5d 1a f9 3c 57 d5 85 bf c9 95 76 3d 5f d0 2c 3f
       0.030408079 -1.0455731 0.06020144 0.6750545
000070 7f 0c a2 be 59 79 c9 3e ff 43 18 3f 32 14 27 3f
       -0.3165016 0.39350393 0.59478754 0.6526519
000080 b0 22 92 3e 51 d7 06 3f 00 e2 1b 3f 45 e2 29 3f
       0.2854209 0.52672297 0.60891724 0.66360885
000090 23 bb 7f 3e 68 52 a8 bf c6 ff 22 3d cd 1c 34 bf
       0.2497373 -1.3150148 0.039794706 -0.70356447

weight_logvar f4 [10, 4]
000000 ec 66 0f c1 d7 0c 10 c1 67 2c 10 c1 82 d1 0f c1
       -8.962627 -9.003135 -9.01084 -8.988649
000010 2f 36 10 c1 3b e2 0f c1 8d e0 0f c1 7d 01 10 c1
       -9.013228 -8.992732 -8.992322 -9.000363
000020 01 15 10 c1 26 c7 0f c1 97 f4 0f c1 48 e9 0f c1
       -9.005128 -8.98612 -8.997214 -8.994453
000030 41 ec 0f c1 a7 14 10 c1 61 ef 0f c1 bd 06 10 c1
       -8.995179 -9.005042 -8.995942 -9.001645
000040 68 6a 10 c1 d7 01 10 c1 4f 1f 10 c1 ce 13 10 c1
       -9.025978 -9.000449 -9.007644 -9.004835
000050 1d 1e 10 c1 71 e6 0f c1 ce 9e 0f c1 76 ca 0f c1
       -9.007352 -8.99376 -8.976271 -8.986929
000060 b8 fd 0f c1 98 f5 0f c1 4a d6 0f c1 60 03 10 c1
       -8.999443 -8.997459 -8.989817 -9.000824
000070 3d 03 10 c1 8f 08 10 c1 1a 0e 10 c1 b0 b5 0f c1
       -9.000791 -9.0020895 -9.003443 -8.981857
000080 3b 34 10 c1 d1 43 10 c1 db 03 10 c1 ff 38 10 c1
       -9.012752 -9.016557 -9.000941 -9.013915
000090 56 0c 10 c1 1a f0 0f c1 69 e4 0f c1 4c 5c 10 c1
       -9.003012 -8.996119 -8.993264 -9.022533

bias_mu f4 [10]
000000 eb 3e 64 3e 23 58 9c 3e b7 50 7e 3e 97 f0 97 3e
       0.22289626 0.30535993 0.24835478 0.29675743
000010 ef 7b 19 3e 4f 11 6b 3e 71 ca 24 3f 8c 09 b1 bd
       0.14988683 0.22955821 0.643714 -0.08644399
000020 51 2b 26 3f 37 3f 3a be
       0.64909846 -0.18188177

bias_logvar f4 [10]
000000 25 30 10 c1 3c e2 0f c1 ee e4 0f c1 e7 15 10 c1
       -9.011754 -8.992733 -8.993391 -9.005347
000010 93 2a 10 c1 9c ec 0f c1 27 2a 10 c1 69 ee 0f c1
       -9.010394 -8.995266 -9.010291 -8.995706
000020 6d 4a 10 c1 5b df 0f c1
       -9.01817 -8.99203

posterior_weight_variance f4 [10, 4]
000000 84 a5 72 39 64 f2 69 39 ae 50 8c 39 14 e2 20 39
       0.00023140578 0.00022310909 0.00026762992 0.0001534301
000010 c2 a9 66 39 0c 65 6c 39 52 f0 8e 39 8e 02 1f 39
       0.00021997749 0.00022544357 0.00027263403 0.00015164373
000020 64 88 68 39 d1 f6 6d 39 b7 40 8e 39 e4 f3 1f 39
       0.00022176054 0.00022694028 0.00027132567 0.00015254278
000030 b6 dd 6a 39 54 81 69 39 f2 6c 8e 39 94 d0 1e 39
       0.00022398573 0.0002226879 0.0002716552 0.00015145756
000040 15 bc 63 39 e8 93 6a 39 9f c4 8c 39 d2 4c 1e 39
       0.00021718473 0.00022371078 0.00026849375 0.00015096672
000050 12 08 68 39 eb 28 6c 39 c0 3f 91 39 01 29 21 39
       0.0002212825 0.00022521957 0.00027704053 0.00015369432
000060 c2 db 69 39 9b 4b 6b 39 58 4b 8f 39 97 f1 1e 39
       0.00022302478 0.00022439512 0.0002733122 0.00015158053
000070 8c 8b 69 39 87 31 6a 39 95 5b 8d 39 93 fc 21 39
       0.00022272597 0.0002233443 0.0002696185 0.00015448248
000080 9d c4 66 39 e7 d4 66 39 41 b6 8d 39 54 e0 1c 39
       0.00022007753 0.00022013822 0.00027029405 0.00014960888
000090 be 06 69 39 0b 9f 6b 39 17 cd 8e 39 ec 87 1b 39
       0.00022223123 0.00022470595 0.00027237154 0.00014832587

posterior_weight_mean f4 [10, 4]
000000 6c ab b2 bf 4d 0e 74 3e 10 3c 41 3f 9f 12 87 3c
       -1.3958564 0.2383358 0.75482273 0.016488371
000010 ec 53 5a 3f a9 04 f3 be 39 ec 69 bf 3a 83 3c 3e
       0.85284305 -0.47464493 -0.9137607 0.18409434
000020 d6 3a a2 bd 23 e5 1a 3f a4 27 01 c0 dc c4 63 3e
       -0.07921378 0.60505885 -2.0180445 0.22243065
000030 4f 6f 77 3f ad f4 39 bf 3d ee a9 3f 4d 2c 52 bf
       0.9665422 -0.7263897 1.327583 -0.8209885
000040 0f f6 e9 3d 77 9f 02 bf 85 22 a1 3f 10 bc fe bc
       0.11423885 -0.51024574 1.258866 -0.031095535
000050 70 a0 a8 bf 8f 0c 88 bf 0e f7 b9 3e 5f 7c 21 bd
       -1.3173962 -1.0628833 0.363213 -0.03942525
000060 dc 63 27 3d 06 3b b4 bf 9f 8c b6 3d 7c 99 3f 3f
       0.040866718 -1.4080513 0.0891354 0.74843574
000070 ca c8 d9 be 10 a9 07 3f 87 72 61 3f b7 3d 39 3f
       -0.42536002 0.52992344 0.8806538 0.72359794
000080 d3 65 c4 3e 6f 96 35 3f 96 cd 66 3f d8 59 3c 3f
       0.38358936 0.7093267 0.9015745 0.7357459
000090 0b d8 ab 3e f0 ac e2 bf f0 56 71 3d 06 b1 47 bf
       0.33563265 -1.7709026 0.0589208 -0.7800449

dropout_mu f4 [10]
000000 a0 42 a2 3f 24 ec 98 3f 23 d3 98 3f 01 7b bf 3f
       1.2676582 1.1947064 1.1939434 1.4959413
000010 2d f3 a0 3f 07 09 ba 3f 6f 97 a0 3f 82 92 93 3f
       1.2574211 1.4534005 1.2546214 1.1529086
000020 68 6a b2 3f 9f 31 a1 3f
       1.3938723 1.2593268

dropout_logvar f4 [10]
000000 61 ec 0f c1 5d 22 10 c1 87 16 10 c1 d4 19 10 c1
       -8.99521 -9.008389 -9.0055 -9.006306
000010 e2 2a 10 c1 84 3a 10 c1 c4 e2 0f c1 eb 01 10 c1
       -9.010469 -9.014286 -8.992863 -9.000468
000020 f4 e4 0f c1 01 ee 0f c1
       -8.993397 -8.995606

weight_mu f4 [20, 10]
000000 89 62 9d 3e eb d0 8b 3e 97 51 86 bf 3c e9 1f bf
       0.3073924 0.2730783 -1.0493649 -0.6246526
000010 b3 b7 bc bd 88 76 1a 3f 66 1f 1a 3f 6b 64 8a 3e
       -0.09214725 0.60337114 0.6020416 0.27029738
000020 5a 1d 78 be 46 fc c9 be aa 85 03 bf 2f 49 6b 3c
       -0.24229947 -0.39450282 -0.5137583 0.01436071
000030 26 50 43 bf 23 2f 18 3e 59 d4 33 3f bc 0c 82 3e
       -0.7629417 0.14861731 0.7024589 0.2540034
000040 bb 97 6a 3e e7 ce 80 bf 74 4a a1 3e 41 e5 c0 3e
       0.22909443 -1.0063142 0.31502116 0.37674907
000050 03 9a 39 bf 8c f3 64 3e db 58 a5 3e fa ec b0 3d
       -0.7250063 0.22358531 0.32294354 0.0863895
000060 20 4a 69 be d3 6f d6 bd 1a 93 c4 3d 5a 0e a5 bc
       -0.22782183 -0.104705475 0.0959837 -0.020148445
000070 2d 6c 40 bd 41 3c af 3e 1e c0 98 3d 28 45 d9 3e
       -0.046978164 0.34225658 0.074585184 0.42435575
000080 1d bc 6b be 3a aa 3d 3f 8a 6e 01 3e 08 ba d2 bf
       -0.23020978 0.7408787 0.12639824 -1.6463022
000090 02 b0 01 bf 35 4a 92 be b8 19 f8 3e c6 33 79 bf
       -0.5065919 -0.2857224 0.48457122 -0.97344625
0000a0 2e de ec 3e a2 fe 42 bf 07 75 12 3e ee 67 b8 bf
       0.4626326 -0.7616979 0.14302455 -1.4406717
0000b0 35 38 aa be 55 09 e2 bf db 36 7e bf b6 66 53 3e
       -0.33246008 -1.7659098 -0.9930245 0.2064465
0000c0 37 86 a3 3e ca fb 23 bf 7f bd bd bc f8 53 22 3d
       0.31938335 -0.64056075 -0.023161648 0.03963086
0000d0 5c dd a4 3e 89 6d 0e 3f 4c d5 f5 3e c8 ca a9 3c
       0.32200134 0.5563589 0.48014295 0.020726576
0000e0 f2 c8 d2 bb 6f 5d 43 3d cb 41 1d 3f b6 ac d2 bd
       -0.006432646 0.047696527 0.6142852 -0.10286848
0000f0 53 61 0c bf 57 44 01 3d 6b 46 b4 3d 5c ca 60 bf
       -0.54836005 0.031559315 0.08802494 -0.87808776
000100 16 1b 6f 3f 82 0b cf bf 27 94 04 3e 38 44 47 3f
       0.93400705 -1.6175387 0.1294714 0.7783847
000110 96 8a 04 3f 18 be 19 3e e5 67 56 3f c7 4d b9 3e
       0.51773965 0.15013921 0.8375228 0.36192152
000120 36 e2 5f bf 98 56 20 be 12 00 aa 3e dc fb 7d 3e
       -0.87454545 -0.15658033 0.3320318 0.24803108
000130 6a 87 a8 bd 1b 7a d7 be 23 4f 81 be 9b ac 15 bc
       -0.08228953 -0.42085347 -0.2525569 -0.009135391
000140 6f 13 33 3f cd 50 42 3f e7 3d 1e bf e8 a0 37 bf
       0.6995153 0.7590454 -0.61813205 -0.717299
000150 17 b2 33 3d ba f7 af 3e af 19 0a 3f 5a b8 3a be
       0.04387101 0.34368688 0.5394544 -0.18234387
000160 47 de 41 be ca 4d bf bd 76 2b 28 3c c1 71 08 3f
       -0.18932448 -0.09341009 0.010264268 0.53298575
000170 35 ac a6 bd ca 0b ed be bc c4 15 bf e3 bc 46 3f
       -0.08138315 -0.46298057 -0.5850332 0.7763197
000180 25 19 51 be 4b 46 03 bf b4 ab 1b be 49 79 65 bd
       -0.20419748 -0.51279134 -0.15202218 -0.05602387
000190 ed 52 58 3e 2b d3 91 be 00 57 fd be 81 f0 81 bf
       0.21125384 -0.2848142 -0.49480438 -1.0151521
0001a0 e2 42 6b bf 05 8e 13 3f ae 5d c3 be f5 d4 26 3f
       -0.9189893 0.5763858 -0.3815741 0.65168697
0001b0 2b 0f 92 3e 6e b2 de be d2 80 c6 be 2e 6a ab 3e
       0.28527197 -0.43495506 -0.38770157 0.33479446
0001c0 17 a6 96 be 00 43 a4 3e 98 13 3b 3f 3f 65 0f be
       -0.29423591 0.32082367 0.7307677 -0.14003466
0001d0 89 35 d8 3e 5f 6e 5b 3c cd 02 68 3f d0 6b c9 3d
       0.42228344 0.013393014 0.90629274 0.09835017
0001e0 4a c7 9d 3e 1b 27 8f be 8c 76 43 bf 4c b6 34 be
       0.30816108 -0.27959523 -0.76352763 -0.17647666
0001f0 d1 39 6d 3e b1 65 08 3e fa 2c 88 be 70 49 45 be
       0.23166586 0.13320042 -0.26596814 -0.19266295
000200 d4 f7 23 bf 46 b4 36 bd bf af 17 bf a8 96 a9 3e
       -0.6405003 -0.044605516 -0.5925254 0.33122754
000210 a4 04 4c bf 97 96 37 3f d1 a7 e0 be 2c 89 03 bf
       -0.7969458 0.71714157 -0.43878034 -0.5138118
000220 17 c4 28 bf d3 c4 4e 3e 34 62 6e 3e dd c2 3d 3f
       -0.6592421 0.2019227 0.23279649 0.7412546
000230 30 a1 7c be 27 bf a3 3e a5 d6 80 be a6 f2 9b 3e
       -0.24670863 0.31981775 -0.2516376 0.30458564
000240 6e 66 ff 3e 0c d4 1a 3e c1 f3 41 be a0 83 c3 be
       0.49882835 0.15119952 -0.18940641 -0.3818636
000250 88 94 22 be 15 bf 2d 3f 2d 65 6b bd 50 52 bd 3e
       -0.15876973 0.67869693 -0.057469536 0.36976862
000260 5f c9 86 be 14 9c a9 bd 16 9c c3 be e0 f6 cd bf
       -0.2632551 -0.08281723 -0.38205022 -1.6090965
000270 62 ed 13 be b9 19 07 3f 91 29 42 3f e5 b5 27 3d
       -0.14446023 0.52773625 0.75844675 0.040944953
000280 8a 5f 9c bc 30 42 d0 3e d3 b9 a8 bd ce c3 7a 3d
       -0.019088525 0.40675497 -0.08238568 0.06122189
000290 38 77 d2 bd 74 b3 f8 bf ef 7e dd 3e 5f d1 ea be
       -0.102766454 -1.9429765 0.43260905 -0.45862862
0002a0 d0 8a 26 3f bd 8d c0 be b2 01 89 3e 66 f2 f1 3e
       0.6505556 -0.37608138 0.26759106 0.47255248
0002b0 d6 91 7f 3e aa 22 74 3e 4e 82 58 3f f1 e5 8e bf
       0.24957976 0.23841348 0.8457383 -1.1163923
0002c0 3e 9b 29 bf d8 71 16 3f 90 f4 c8 3d 39 b9 a3 bf
       -0.66252506 0.5876746 0.098122716 -1.27909
0002d0 cd 67 bc be 1e df f4 3e 17 85 d6 be 7d b1 dc 3e
       -0.36797944 0.47826475 -0.41898414 0.43104163
0002e0 aa 88 fd 3c 0b 2d a8 bd 76 4d 14 3f 78 06 83 bd
       0.030948956 -0.08211716 0.57930696 -0.06397718
0002f0 67 50 e7 3d af f7 36 3d a8 f0 43 3f 91 68 73 be
       0.112946324 0.044669803 0.7653909 -0.23770358
000300 12 c8 06 3f 61 7e 30 bf f9 6a 93 bd 4b bf 0c 3f
       0.52649033 -0.6894284 -0.07198138 0.5497939
000310 d4 18 f8 bd af ad 87 3e 28 62 3d be c6 f4 b7 3e
       -0.121141106 0.26499698 -0.18494475 0.35928935

weight_logvar f4 [20, 10]
000000 17 2c 10 c1 66 3a 10 c1 31 dc 0f c1 03 f1 0f c1
       -9.010764 -9.014257 -8.991258 -8.996341
000010 66 69 10 c1 a9 ec 0f c1 7a ee 0f c1 89 e1 0f c1
       -9.025732 -8.995278 -8.995722 -8.992562
000020 38 cf 0f c1 2e 56 10 c1 45 ed 0f c1 a4 2a 10 c1
       -8.9880905 -9.02104 -8.995427 -9.01041
000030 20 f1 0f c1 58 ef 0f c1 10 04 10 c1 91 ca 0f c1
       -8.996368 -8.995934 -9.000992 -8.986955
000040 db 12 10 c1 2e d3 0f c1 25 bf 0f c1 04 cc 0f c1
       -9.004603 -8.989058 -8.984166 -8.9873085
000050 08 07 10 c1 52 13 10 c1 20 18 10 c1 5f 4a 10 c1
       -9.001717 -9.004717 -9.00589 -9.018157
000060 f8 1c 10 c1 e9 fd 0f c1 89 da 0f c1 11 2b 10 c1
       -9.007072 -8.99949 -8.990853 -9.010514
000070 41 29 10 c1 a4 63 10 c1 ca 47 10 c1 11 ee 0f c1
       -9.010072 -9.024326 -9.017527 -8.995622
000080 f9 ff 0f c1 e4 cf 0f c1 30 53 10 c1 4d cc 0f c1
       -8.999993 -8.988255 -9.020309 -8.987378
000090 f3 0f 10 c1 b5 31 10 c1 a6 1e 10 c1 c4 17 10 c1
       -9.003894 -9.0121355 -9.007483 -9.005802
0000a0 03 02 10 c1 4e fd 0f c1 1c 16 10 c1 09 0a 10 c1
       -9.000491 -8.999342 -9.005398 -9.00245
0000b0 78 03 10 c1 e0 c4 0f c1 80 60 10 c1 c2 fe 0f c1
       -9.000847 -8.985565 -9.02356 -8.999697
0000c0 3a 6f 10 c1 33 fb 0f c1 14 28 10 c1 12 22 10 c1
       -9.027155 -8.998828 -9.009785 -9.008318
0000d0 63 ee 0f c1 b8 fb 0f c1 75 f8 0f c1 1f ea 0f c1
       -8.9957 -8.998955 -8.998158 -8.994658
0000e0 89 12 10 c1 b6 4b 10 c1 71 ad 0f c1 0c d0 0f c1
       -9.004525 -9.018484 -8.979844 -8.988293
0000f0 c4 c5 0f c1 98 22 10 c1 0b 05 10 c1 aa f1 0f c1
       -8.985783 -9.008446 -9.001231 -8.9965
000100 69 fe 0f c1 7e ed 0f c1 82 48 10 c1 ef ef 0f c1
       -8.999612 -8.9954815 -9.017702 -8.996078
000110 df 09 10 c1 8c 02 10 c1 cd 13 10 c1 63 35 10 c1
       -9.00241 -9.000622 -9.004834 -9.013034
000120 84 05 10 c1 df bc 0f c1 dd f5 0f c1 94 0c 10 c1
       -9.001347 -8.983611 -8.997525 -9.003071
000130 e0 f7 0f c1 56 23 10 c1 62 00 10 c1 00 6c 10 c1
       -8.998016 -9.008627 -9.000093 -9.026367
000140 94 3c 10 c1 6f 47 10 c1 05 0d 10 c1 69 f6 0f c1
       -9.01479 -9.01744 -9.003179 -8.997659
000150 68 c8 0f c1 5b 09 10 c1 33 1a 10 c1 1c f2 0f c1
       -8.986427 -9.002284 -9.006396 -8.996609
000160 6a 24 10 c1 7b bf 0f c1 d0 2e 10 c1 f1 10 10 c1
       -9.00889 -8.984248 -9.011429 -9.004136
000170 eb f0 0f c1 85 3d 10 c1 ea 12 10 c1 24 16 10 c1
       -8.996318 -9.015019 -9.004618 -9.005405
000180 86 c9 0f c1 f8 f6 0f c1 e1 f0 0f c1 88 ea 0f c1
       -8.9867 -8.997795 -8.996308 -8.994759
000190 f9 ea 0f c1 6f 24 10 c1 76 bc 0f c1 1a e4 0f c1
       -8.994866 -9.008895 -8.983511 -8.993189
0001a0 42 5e 10 c1 96 49 10 c1 c4 6f 10 c1 f5 39 10 c1
       -9.023012 -9.017965 -9.027287 -9.01415
0001b0 79 f0 0f c1 ad ef 0f c1 e9 21 10 c1 36 05 10 c1
       -8.996209 -8.996015 -9.008279 -9.001272
0001c0 38 d5 0f c1 4f 2a 10 c1 fa 12 10 c1 a7 2a 10 c1
       -8.989555 -9.010329 -9.004633 -9.010413
0001d0 01 c1 0f c1 a7 e5 0f c1 91 31 10 c1 84 03 10 c1
       -8.98462 -8.993567 -9.012101 -9.000858
0001e0 39 fb 0f c1 df b9 0f c1 ef e2 0f c1 9a 19 10 c1
       -8.998834 -8.982879 -8.992904 -9.00625
0001f0 95 d7 0f c1 0e fb 0f c1 ee e1 0f c1 6a 1c 10 c1
       -8.990132 -8.998793 -8.992659 -9.006937
000200 2c 2c 10 c1 3d b6 0f c1 a4 39 10 c1 e6 0d 10 c1
       -9.010784 -8.981992 -9.014072 -9.003393
000210 37 ee 0f c1 12 20 10 c1 b2 3a 10 c1 52 24 10 c1
       -8.995658 -9.00783 -9.01433 -9.008867
000220 b2 ef 0f c1 f5 c5 0f c1 87 2a 10 c1 27 eb 0f c1
       -8.996019 -8.985829 -9.010383 -8.99491
000230 69 02 10 c1 0f 37 10 c1 e3 3a 10 c1 7f 0d 10 c1
       -9.000588 -9.013442 -9.014377 -9.003295
000240 a3 33 10 c1 03 fd 0f c1 32 01 10 c1 23 0a 10 c1
       -9.012607 -8.99927 -9.000292 -9.002475
000250 d4 0e 10 c1 b1 0c 10 c1 26 67 10 c1 2d b5 0f c1
       -9.00362 -9.0030985 -9.025183 -8.981732
000260 32 46 10 c1 80 b0 0f c1 0c 09 10 c1 35 28 10 c1
       -9.017138 -8.980591 -9.002209 -9.009816
000270 8b 09 10 c1 cb 14 10 c1 59 eb 0f c1 a4 20 10 c1
       -9.00233 -9.005076 -8.994958 -9.007969
000280 45 03 10 c1 61 0f 10 c1 95 0d 10 c1 1d f6 0f c1
       -9.000798 -9.003755 -9.003316 -8.997586
000290 97 f4 0f c1 29 09 10 c1 34 e0 0f c1 82 f1 0f c1
       -8.997214 -9.002236 -8.992237 -8.996462
0002a0 b1 df 0f c1 c7 41 10 c1 11 07 10 c1 b2 f9 0f c1
       -8.992112 -9.016059 -9.001725 -8.998461
0002b0 72 de 0f c1 8d e3 0f c1 60 d6 0f c1 fa fb 0f c1
       -8.991808 -8.993054 -8.989838 -8.999018
0002c0 91 01 10 c1 9d 3b 10 c1 be d3 0f c1 44 09 10 c1
       -9.000382 -9.014554 -8.989195 -9.002262
0002d0 4b 1c 10 c1 6d f2 0f c1 79 20 10 c1 ec ff 0f c1
       -9.006907 -8.996686 -9.007928 -8.999981
0002e0 43 f6 0f c1 17 18 10 c1 3f f1 0f c1 32 3f 10 c1
       -8.9976225 -9.005881 -8.996398 -9.015429
0002f0 e3 36 10 c1 d8 1a 10 c1 67 f6 0f c1 c8 48 10 c1
       -9.0134 -9.006554 -8.997657 -9.017769
000300 5a 21 10 c1 12 5c 10 c1 b9 fa 0f c1 f2 27 10 c1
       -9.008142 -9.022478 -8.998712 -9.009752
000310 c8 0c 10 c1 cd d7 0f c1 d1 08 10 c1 79 59 10 c1
       -9.00312 -8.990186 -9.002152 -9.021844

bias_mu f4 [20]
000000 67 a3 c1 3e e6 45 35 bd 3b 43 2e 3e 27 de 01 3f
       0.3781998 -0.044256113 0.17017834 0.507296
000010 de c9 90 3e e8 90 31 3e f9 41 81 bc 46 86 84 3d
       0.28279012 0.17340434 -0.015778529 0.06470923
000020 c6 6e 15 be a2 ee 0b 3f b0 d2 31 3e 16 cd ff 3d
       -0.14593038 0.54661 0.17365527 0.12490289
000030 6b a9 34 3d 8e af aa 3c cf 9b d1 3e 85 93 96 bc
       0.044106882 0.020835664 0.40939185 -0.01838089
000040 94 40 0f be 18 81 4a 3e 61 14 57 bd 97 e9 b0 3d
       -0.13989478 0.19775808 -0.05250967 0.08638304

bias_logvar f4 [20]
000000 59 f0 0f c1 73 1c 10 c1 87 f3 0f c1 98 08 10 c1
       -8.996179 -9.006946 -8.996955 -9.002098
000010 12 dd 0f c1 5d f9 0f c1 85 1f 10 c1 44 c1 0f c1
       -8.991472 -8.99838 -9.007695 -8.984684
000020 cb 2c 10 c1 ed da 0f c1 d3 fc 0f c1 58 ec 0f c1
       -9.010936 -8.990949 -8.999225 -8.995201
000030 e0 16 10 c1 93 11 10 c1 8b 11 10 c1 92 32 10 c1
       -9.005585 -9.004291 -9.004283 -9.012346
000040 8d d8 0f c1 21 f4 0f c1 28 03 10 c1 b6 f6 0f c1
       -8.990369 -8.997102 -9.000771 -8.997732

posterior_weight_variance f4 [20, 10]
000000 06 b9 4d 39 b0 16 36 39 8a 1a 3a 39 ca 53 91 39
       0.0001961925 0.00017365324 0.00017748229 0.00027718983
000010 b0 67 47 39 38 53 89 39 56 92 4c 39 21 4a 2d 39
       0.00019016746 0.0002619268 0.0001950947 0.00016526181
000020 3e 6e 7e 39 ef f3 48 39 ac e7 50 39 12 ca 36 39
       0.00024264396 0.00019164359 0.0001992273 0.0001743215
000030 8d 25 39 39 31 62 91 39 54 68 4c 39 74 78 8a 39
       0.00017656964 0.00027729713 0.00019493821 0.00026411156
000040 fe c1 4a 39 c3 e9 2d 39 85 6e 7f 39 c1 d8 4f 39
       0.00019336489 0.00016585649 0.00024359867 0.00019821805
000050 72 99 4f 39 73 d5 37 39 79 62 37 39 2b 30 8e 39
       0.00019798221 0.00017531756 0.00017488924 0.00027120239
000060 54 29 4b 39 c4 be 88 39 74 90 4d 39 8c 34 2a 39
       0.00019374985 0.00026082073 0.00019604136 0.00016232039
000070 e7 e5 78 39 fe 4a 48 39 b9 55 4c 39 f8 83 39 39
       0.00023736768 0.00019101423 0.0001948689 0.00017692137
000080 e7 77 38 39 2c 82 92 39 47 7d 48 39 d7 6e 8a 39
       0.00017592275 0.00027944276 0.00019120156 0.00026403993
000090 ac e7 4a 39 4b ee 29 39 0b 8c 79 39 11 0d 4c 39
       0.00019350526 0.00016205867 0.0002379866 0.00019459824
0000a0 54 d9 4f 39 3c d5 38 39 3e 79 37 39 9c 74 90 39
       0.0001982202 0.00017627043 0.00017497406 0.000275527
0000b0 5d 6e 4c 39 fc af 8a 39 13 f7 46 39 a1 0e 2c 39
       0.0001949607 0.0002645253 0.00018974794 0.00016408648
0000c0 0a af 74 39 71 78 4d 39 40 ec 4d 39 17 2c 37 39
       0.0002333486 0.00019595191 0.00019638333 0.00017468665
0000d0 4d 43 39 39 7f f2 90 39 bc fb 4c 39 48 68 89 39
       0.00017668046 0.00027646494 0.00019548734 0.00026208372
0000e0 d6 c5 4a 39 ac da 28 39 77 45 80 39 de a3 4f 39
       0.00019337921 0.0001610319 0.00024465818 0.00019802104
0000f0 1b ee 52 39 17 26 37 39 4c 3d 38 39 a2 4e 91 39
       0.00020115862 0.0001746643 0.00017570442 0.0002771514
000100 20 b2 4c 39 a4 50 89 39 61 1e 48 39 a5 b0 2c 39
       0.00019521313 0.00026190758 0.00019084803 0.00016469003
000110 10 d1 7a 39 95 18 4d 39 bb f4 4e 39 fc 4f 36 39
       0.0002391974 0.00019559481 0.0001973686 0.00017386669
000120 ee 3a 38 39 a6 2f 93 39 7d 1c 4d 39 bb 41 88 39
       0.0001756956 0.00028073526 0.00019560936 0.00025988914
000130 d6 18 4c 39 95 87 2a 39 22 65 7b 39 fd e1 47 39
       0.00019464208 0.00016262972 0.000239749 0.00019062306
000140 0c e7 4c 39 94 84 35 39 0d e3 37 39 0a 23 91 39
       0.00019541028 0.00017310894 0.00017536823 0.0002768266
000150 06 66 4f 39 4d 5d 88 39 fe 65 4a 39 d1 96 2c 39
       0.00019779065 0.00026009456 0.00019302216 0.00016459382
000160 5f 31 79 39 49 7b 50 39 a5 95 4d 39 bd f1 37 39
       0.00023764883 0.00019882353 0.0001960607 0.00017542295
000170 9b 25 39 39 f8 a2 8e 39 53 aa 4b 39 79 f1 87 39
       0.00017656984 0.00027205772 0.0001942304 0.00025929118
000180 9c 6b 4e 39 60 63 2c 39 07 59 7c 39 3e 4d 4e 39
       0.00019685779 0.00016440218 0.00024065758 0.00019674466
000190 c4 04 51 39 5c 11 37 39 81 89 3b 39 8b ca 91 39
       0.00019933569 0.00017458707 0.00017884934 0.0002780746
0001a0 06 f6 47 39 92 3e 86 39 3a 36 46 39 25 98 29 39
       0.0001906977 0.0002560509 0.00018902952 0.00016173774
0001b0 ac 5f 7c 39 b8 0b 4e 39 4d 3c 4e 39 17 78 38 39
       0.00024068233 0.00019650056 0.00019668155 0.00017592344
0001c0 8b 67 3a 39 68 4e 8f 39 4f aa 4b 39 79 42 87 39
       0.00017776915 0.00027333503 0.00019423034 0.00025798733
0001d0 34 da 4e 39 42 1d 2d 39 0d 68 78 39 1b 0c 4d 39
       0.00019726978 0.00016509465 0.00023689885 0.00019554833
0001e0 1b 31 50 39 9b e4 3b 39 0f ca 39 39 35 e4 8f 39
       0.00019854719 0.00017918872 0.00017718248 0.00027445113
0001f0 e3 a1 4e 39 31 d7 88 39 ca 31 4d 39 d9 d0 2a 39
       0.00019705998 0.00026100271 0.00019568871 0.00016290265
000200 30 ba 78 39 d2 f3 50 39 1e 0c 4d 39 07 14 38 39
       0.00023720483 0.00019927256 0.00019554837 0.00017555068
000210 76 47 39 39 0d ab 8f 39 cd b1 49 39 87 78 87 39
       0.00017669596 0.00027402528 0.0001923509 0.00025839006
000220 0e 83 4c 39 b0 75 2e 39 4f d2 78 39 7f 47 4e 39
       0.00019503778 0.00016637775 0.00023729469 0.00019672325
000230 86 d3 4f 39 d3 3c 36 39 92 d5 35 39 5c 51 90 39
       0.00019819857 0.00017379531 0.00017341066 0.00027526438
000240 15 0b 4a 39 79 c6 88 39 35 a2 4b 39 db 94 2b 39
       0.0001926835 0.00026087815 0.00019420015 0.00016363284
000250 67 82 7a 39 7f 98 4c 39 c0 c6 4a 39 05 1c 3c 39
       0.00023890437 0.00019511765 0.00019338261 0.00017939515
000260 41 55 35 39 97 a1 93 39 4a 27 4c 39 47 5c 87 39
       0.00017293265 0.0002815842 0.00019469592 0.00025817959
000270 03 38 4b 39 45 23 2b 39 9b b2 7c 39 26 98 4b 39
       0.00019380455 0.0001632097 0.00024099128 0.00019416268
000280 1d c8 4f 39 39 03 38 39 12 db 37 39 b1 24 91 39
       0.00019815606 0.00017548808 0.0001753385 0.00027683892
000290 6a 2c 4d 39 50 66 88 39 6c 48 4d 39 09 9e 2c 39
       0.00019566869 0.0002601617 0.00019577303 0.00016462071
0002a0 55 6a 7d 39 c2 f4 49 39 1f 97 4f 39 7f fd 38 39
       0.00024167572 0.00019260033 0.00019797355 0.00017642042
0002b0 13 fc 39 39 93 cd 91 39 2e b4 4e 39 ca d1 88 39
       0.0001773688 0.0002780972 0.00019712813 0.00026096246
0002c0 25 9f 4b 39 46 86 29 39 26 26 7e 39 23 c9 4c 39
       0.00019418875 0.00016167117 0.00024237539 0.00019529885
0002d0 b1 84 4e 39 a5 51 39 39 2d 03 37 39 31 cc 90 39
       0.00019695122 0.0001767339 0.00017453423 0.00027617955
0002e0 f0 16 4d 39 b9 df 87 39 d3 6e 4c 39 f6 5e 29 39
       0.00019558868 0.00025915893 0.00019496241 0.00016152472
0002f0 38 12 78 39 f8 e1 4b 39 e3 71 50 39 39 73 35 39
       0.0002365791 0.00019443769 0.00019878852 0.00017304429
000300 89 f9 36 39 25 94 8d 39 ce dd 4c 39 ed 59 87 39
       0.00017449832 0.00027003992 0.00019537585 0.00025816206
000310 de 0e 4b 39 ab b3 2d 39 a4 e0 7a 39 7d ca 48 39
       0.00019365127 0.00016565497 0.00023925543 0.00019148919

posterior_weight_mean f4 [20, 10]
000000 a1 82 c7 3e 08 0a a7 3e 73 5e a0 bf b3 37 6f bf
       0.3896685 0.3262484 -1.2528824 -0.93444365
000010 27 4c ed bd 22 7f 60 3f 96 5d 41 3f ba 8d 9f 3e
       -0.115867905 0.8769399 0.75533426 0.31162816
000020 8a eb ac be 9e 5d fe be a0 b9 26 bf 7c 8c 8c 3c
       -0.33773452 -0.496808 -0.6512699 0.017156832
000030 59 31 69 bf 95 a8 63 3e 14 1f 62 3f ad 03 bd 3e
       -0.91090924 0.22232278 0.8832867 0.36916867
000040 9a 29 93 3e 0c 81 94 bf 9e d1 e0 3e 23 eb f2 3e
       0.28742677 -1.1601882 0.43909925 0.4744502
000050 87 47 6b bf cc c3 88 3e 42 6a c5 3e d1 55 04 3e
       -0.9190602 0.2671188 0.3855763 0.12923361
000060 ee ab 92 be cf d4 1b be 71 a0 f6 3d 67 4b be bc
       -0.28646797 -0.15217899 0.120423205 -0.023229314
000070 32 1b 86 bd b8 ad dc 3e a8 a2 c1 3d 7a c9 01 3f
       -0.06548156 0.43101287 0.09454852 0.50698054
000080 1d ba 8c be 23 dd 8d 3f 12 c0 22 3e 98 22 19 c0
       -0.27485743 1.108311 0.15893582 -2.3927364
000090 71 b5 22 bf aa a8 a8 be 01 e9 2c 3f dd e9 9c bf
       -0.6355811 -0.3294118 0.67543036 -1.225887
0000a0 3e 22 16 3f 1d f6 68 bf 8d dc 2e 3e 25 ee 09 c0
       0.58646 -0.9100054 0.17076321 -2.1551602
0000b0 a5 09 d6 be c0 42 24 c0 a9 78 9f bf ed b9 73 3e
       -0.41804233 -2.566574 -1.2458698 0.23801394
0000c0 94 ee e3 3e 46 82 4e bf 98 86 f0 bc 2f ef 41 3d
       0.44517958 -0.8066753 -0.029361054 0.047347244
0000d0 cf d6 c4 3e 51 10 55 3f d4 8e 1a 3f a4 c6 f6 3c
       0.38445136 0.8322802 0.6037419 0.030124016
0000e0 47 3a 04 bc ea 3c 61 3d 39 32 5b 3f 74 a7 04 be
       -0.008070535 0.054989733 0.8562351 -0.12954503
0000f0 3f f4 31 bf a2 6f 1a 3d fc 3c d7 3d fd 22 a8 bf
       -0.69513315 0.037704118 0.10509679 -1.3135678
000100 0e 54 96 3f aa 75 16 c0 0a 56 26 3e 6d bc 65 3f
       1.1744401 -2.3509316 0.16243759 0.8974064
000110 e7 be 38 3f b4 9c 41 3e 8c e5 87 3f 38 62 dd 3e
       0.72166294 0.18907434 1.0616927 0.43238997
000120 f6 a6 85 bf 4b db 6f be 0e c3 d5 3e f3 91 b8 3e
       -1.0441577 -0.23423497 0.41750377 0.3604885
000130 a6 70 d3 bd dd 6c f8 be 8b 3d b4 be 21 7d 3c bc
       -0.1032422 -0.48520556 -0.35203204 -0.011504442
000140 ce 01 63 3f 6f 26 68 3f 88 ee 3c bf 48 59 89 bf
       0.8867463 0.90683645 -0.7380147 -1.0730371
000150 00 f4 61 3d 63 c0 ff 3e 7d 43 2d 3f 6f 45 57 be
       0.055164337 0.49951467 0.67681104 -0.2102258
000160 22 1d 87 be 01 ea f0 bd 8a 2e 55 3c cd 02 23 3f
       -0.26389414 -0.11763383 0.013011584 0.6367615
000170 6c ff c6 bd b1 4d 31 bf 73 52 3c bf 3f 6c 90 3f
       -0.097166866 -0.6925917 -0.7356331 1.1283034
000180 68 2b 83 be fc 58 17 bf 2f fc 58 be c2 7d 90 bd
       -0.25619054 -0.59120154 -0.2118995 -0.070552364
000190 c7 1c 89 3e c9 37 ae be 99 3c 17 bf bf 61 c2 bf
       0.26779768 -0.34026936 -0.5907684 -1.518608
0001a0 47 e9 93 bf c7 74 56 3f 3b 1c f5 be 86 57 40 3f
       -1.1555566 0.8377194 -0.478731 0.7513355
0001b0 83 96 cb 3e 62 39 0c bf 5c a2 fb be 53 ca cc 3e
       0.3976327 -0.5477506 -0.49147308 0.3999811
0001c0 ba dd b3 be d4 b9 f5 3e e7 3b 6b 3f 3d 69 50 be
       -0.351301 0.47993338 0.9188828 -0.20352645
0001d0 5b a1 07 3f ea fb 7c 3c 62 b2 a1 3f b1 a7 fd 3d
       0.52980584 0.01544092 1.2632563 0.123855
0001e0 5a 02 c8 3e 88 06 ab be 31 5f 69 bf d7 2a 87 be
       0.39064294 -0.3340342 -0.91160876 -0.26399872
0001f0 7a 25 95 3e 64 3d 46 3e 54 d9 aa be 27 74 63 be
       0.29130155 0.19359356 -0.33368933 -0.22212277
000200 f1 8c 64 bf 94 15 66 bd 62 49 40 bf c5 9b ca 3e
       -0.8927756 -0.056172922 -0.75111973 0.39571968
000210 0a 96 73 bf 91 51 89 3f 49 3e 0d bf 9b 2c 3f bf
       -0.95150816 1.0728017 -0.55173165 -0.7467744
000220 c6 bc 53 bf b5 62 6e 3e 5e 23 a6 3e aa f8 6e 3f
       -0.8270992 0.23279841 0.32448858 0.9334818
000230 c0 1f a0 be 15 a1 c3 3e 69 d3 99 be f0 49 e9 3e
       -0.31274223 0.38208833 -0.30044106 0.45564222
000240 a0 92 20 3f 0d 07 61 3e 27 56 73 be f2 68 e1 be
       0.6272373 0.21975346 -0.23763333 -0.4402538
000250 b4 9d 62 be b3 cd 5a 3f 4a 33 95 bd 04 2f e2 3e
       -0.22130471 0.8547012 -0.07285173 0.44176495
000260 76 ed a0 be e3 b9 fd bd bb f6 f5 be a2 ac 15 c0
       -0.31431168 -0.12388971 -0.48039803 -2.3386617
000270 bd 97 39 be 2d c2 1b 3f 9b 51 87 3f ce 33 53 3d
       -0.1812429 0.60843164 1.0571779 0.051563077
000280 4f 3a c6 bc ce ce f8 3e fb 72 c9 bd 94 90 bb 3d
       -0.024197726 0.4859528 -0.09836384 0.091584355
000290 6f 52 04 be 27 bb 34 c0 5b f2 0a 3f 9c 5c 07 bf
       -0.12922071 -2.8239229 0.54276055 -0.52875686
0002a0 7c 23 68 3f ed 7c f2 be 75 ad ad 3e 1a 87 10 3f
       0.90679145 -0.47360936 0.339214 0.5645615
0002b0 5f 91 98 3e 2a 9b b6 3e 1a 1f 88 3f 36 b0 cf bf
       0.2979841 0.35665256 1.0634491 -1.622565
0002c0 b6 ca 54 bf f1 72 2d 3f 93 0d 0c 3e 72 2e ce bf
       -0.8312181 0.6775351 0.13677053 -1.6107924
0002d0 70 d5 ee be 5a 46 12 3f f3 0f 00 bf 76 12 25 3f
       -0.46647215 0.571386 -0.50024337 0.64481294
0002e0 40 66 1f 3d 50 6d f4 bd 47 10 3a 3f 66 0f 97 bd
       0.038915873 -0.11934912 0.7268109 -0.07375984
0002f0 0d 36 21 3e 78 6a 66 3d 92 62 78 3f 9d 66 91 be
       0.15743275 0.05625388 0.97025406 -0.283986
000300 e8 eb 20 3f 18 03 84 bf c8 5d b9 bd e6 8f 4c 3f
       0.62859964 -1.0313444 -0.090510905 0.7990707
000310 47 a2 1b be c3 6c 9c 3e f7 fc 83 be 31 a9 e7 3e
       -0.15198623 0.3055173 -0.25778934 0.4524627

dropout_mu f4 [20]
000000 dd 0e cc 3f 70 15 c4 3f 05 0e dc 3f 66 f3 fc 3f
       1.5942036 1.5319042 1.7191778 1.9761779
000010 f8 30 b5 3f 10 74 e9 3f 75 5c d8 3f 09 f6 a5 3f
       1.4155569 1.8238544 1.6903216 1.2965709
000020 a9 2e c3 3f a2 ca 04 40 35 65 f2 3f e4 77 18 40
       1.5248615 2.0748677 1.8937136 2.3823175
000030 7a 05 dd 3f b1 90 79 3f 5b 05 d2 3f 3b 5b 9b 3f
       1.7267296 0.97486407 1.6407884 1.2137216
000040 84 d7 4b 3f ae 1e 06 40 4a c3 a0 3f 49 ea 27 40
       0.79625726 2.0956225 1.2559597 2.6236746

dropout_logvar f4 [20]
000000 9a df 0f c1 d1 08 10 c1 28 ea 0f c1 5b f9 0f c1
       -8.99209 -9.002152 -8.994667 -8.998378
000010 9d e2 0f c1 91 3d 10 c1 b9 2a 10 c1 0a 02 10 c1
       -8.9928255 -9.015031 -9.01043 -9.000498
000020 04 04 10 c1 c6 5a 10 c1 17 1a 10 c1 e5 35 10 c1
       -9.00098 -9.0221615 -9.00637 -9.013158
000030 3a fa 0f c1 8d e6 0f c1 07 47 10 c1 73 42 10 c1
       -8.99859 -8.993787 -9.017341 -9.016223
000040 b4 eb 0f c1 d0 1f 10 c1 8d 1b 10 c1 35 2f 10 c1
       -8.995045 -9.007767 -9.006726 -9.011525

weight_mu f4 [5, 20]
000000 2c 18 38 be 93 14 d8 be 6a 6a ac be 3a 58 34 3c
       -0.17977971 -0.42203197 -0.33674937 0.011007363
000010 40 14 b9 be f4 29 6f bf f4 c7 1d be 87 1d 0e bf
       -0.36148262 -0.9342339 -0.15408307 -0.55513805
000020 16 29 10 bf a5 4a 5c bf 41 cd 43 bf 06 5e e2 bf
       -0.5631269 -0.860514 -0.7648507 -1.7684944
000030 53 63 26 bf 16 fd da 3e bf df 66 bf 6c 0a 5c be
       -0.64995307 0.42771214 -0.9018516 -0.2148835
000040 e5 f6 24 3e 80 c0 43 3f 0a 70 26 be ae c4 80 3f
       0.16109808 0.76465607 -0.16253677 1.0060022
000050 e9 50 c3 bd f0 64 79 3e 38 d7 04 bd f8 d4 54 3f
       -0.09536917 0.24354911 -0.03243181 0.83137465
000060 e2 55 6d 3f e8 43 2b 3e 03 9e a2 be 11 6b aa bd
       0.9270917 0.16725123 -0.31761178 -0.083212025
000070 33 11 ca 3e a5 85 6a 3f c9 15 2f 3f 83 fa 2e bf
       0.39466247 0.91610175 0.68392617 -0.68351
000080 c6 1d 37 be 10 b9 93 ba e7 ed f6 3d 40 af ce be
       -0.17882451 -0.0011270363 0.12057095 -0.4036808
000090 a0 ff 56 3d b2 82 23 3f 0f 7f c7 3d 19 ce c5 3e
       0.052489877 0.638713 0.097410314 0.38633803
0000a0 12 f8 9f 3d 67 b4 33 be 64 7f b1 3e 8d 07 de bc
       0.078109875 -0.17549287 0.34667504 -0.02710321
0000b0 fd 4e bd be a6 cc 5d 3f ee fe 09 3f 75 1b 02 3f
       -0.36974326 0.86640394 0.53904617 0.50823146
0000c0 39 ec 6b 3e 85 18 d5 3e b8 f2 35 3f ec 26 4b 3d
       0.2303933 0.4162027 0.71073484 0.049597666
0000d0 b0 34 06 3f ea a8 b3 be c1 65 d7 3e aa 16 45 3e
       0.52424145 -0.3508981 0.4206982 0.19246927
0000e0 0d f5 b9 bd be 48 69 3e 14 5d f0 3e ce d1 89 bd
       -0.09079943 0.22781655 0.46946013 -0.0672947
0000f0 cc 57 e2 3c 66 e7 00 3f b7 9a 29 3f 39 25 79 3e
       0.027629755 0.50353086 0.662517 0.24330606
000100 54 af a9 bd ae a5 de bd 67 6f 47 3e 21 11 99 3e
       -0.08285394 -0.10871445 0.1947609 0.2989588
000110 b5 97 10 3d 0b e9 0c 3e b9 0c 4f bf 93 dd 07 3f
       0.03530093 0.13760774 -0.8087879 0.5307247
000120 d9 97 2a 3e f2 57 0b be 38 91 54 3e a7 4e 06 bf
       0.16659488 -0.13607767 0.20758522 -0.52463764
000130 64 b3 90 3e 08 d7 e3 bd ea e6 d7 be ac bb 78 bf
       0.28261864 -0.11124998 -0.4216836 -0.97161365
000140 d3 b0 8c bf c6 e8 74 bf 7e 00 0e bf d1 e9 75 bf
       -1.0991462 -0.95667684 -0.554695 -0.960599
000150 97 98 cb 3e 1e 8f d5 be 9a be 66 bf b7 52 71 3e
       0.39764854 -0.41710752 -0.90134585 0.2356671
000160 ae 76 84 bf 1f fc aa bf 57 8a 9c bf 2a 80 37 3f
       -1.0348718 -1.3358191 -1.2229718 0.7167994
000170 e0 db 15 bf 50 86 8d bd 31 e8 bb be 96 18 69 be
       -0.5853863 -0.06910384 -0.36700585 -0.22763285
000180 a5 95 0c 3b 65 cb cb bf 40 fe be bd cc ec e7 bf
       0.00214515 -1.5921446 -0.09325838 -1.811914

weight_logvar f4 [5, 20]
000000 a2 2c 10 c1 d3 42 10 c1 46 db 0f c1 ab fe 0f c1
       -9.010897 -9.0163145 -8.991034 -8.999675
000010 a9 48 10 c1 d1 fa 0f c1 47 18 10 c1 0e 16 10 c1
       -9.017739 -8.998734 -9.005927 -9.005384
000020 b2 1e 10 c1 37 0f 10 c1 13 38 10 c1 30 2e 10 c1
       -9.007494 -9.003715 -9.01369 -9.011276
000030 91 1d 10 c1 55 12 10 c1 aa e6 0f c1 3b e3 0f c1
       -9.007218 -9.004476 -8.993814 -8.992976
000040 dc 2a 10 c1 a5 f3 0f c1 f2 dc 0f c1 68 4e 10 c1
       -9.010464 -8.996984 -8.991442 -9.019142
000050 0f c3 0f c1 42 d2 0f c1 a8 01 10 c1 6b fc 0f c1
       -8.985122 -8.988832 -9.000404 -8.9991255
000060 8d f3 0f c1 98 e9 0f c1 00 28 10 c1 19 cc 0f c1
       -8.996961 -8.99453 -9.009766 -8.987329
000070 eb 18 10 c1 40 e8 0f c1 e5 d8 0f c1 b5 31 10 c1
       -9.0060835 -8.994202 -8.990453 -9.0121355
000080 75 ee 0f c1 10 e4 0f c1 8f fa 0f c1 62 04 10 c1
       -8.995717 -8.993179 -8.998672 -9.00107
000090 7c f6 0f c1 fa f3 0f c1 fc 3c 10 c1 7b 37 10 c1
       -8.997677 -8.997065 -9.014889 -9.013545
0000a0 4c 3d 10 c1 3d e0 0f c1 06 f0 0f c1 95 43 10 c1
       -9.014965 -8.992246 -8.996099 -9.0164995
0000b0 04 33 10 c1 2a 0e 10 c1 f0 01 10 c1 58 fd 0f c1
       -9.012455 -9.003458 -9.000473 -8.9993515
0000c0 5c 26 10 c1 18 f8 0f c1 97 01 10 c1 66 f0 0f c1
       -9.009365 -8.99807 -9.000388 -8.996191
0000d0 7b d2 0f c1 9a 38 10 c1 bf 33 10 c1 d9 06 10 c1
       -8.988887 -9.013819 -9.012633 -9.001672
0000e0 63 27 10 c1 5d 2d 10 c1 64 ed 0f c1 07 e0 0f c1
       -9.009616 -9.011075 -8.995457 -8.992194
0000f0 1b 2a 10 c1 6c f4 0f c1 dd ee 0f c1 6e 00 10 c1
       -9.01028 -8.997173 -8.995816 -9.000105
000100 f9 21 10 c1 ea eb 0f c1 15 39 10 c1 38 0a 10 c1
       -9.008294 -8.995096 -9.013936 -9.002495
000110 a4 c6 0f c1 2c d9 0f c1 4e e2 0f c1 c2 44 10 c1
       -8.985996 -8.9905205 -8.99275 -9.016787
000120 5e 2b 10 c1 9b d0 0f c1 55 e7 0f c1 42 e4 0f c1
       -9.010588 -8.988429 -8.993978 -8.993227
000130 2a 2d 10 c1 24 e5 0f c1 b0 22 10 c1 d8 3a 10 c1
       -9.011026 -8.993443 -9.008469 -9.014366
000140 62 e4 0f c1 31 e5 0f c1 9c de 0f c1 8b 0b 10 c1
       -8.9932575 -8.993455 -8.991848 -9.002818
000150 74 eb 0f c1 da c9 0f c1 0d 5a 10 c1 11 d1 0f c1
       -8.994984 -8.98678 -9.021985 -8.988542
000160 07 03 10 c1 45 ef 0f c1 c9 19 10 c1 cf 04 10 c1
       -9.000739 -8.995915 -9.006295 -9.001174
000170 da fc 0f c1 9f 08 10 c1 2a f4 0f c1 50 c8 0f c1
       -8.999231 -9.002105 -8.99711 -8.986404
000180 4d e5 0f c1 20 16 10 c1 b2 12 10 c1 ef 25 10 c1
       -8.993482 -9.005402 -9.004564 -9.009261

bias_mu f4 [5]
000000 60 90 3a bd f4 b7 91 3d b5 be 29 3e 8a b3 4a 3c
       -0.045547843 0.071151644 0.16576655 0.012371907
000010 51 2f 32 be
       -0.17400862

bias_logvar f4 [5]
000000 83 3b 10 c1 be c4 0f c1 96 e7 0f c1 15 2e 10 c1
       -9.014529 -8.985533 -8.99404 -9.0112505
000010 ac e4 0f c1
       -8.993328

posterior_weight_variance f4 [5, 20]
000000 74 a8 a2 39 14 62 95 39 9f f4 c0 39 3e c3 fc 39
       0.00031024555 0.00028492569 0.0003680335 0.00048210652
000010 6c be 7e 39 0b 82 d7 39 33 c6 b7 39 d1 60 58 39
       0.00024294265 0.00041104885 0.0003505215 0.00020635432
000020 40 53 95 39 b8 c2 0a 3a c1 e1 e4 39 6f 8f 35 3a
       0.0002848152 0.00052932976 0.0004365575 0.00069259753
000030 27 88 bf 39 8b de f4 38 20 47 af 39 0c f9 3f 39
       0.000365318 0.000116762785 0.00033431593 0.00018307957
000040 67 62 a2 38 82 81 0e 3a d5 e1 4d 39 e4 79 5a 3a
       7.743091e-05 0.0005436168 0.00019634452 0.0008334203
000050 a3 e7 a6 39 61 8b 99 39 ad 27 bf 39 36 e8 fc 39
       0.0003183457 0.0002928628 0.0003645992 0.00048238196
000060 56 0d 82 39 cd 68 d8 39 1d 12 b7 39 d2 50 5c 39
       0.00024805468 0.00041276813 0.00034917975 0.00021010943
000070 e1 88 95 39 5b 16 0c 3a 04 43 ea 39 db 64 35 3a
       0.00028521477 0.00053439074 0.00044681889 0.00069196307
000080 89 be c1 39 2b a5 f7 38 1a 6c ae 39 5c 6d 3e 39
       0.00036953788 0.00011808643 0.00033268408 0.00018160552
000090 2e 79 a4 38 5f 7e 0e 3a 59 1c 49 39 f4 b2 5b 3a
       7.842701e-05 0.0005435701 0.00019179414 0.0008380853
0000a0 55 ff a1 39 63 05 99 39 08 fb bf 39 aa 8b f8 39
       0.0003089855 0.00029186448 0.00036617392 0.00047406304
0000b0 fc 0b 80 39 d3 7d d6 39 09 c8 b8 39 cf af 59 39
       0.00024422992 0.00040911007 0.00035244253 0.00020760226
0000c0 40 0b 95 39 3c 8b 0b 3a 35 f2 e7 39 bc 4e 38 3a
       0.00028427877 0.0005323177 0.00044240212 0.00070307753
0000d0 f9 12 c3 39 18 97 f2 38 56 01 ac 39 85 4f 3e 39
       0.00037207434 0.000115676026 0.00032807392 0.00018149435
0000e0 84 85 a2 38 80 82 0c 3a 70 0f 4d 39 8d 70 60 3a
       7.749631e-05 0.0005360022 0.00019556074 0.0008561693
0000f0 16 c2 a2 39 49 45 98 39 9e 09 c0 39 8a a7 fc 39
       0.00031043653 0.0002904332 0.0003662826 0.00048190012
000100 67 94 80 39 66 49 d8 39 f1 4e b6 39 39 00 59 39
       0.0002452463 0.00041253417 0.0003477256 0.00020694816
000110 4b 91 98 39 c9 99 0c 3a c7 b9 e9 39 32 8d 34 3a
       0.0002909995 0.0005363492 0.00044579638 0.0006887495
000120 6c e2 be 39 30 d3 f8 38 41 3e af 39 a8 ed 3f 39
       0.00036408321 0.00011864898 0.00033424984 0.00018303713
000130 75 4b a2 38 56 02 0f 3a 9f 68 4a 39 95 85 5b 3a
       7.738817e-05 0.0005455365 0.00019303196 0.0008374092
000140 e9 8f a5 39 dd d7 98 39 d0 cc c0 39 0b fa fb 39
       0.00031578474 0.0002915253 0.0003677369 0.00048060747
000150 c6 4d 82 39 19 18 da 39 54 da b4 39 a6 0c 5c 39
       0.00024853478 0.00041598154 0.00034494943 0.00020985547
000160 e0 57 96 39 e6 d9 0b 3a 7c 96 e6 39 ba 64 37 3a
       0.00028675701 0.00053348986 0.00043981138 0.00069959054
000170 2d 11 c1 39 e0 71 f5 38 1c b2 ae 39 1b 3d 41 39
       0.00036824626 0.00011703721 0.00033320568 0.00018428678
000180 2b 2a a5 38 a9 51 0d 3a a5 32 4b 39 8b a7 5c 3a
       7.8756675e-05 0.00053908915 0.00019378455 0.00084173

posterior_weight_mean f4 [5, 20]
000000 f3 bd 92 be d9 81 25 bf e4 34 14 bf 51 32 b2 3c
       -0.28660545 -0.64651257 -0.57893205 0.021752508
000010 b8 fe 02 bf 9d 19 da bf b2 59 85 be 3b 43 38 bf
       -0.5116992 -1.7039067 -0.26044995 -0.71977586
000020 25 d3 5b bf b7 89 e4 bf 70 65 b9 bf d7 d1 86 c0
       -0.85869056 -1.7854527 -1.4484081 -4.213115
000030 4e a7 8f bf f0 7b d5 3e 5f 68 bd bf ba 88 85 be
       -1.1222932 0.4169612 -1.4797477 -0.26080877
000040 a8 5a 03 3e 71 1c cd 3f fb 09 51 be 4c ec 28 40
       0.12827551 1.6024305 -0.20413963 2.6394224
000050 d1 af 1b be 2a 06 bf 3e 75 60 64 bd ff 4b d2 3f
       -0.15203787 0.3730939 -0.05575605 1.6429442
000060 1f fb a7 3f 74 2e 9c 3e 0e 70 09 bf 96 f5 dc bd
       1.3123511 0.3050419 -0.53686607 -0.10789029
000070 ee 0f 1a 3f 16 4d f3 3f d0 c7 a5 3f 60 6d d0 bf
       0.60180557 1.90079 1.2951603 -1.6283379
000080 9f 18 9e be 7f 02 90 ba 52 94 4a 3e 87 db fa be
       -0.3087816 -0.0010987072 0.19783142 -0.4899561
000090 b3 31 2b 3d 03 54 ab 3f 32 8f fa 3d 79 be 81 3f
       0.041795444 1.3385013 0.122343436 1.0136253
0000a0 f0 05 ff 3d 2b a5 89 be 32 93 18 3f 88 62 5b bd
       0.12452304 -0.26883826 0.595996 -0.053560764
0000b0 0f fd 05 bf d2 43 ca 3f df 41 69 3f 7b b1 28 3f
       -0.5233926 1.5801947 0.91116136 0.65895814
0000c0 f0 df b3 3e a2 12 5d 3f 60 47 ac 3f 80 fc f1 3d
       0.35131788 0.86356556 1.3459282 0.11815739
0000d0 b6 bc 67 3f d7 24 af be fa b5 30 3f eb 35 6f 3e
       0.90522325 -0.34207794 0.69027674 0.23360412
0000e0 de 11 94 bd 11 70 f4 3e 89 f1 16 3f fd cb 34 be
       -0.072299704 0.4774175 0.58962303 -0.1765594
0000f0 1b 6b 34 3d eb 77 45 3f 3f ca 91 3f 86 2d f6 3e
       0.044047456 0.77136105 1.1389846 0.48081607
000100 d7 32 f0 bd bc 09 4b be 06 8e a8 3e 4c 76 c6 3e
       -0.11728447 -0.19827932 0.32920855 0.38762128
000110 d3 7b 5c 3d 65 2f 92 3e e2 0b c4 bf 61 d6 a1 3f
       0.053829025 0.28551784 -1.5316126 1.2643548
000120 bd 48 93 3e 4c d7 07 be 92 63 ae 3e f8 02 23 bf
       0.28766432 -0.13265723 0.3406034 -0.63676405
000130 23 70 66 3e b8 bb 6e be 06 95 07 bf 10 26 23 c0
       0.22503714 -0.23313797 -0.52961767 -2.5491982
000140 27 4a e0 bf ba 96 bb bf 66 20 74 bf f9 fb f2 bf
       -1.752263 -1.4655373 -0.95361936 -1.8983146
000150 d5 19 10 3f 15 c0 42 bf 28 04 c3 bf 3e 72 9c 3e
       0.56289417 -0.76074344 -1.5235643 0.3055591
000160 17 fd c9 bf ae 62 31 c0 a9 38 14 c0 12 94 da 3f
       -1.5780362 -2.771648 -2.3159583 1.7076437
000170 05 62 81 bf a1 f7 89 bd 67 28 1a bf f4 74 8d be
       -1.0108038 -0.067366846 -0.602179 -0.2762829
000180 08 e2 df 3a c6 89 55 c0 36 e1 ef bd ba 1f 98 c0
       0.0017080912 -3.336534 -0.117128775 -4.753873
