Activelearning/SeedModels/simple_model_AL.pth (torch, 15597 bytes, 24 tensors)

dropout_mu f4 [4]
0	0x3fb3b77e	1.4040372
1	0x3f833950	1.0251865
2	0x3f9d3a67	1.2283448
3	0x3f886b22	1.0657694

dropout_logvar f4 [4]
0	0xc10fde2d	-8.991742
1	0xc10ffb6f	-8.998885
2	0xc1103f26	-9.015417
3	0xc10fb5a8	-8.98185

weight_mu f4 [10, 4]
0	0xbf88ab61	-1.0677301
1	0x3cfec497	0.0310996
2	0x3e9a10dc	0.30090988
3	0xbc89f1ad	-0.016838873
4	0x3f0d3cb7	0.5517077
5	0xbd173c15	-0.036922533
6	0xbecd1457	-0.4005458
7	0x3ee058dc	0.43817794
8	0x3dc376d0	0.09544146
9	0x3f427696	0.759622
10	0xbfa05c3c	-1.2528148
11	0xbd35a569	-0.0443472
12	0x3f1c0bda	0.60955584
13	0xbf15ece4	-0.5856459
14	0x3f40693b	0.7516057
15	0xbf4c9131	-0.79909045
16	0x3dd4e63b	0.103954755
17	0xbebe8b84	-0.37215817
18	0x3f449889	0.7679525
19	0x3defed71	0.1171521
20	0xbf8d88b9	-1.105735
21	0xbe833193	-0.2562376
22	0x3dab65bf	0.08369016
23	0x3bd85a86	0.006602588
24	0x3e6db719	0.23214377
25	0xbf71630d	-0.94291764
26	0x3ef06b9a	0.46957093
27	0x3f4c6d43	0.7985422
28	0xbea89808	-0.3292849
29	0x3ecd8f91	0.40148595
30	0x3ef8982b	0.48553595
31	0x3ed1b080	0.4095497
32	0x3f010615	0.50399905
33	0x3ef681a9	0.48145798
34	0x3f2d12e8	0.67606974
35	0x3f0f3c19	0.55951077
36	0x3ee1e3e4	0.4411918
37	0xbf82eb32	-1.0228026
38	0x3eac0f29	0.33605316
39	0xbece03ba	-0.40237218

weight_logvar f4 [10, 4]
0	0xc10f66ec	-8.962627
1	0xc1100cd7	-9.003135
2	0xc1102c67	-9.01084
3	0xc10fd182	-8.988649
4	0xc110362f	-9.013228
5	0xc10fe23b	-8.992732
6	0xc10fe08d	-8.992322
7	0xc110017d	-9.000363
8	0xc1101501	-9.005128
9	0xc10fc726	-8.98612
10	0xc10ff497	-8.997214
11	0xc10fe948	-8.994453
12	0xc10fec41	-8.995179
13	0xc11014a7	-9.005042
14	0xc10fef61	-8.995942
15	0xc11006bd	-9.001645
16	0xc1106a68	-9.025978
17	0xc11001d7	-9.000449
18	0xc1101f4f	-9.007644
19	0xc11013ce	-9.004835
20	0xc1101e1d	-9.007352
21	0xc10fe671	-8.99376
22	0xc10f9ece	-8.976271
23	0xc10fca76	-8.986929
24	0xc10ffdb8	-8.999443
25	0xc10ff598	-8.997459
26	0xc10fd64a	-8.989817
27	0xc1100360	-9.000824
28	0xc110033d	-9.000791
29	0xc110088f	-9.0020895
30	0xc1100e1a	-9.003443
31	0xc10fb5b0	-8.981857
32	0xc110343b	-9.012752
33	0xc11043d1	-9.016557
34	0xc11003db	-9.000941
35	0xc11038ff	-9.013915
36	0xc1100c56	-9.003012
37	0xc10ff01a	-8.996119
38	0xc10fe469	-8.993264
39	0xc1105c4c	-9.022533

bias_mu f4 [10]
0	0x3e35b527	0.17744885
1	0x3d2ca3b9	0.042148326
2	0x3e599acc	0.21250457
3	0x3eb671e6	0.35633773
4	0x3e6de86c	0.23233193
5	0x3ea83bb5	0.32858053
6	0x3eaabc9c	0.33347023
7	0xbceedcfe	-0.029158112
8	0x3eccbd39	0.39988115
9	0x3ca138b9	0.019680368

bias_logvar f4 [10]
0	0xc1103025	-9.011754
1	0xc10fe23c	-8.992733
2	0xc10fe4ee	-8.993391
3	0xc11015e7	-9.005347
4	0xc1102a93	-9.010394
5	0xc10fec9c	-8.995266
6	0xc1102a27	-9.010291
7	0xc10fee69	-8.995706
8	0xc1104a6d	-9.01817
9	0xc10fdf5b	-8.99203

posterior_weight_variance f4 [10, 4]
0	0x39846a5d	0.0002525625
1	0x39079459	0.00012929867
2	0x39412556	0.00018419823
3	0x3914a9f7	0.00014177697
4	0x397bc019	0.00024008787
5	0x3908ff4c	0.00013065076
6	0x3944c1cf	0.00018764216
7	0x3912ef8f	0.00014012888
8	0x397dcb11	0.00024203608
9	0x3909ea56	0.00013152635
10	0x3943d1ab	0.00018674757
11	0x3913cdb9	0.0001409565
12	0x39802b17	0.00024446167
13	0x3907539c	0.0001290575
14	0x39440d6d	0.00018697018
15	0x3912c13a	0.00013995628
16	0x39788e71	0.00023704187
17	0x3907f240	0.00012964848
18	0x3941c5a6	0.00018479544
19	0x391246fd	0.0001395009
20	0x397d3fb4	0.00024151691
21	0x3908db86	0.0001305175
22	0x3947f031	0.00019067597
23	0x3914eb80	0.0001420211
24	0x397f3da9	0.00024341665
25	0x39085d89	0.00013004815
26	0x39454066	0.00018811374
27	0x3912e016	0.00014007124
28	0x397ee5e3	0.00024308967
29	0x3907b94d	0.00012943633
30	0x3942950d	0.00018556807
31	0x3915ae0c	0.00014274585
32	0x397bdea2	0.00024020163
33	0x3905c689	0.00012757829
34	0x394312b5	0.00018603618
35	0x3910f5bd	0.00013824455
36	0x397e5577	0.00024255166
37	0x39088d04	0.00013022503
38	0x3944922c	0.0001874647
39	0x390fb6ac	0.00013705593

posterior_weight_mean f4 [10, 4]
0	0xbfbfe395	-1.4991328
1	0x3d0297a3	0.031882893
2	0x3ebd3ef9	0.36962107
3	0xbc93043c	-0.017946355
4	0x3f464d60	0.77461815
5	0xbd1b0b35	-0.037852485
6	0xbefbe885	-0.49200836
7	0x3eef1a30	0.46699667
8	0x3e09382e	0.13400337
9	0x3f475c70	0.77875423
10	0xbfc4fa4c	-1.5388885
11	0xbd4197c8	-0.04726389
12	0x3f5b1845	0.8558391
13	0xbf19b393	-0.60039634
14	0x3f6c58dd	0.92323095
15	0xbf5a057c	-0.8516462
16	0x3e157595	0.14595635
17	0xbec3581a	-0.38153154
18	0x3f717ccb	0.94331044
19	0x3dffb518	0.12485713
20	0xbfc6b818	-1.5524931
21	0xbe867f7b	-0.26269135
22	0x3dd28900	0.10280037
23	0x3be69544	0.007036837
24	0x3ea6e169	0.3259385
25	0xbf777774	-0.96666646
26	0x3f13a8d7	0.57679504
27	0x3f59df31	0.8510619
28	0xbeecb64b	-0.46232828
29	0x3ed2bcf9	0.411598
30	0x3f18ae09	0.59640557
31	0x3edf7b09	0.43648556
32	0x3f352777	0.70763344
33	0x3efcb713	0.49358425
34	0x3f549828	0.8304467
35	0x3f18a7bd	0.5963095
36	0x3f1e9442	0.61944973
37	0xbf863754	-1.0485635
38	0x3ed3591a	0.41278917
39	0xbedb9063	-0.42883596

dropout_mu f4 [10]
0	0x3f9ab64f	1.2086886
1	0x3f71e0a0	0.94483376
2	0x3f98868b	1.1916059
3	0x3fa6e716	1.3039272
4	0x3f9b3fe9	1.2128879
5	0x3fae84ea	1.3634312
6	0x3fa37679	1.277053
7	0x3f70d95f	0.9408168
8	0x3fae33f3	1.3609604
9	0x3f8476e5	1.0348784

dropout_logvar f4 [10]
0	0xc10fec61	-8.99521
1	0xc110225d	-9.008389
2	0xc1101687	-9.0055
3	0xc11019d4	-9.006306
4	0xc1102ae2	-9.010469
5	0xc1103a84	-9.014286
6	0xc10fe2c4	-8.992863
7	0xc11001eb	-9.000468
8	0xc10fe4f4	-8.993397
9	0xc10fee01	-8.995606

weight_mu f4 [20, 10]
0	0xbe7bfe7f	-0.24608801
1	0xbe3a7bd3	-0.18211298
2	0xbf1a2f81	-0.60228735
3	0xbe8868c3	-0.26642427
4	0xbddcca84	-0.10780814
5	0xbe935518	-0.2877586
6	0x3c848f9d	0.016181761
7	0x3eaa80c5	0.33301368
8	0x3d78a042	0.06069971
9	0x3d16804f	0.03674346
10	0xbe739f59	-0.23791255
11	0x3e6ebaaa	0.23313394
12	0xbf0ec520	-0.5576954
13	0xbea063ce	-0.31326145
14	0x3e9b64be	0.30350298
15	0xbc1f8728	-0.009736814
16	0xbe26cbcb	-0.16288678
17	0xbeb90210	-0.36134386
18	0xbec13f01	-0.3774338
19	0x3dc4cb0a	0.09609039
20	0xbeedcfc8	-0.46447587
21	0x3ec5959d	0.38590708
22	0x3e8f6067	0.28003237
23	0x3c291bdd	0.0103215845
24	0xbeb29eec	-0.34886873
25	0xbd217c76	-0.039425336
26	0x3e5b0dba	0.21391955
27	0x3c060aa6	0.00818125
28	0xbd8fa585	-0.07013992
29	0x3e96f508	0.2948382
30	0xbe8030d6	-0.2503726
31	0xbf2debaf	-0.6793775
32	0xbf0f9def	-0.5610036
33	0x3e387a16	0.18015322
34	0x3d84d4b0	0.064858794
35	0xbf3331f5	-0.69998103
36	0x3e3cd1e4	0.18439442
37	0x3da24905	0.079240836
38	0x3ea28915	0.3174521
39	0xbf11809a	-0.56836855
40	0xbeb9d93b	-0.36298546
41	0xbf14b398	-0.5808654
42	0xbda6cb44	-0.081442386
43	0xbf723233	-0.9460785
44	0xbe0bbbd8	-0.13645875
45	0xbf46acdb	-0.77607507
46	0xbf218b6f	-0.63103384
47	0x3d63f15a	0.055650093
48	0xbe3b33c4	-0.18281466
49	0xbec0abfc	-0.37631214
50	0x3dd3df12	0.10345282
51	0x3d67fec1	0.056639437
52	0x3e944471	0.28958467
53	0x3eee1787	0.46502325
54	0x3ead8ec2	0.33897978
55	0x3e15a120	0.14612246
56	0x3e2cd529	0.16878189
57	0xbdaf75b4	-0.08567372
58	0x3f2393de	0.638975
59	0x3dcb3561	0.099222906
60	0xbee62ed8	-0.44957614
61	0x3dc26826	0.09492521
62	0xbc83d3f7	-0.016092284
63	0xbf24f91a	-0.644426
64	0x3edb93a9	0.42886093
65	0xbeb7de48	-0.35911775
66	0xbedaf5d7	-0.42765686
67	0x3de40a82	0.11134817
68	0xbd882979	-0.06648535
69	0xbe335884	-0.17514235
70	0x3e893a75	0.26802412
71	0x3e44eaee	0.19230244
72	0xbeea0ac7	-0.45711347
73	0xbe8080b3	-0.2509819
74	0x3dd96395	0.10614697
75	0xbed8c883	-0.42340478
76	0xbe68cbb3	-0.22733955
77	0xbee02868	-0.43780828
78	0x3cab56fa	0.020915497
79	0x3e654d9c	0.22392887
80	0x3e14b923	0.14523749
81	0x3f0854e1	0.53254515
82	0xbcb726e2	-0.022357408
83	0xbe9d8e91	-0.30772832
84	0xbea15df2	-0.31516987
85	0xbe247ffa	-0.16064444
86	0x3e1c4365	0.15260084
87	0xbe2618e6	-0.16220436
88	0xbf09f35b	-0.53886956
89	0x3e061bbe	0.1309652
90	0xbe76cae9	-0.24100842
91	0x3ee104f0	0.4394908
92	0x3e0d8340	0.13819599
93	0xbe023c32	-0.12718275
94	0xbdfcb97c	-0.12340066
95	0x3e86563a	0.2623766
96	0x3d477389	0.048694167
97	0x3d5ec3bf	0.054385897
98	0xbcaad955	-0.020855585
99	0xbdfa9758	-0.12235898
100	0xbefa2481	-0.48855975
101	0xbe3f0253	-0.1865323
102	0xbece50af	-0.40295932
103	0xbe871351	-0.26381925
104	0xbf303758	-0.6883445
105	0xbdd5eb20	-0.10445237
106	0xbe9d356c	-0.3070482
107	0x3d3e4538	0.04645273
108	0xbec9d4fc	-0.39420307
109	0x3e134d15	0.14384873
110	0xbe8a42c2	-0.27004057
111	0x3e95fbc9	0.2929366
112	0xbef83a75	-0.484821
113	0x3f07a1ff	0.5298156
114	0x3f5c7a87	0.8612446
115	0xbdc7bd51	-0.09752906
116	0x3f124fc6	0.57152975
117	0x3dce637b	0.10077568
118	0x3f6c40e3	0.9228651
119	0x3e825855	0.25458017
120	0xbdf6db19	-0.12053508
121	0xbe869205	-0.2628328
122	0xbefece6b	-0.4976686
123	0x3d327bff	0.043575283
124	0x3e869c69	0.26291206
125	0xbeb6f6ee	-0.35735267
126	0xbea0ff92	-0.31444985
127	0xbe53cdd6	-0.20683989
128	0xbf039e27	-0.51413196
129	0x3e40beba	0.18822756
130	0xbeeadb9f	-0.45870683
131	0xbe8f7a13	-0.28022823
132	0xbf35e681	-0.71054846
133	0x3e585782	0.21127132
134	0xbf1c407c	-0.61035895
135	0xbe22b6c1	-0.15890028
136	0xbf4f3de8	-0.80953836
137	0x3dea4e71	0.11440743
138	0xbeddaf75	-0.43297926
139	0x3f085864	0.53259873
140	0xbe864007	-0.26220724
141	0x3ed1194f	0.4083962
142	0xbf00bfe1	-0.50292784
143	0x3dc039fb	0.09386059
144	0x3e6c7e42	0.23095039
145	0xbe066fe7	-0.13128625
146	0xbea2ab08	-0.3177111
147	0x3d4a6a5b	0.049417835
148	0xbe96d20c	-0.29457128
149	0x3f0dcb8a	0.553887
150	0xbe7c061f	-0.2461171
151	0x3e3620ad	0.17785902
152	0xbf1d83da	-0.61529315
153	0xbe8747fc	-0.26422107
154	0xbe32dc17	-0.1746677
155	0xbee8efaf	-0.45495364
156	0xbe063547	-0.13106261
157	0x3ebe4ee3	0.3716956
158	0x3ee1efeb	0.44128355
159	0xbdfb1a26	-0.12260847
160	0xbf634480	-0.887764
161	0xbc91fbba	-0.017820228
162	0xbebf9482	-0.3741799
163	0xbeacee32	-0.3377548
164	0xbeaa3d2b	-0.33249792
165	0xbf611aa8	-0.879313
166	0x39f54dc4	0.0004678798
167	0xbf1e94e8	-0.6194596
168	0x3db3997d	0.0876951
169	0xbf29c685	-0.6631854
170	0x3e9e8131	0.3095794
171	0xbe0b610c	-0.13611239
172	0x3e8b60db	0.27222332
173	0xbeae5858	-0.34051776
174	0x3e9c9f6b	0.30590376
175	0x3ed0e8b8	0.4080255
176	0xbeda36db	-0.42619976
177	0x3daeab18	0.08528727
178	0xbe3c769e	-0.18404624
179	0xbf53cce8	-0.8273454
180	0xbeaea36e	-0.34109062
181	0x3e48e04f	0.19616817
182	0xbeb1709f	-0.34656236
183	0x3de258d3	0.11052098
184	0xbd8913f0	-0.06693256
185	0xbe9b4fa1	-0.3033419
186	0x3e355848	0.17709458
187	0xbde23a8c	-0.11046323
188	0x3ddf107c	0.10891816
189	0xbdaffc23	-0.08593013
190	0x3f560af3	0.8361046
191	0x3db89c99	0.09014244
192	0x3f07a77a	0.52989924
193	0xbf1ecd03	-0.62031573
194	0x3c22c466	0.00993452
195	0x3f3c3da4	0.73531556
196	0xbe7d6d30	-0.24748683
197	0x3e217fdd	0.15771432
198	0xbe114634	-0.14186937
199	0xbe1f3517	-0.15547596

weight_logvar f4 [20, 10]
0	0xc1102c17	-9.010764
1	0xc1103a66	-9.014257
2	0xc10fdc31	-8.991258
3	0xc10ff103	-8.996341
4	0xc1106966	-9.025732
5	0xc10feca9	-8.995278
6	0xc10fee7a	-8.995722
7	0xc10fe189	-8.992562
8	0xc10fcf38	-8.9880905
9	0xc110562e	-9.02104
10	0xc10fed45	-8.995427
11	0xc1102aa4	-9.01041
12	0xc10ff120	-8.996368
13	0xc10fef58	-8.995934
14	0xc1100410	-9.000992
15	0xc10fca91	-8.986955
16	0xc11012db	-9.004603
17	0xc10fd32e	-8.989058
18	0xc10fbf25	-8.984166
19	0xc10fcc04	-8.9873085
20	0xc1100708	-9.001717
21	0xc1101352	-9.004717
22	0xc1101820	-9.00589
23	0xc1104a5f	-9.018157
24	0xc1101cf8	-9.007072
25	0xc10ffde9	-8.99949
26	0xc10fda89	-8.990853
27	0xc1102b11	-9.010514
28	0xc1102941	-9.010072
29	0xc11063a4	-9.024326
30	0xc11047ca	-9.017527
31	0xc10fee11	-8.995622
32	0xc10ffff9	-8.999993
33	0xc10fcfe4	-8.988255
34	0xc1105330	-9.020309
35	0xc10fcc4d	-8.987378
36	0xc1100ff3	-9.003894
37	0xc11031b5	-9.0121355
38	0xc1101ea6	-9.007483
39	0xc11017c4	-9.005802
40	0xc1100203	-9.000491
41	0xc10ffd4e	-8.999342
42	0xc110161c	-9.005398
43	0xc1100a09	-9.00245
44	0xc1100378	-9.000847
45	0xc10fc4e0	-8.985565
46	0xc1106080	-9.02356
47	0xc10ffec2	-8.999697
48	0xc1106f3a	-9.027155
49	0xc10ffb33	-8.998828
50	0xc1102814	-9.009785
51	0xc1102212	-9.008318
52	0xc10fee63	-8.9957
53	0xc10ffbb8	-8.998955
54	0xc10ff875	-8.998158
55	0xc10fea1f	-8.994658
56	0xc1101289	-9.004525
57	0xc1104bb6	-9.018484
58	0xc10fad71	-8.979844
59	0xc10fd00c	-8.988293
60	0xc10fc5c4	-8.985783
61	0xc1102298	-9.008446
62	0xc110050b	-9.001231
63	0xc10ff1aa	-8.9965
64	0xc10ffe69	-8.999612
65	0xc10fed7e	-8.9954815
66	0xc1104882	-9.017702
67	0xc10fefef	-8.996078
68	0xc11009df	-9.00241
69	0xc110028c	-9.000622
70	0xc11013cd	-9.004834
71	0xc1103563	-9.013034
72	0xc1100584	-9.001347
73	0xc10fbcdf	-8.983611
74	0xc10ff5dd	-8.997525
75	0xc1100c94	-9.003071
76	0xc10ff7e0	-8.998016
77	0xc1102356	-9.008627
78	0xc1100062	-9.000093
79	0xc1106c00	-9.026367
80	0xc1103c94	-9.01479
81	0xc110476f	-9.01744
82	0xc1100d05	-9.003179
83	0xc10ff669	-8.997659
84	0xc10fc868	-8.986427
85	0xc110095b	-9.002284
86	0xc1101a33	-9.006396
87	0xc10ff21c	-8.996609
88	0xc110246a	-9.00889
89	0xc10fbf7b	-8.984248
90	0xc1102ed0	-9.011429
91	0xc11010f1	-9.004136
92	0xc10ff0eb	-8.996318
93	0xc1103d85	-9.015019
94	0xc11012ea	-9.004618
95	0xc1101624	-9.005405
96	0xc10fc986	-8.9867
97	0xc10ff6f8	-8.997795
98	0xc10ff0e1	-8.996308
99	0xc10fea88	-8.994759
100	0xc10feaf9	-8.994866
101	0xc110246f	-9.008895
102	0xc10fbc76	-8.983511
103	0xc10fe41a	-8.993189
104	0xc1105e42	-9.023012
105	0xc1104996	-9.017965
106	0xc1106fc4	-9.027287
107	0xc11039f5	-9.01415
108	0xc10ff079	-8.996209
109	0xc10fefad	-8.996015
110	0xc11021e9	-9.008279
111	0xc1100536	-9.001272
112	0xc10fd538	-8.989555
113	0xc1102a4f	-9.010329
114	0xc11012fa	-9.004633
115	0xc1102aa7	-9.010413
116	0xc10fc101	-8.98462
117	0xc10fe5a7	-8.993567
118	0xc1103191	-9.012101
119	0xc1100384	-9.000858
120	0xc10ffb39	-8.998834
121	0xc10fb9df	-8.982879
122	0xc10fe2ef	-8.992904
123	0xc110199a	-9.00625
124	0xc10fd795	-8.990132
125	0xc10ffb0e	-8.998793
126	0xc10fe1ee	-8.992659
127	0xc1101c6a	-9.006937
128	0xc1102c2c	-9.010784
129	0xc10fb63d	-8.981992
130	0xc11039a4	-9.014072
131	0xc1100de6	-9.003393
132	0xc10fee37	-8.995658
133	0xc1102012	-9.00783
134	0xc1103ab2	-9.01433
135	0xc1102452	-9.008867
136	0xc10fefb2	-8.996019
137	0xc10fc5f5	-8.985829
138	0xc1102a87	-9.010383
139	0xc10feb27	-8.99491
140	0xc1100269	-9.000588
141	0xc110370f	-9.013442
142	0xc1103ae3	-9.014377
143	0xc1100d7f	-9.003295
144	0xc11033a3	-9.012607
145	0xc10ffd03	-8.99927
146	0xc1100132	-9.000292
147	0xc1100a23	-9.002475
148	0xc1100ed4	-9.00362
149	0xc1100cb1	-9.0030985
150	0xc1106726	-9.025183
151	0xc10fb52d	-8.981732
152	0xc1104632	-9.017138
153	0xc10fb080	-8.980591
154	0xc110090c	-9.002209
155	0xc1102835	-9.009816
156	0xc110098b	-9.00233
157	0xc11014cb	-9.005076
158	0xc10feb59	-8.994958
159	0xc11020a4	-9.007969
160	0xc1100345	-9.000798
161	0xc1100f61	-9.003755
162	0xc1100d95	-9.003316
163	0xc10ff61d	-8.997586
164	0xc10ff497	-8.997214
165	0xc1100929	-9.002236
166	0xc10fe034	-8.992237
167	0xc10ff182	-8.996462
168	0xc10fdfb1	-8.992112
169	0xc11041c7	-9.016059
170	0xc1100711	-9.001725
171	0xc10ff9b2	-8.998461
172	0xc10fde72	-8.991808
173	0xc10fe38d	-8.993054
174	0xc10fd660	-8.989838
175	0xc10ffbfa	-8.999018
176	0xc1100191	-9.000382
177	0xc1103b9d	-9.014554
178	0xc10fd3be	-8.989195
179	0xc1100944	-9.002262
180	0xc1101c4b	-9.006907
181	0xc10ff26d	-8.996686
182	0xc1102079	-9.007928
183	0xc10fffec	-8.999981
184	0xc10ff643	-8.9976225
185	0xc1101817	-9.005881
186	0xc10ff13f	-8.996398
187	0xc1103f32	-9.015429
188	0xc11036e3	-9.0134
189	0xc1101ad8	-9.006554
190	0xc10ff667	-8.997657
191	0xc11048c8	-9.017769
192	0xc110215a	-9.008142
193	0xc1105c12	-9.022478
194	0xc10ffab9	-8.998712
195	0xc11027f2	-9.009752
196	0xc1100cc8	-9.00312
197	0xc10fd7cd	-8.990186
198	0xc11008d1	-9.002152
199	0xc1105979	-9.021844

bias_mu f4 [20]
0	0xbe43e603	-0.19130711
1	0xbe9f0f47	-0.31066343
2	0x3d05ef29	0.032698784
3	0xbe025b0f	-0.12730049
4	0xbeb5c272	-0.35499913
5	0x3e2e6b25	0.1703306
6	0xbe7dc245	-0.24781139
7	0xbea10b5f	-0.31453988
8	0xbec71b19	-0.3888786
9	0x3e1621ae	0.14661285
10	0xbe662bba	-0.22477618
11	0x3e95314f	0.29139182
12	0xbe71d793	-0.23617391
13	0xbe9ea156	-0.30982465
14	0x3e29c3f6	0.1657866
15	0xbe8d4602	-0.27592474
16	0xbe97930d	-0.29604378
17	0x3c94cdd9	0.018164562
18	0xbe989222	-0.2979899
19	0x3eaeacfc	0.34116352

bias_logvar f4 [20]
0	0xc10ff059	-8.996179
1	0xc1101c73	-9.006946
2	0xc10ff387	-8.996955
3	0xc1100898	-9.002098
4	0xc10fdd12	-8.991472
5	0xc10ff95d	-8.99838
6	0xc1101f85	-9.007695
7	0xc10fc144	-8.984684
8	0xc1102ccb	-9.010936
9	0xc10fdaed	-8.990949
10	0xc10ffcd3	-8.999225
11	0xc10fec58	-8.995201
12	0xc11016e0	-9.005585
13	0xc1101193	-9.004291
14	0xc110118b	-9.004283
15	0xc1103292	-9.012346
16	0xc10fd88d	-8.990369
17	0xc10ff421	-8.997102
18	0xc1100328	-9.000771
19	0xc10ff6b6	-8.997732

posterior_weight_variance f4 [20, 10]
0	0x393b0716	0.0001783635
1	0x38e3c5a4	0.00010861017
2	0x39395d2c	0.00017677684
3	0x395cd320	0.00021059485
4	0x393987e3	0.00017693597
5	0x3971b21a	0.00023049899
6	0x3953f234	0.00020212756
7	0x38e6cb8c	0.00011005168
8	0x39728e75	0.00023131988
9	0x3907b412	0.00012941685
10	0x393deb0d	0.00018112008
11	0x38e4a692	0.00010902913
12	0x39386b0e	0.00017587488
13	0x395cea43	0.00021068104
14	0x393e2dec	0.00018136919
15	0x3973b6f0	0.00023242435
16	0x3952128b	0.00020034068
17	0x38e79b25	0.00011043836
18	0x39738331	0.00023223158
19	0x390c5bed	0.00013385685
20	0x393cbae0	0.00017998694
21	0x38e5f58c	0.000109653076
22	0x3936aabb	0.00017420475
23	0x39580ee7	0.00020604917
24	0x393d06e7	0.00018027016
25	0x3970adc0	0.0002295291
26	0x3954fb31	0.00020311472
27	0x38e2af72	0.00010809199
28	0x396d4871	0.00022629068
29	0x3907426f	0.00012899352
30	0x3939c468	0.00017716142
31	0x38e811f7	0.00011065968
32	0x3937c040	0.00017523859
33	0x395e9df2	0.00021230409
34	0x393a8a1b	0.0001778979
35	0x39739e86	0.0002323334
36	0x395238bf	0.000200483
37	0x38e2517e	0.00010791699
38	0x396de650	0.0002268788
39	0x3909cace	0.00013140889
40	0x393cf5c6	0.00018020635
41	0x38e73459	0.00011024689
42	0x3936c176	0.00017428942
43	0x395b7e28	0.00020932464
44	0x393e34af	0.00018139438
45	0x39741027	0.0002327567
46	0x394e2235	0.00019658434
47	0x38e526a2	0.00010926767
48	0x396943a9	0.00022245817
49	0x390ac0ee	0.00013232577
50	0x393b35cc	0.0001785375
51	0x38e520c3	0.00010925673
52	0x393889b5	0.00017598907
53	0x395c4022	0.00021004726
54	0x393eb828	0.00018188416
55	0x3971d839	0.000230641
56	0x395216c2	0.00020035639
57	0x38e0e2d8	0.00010723405
58	0x39749255	0.00023324166
59	0x390c3894	0.00013372517
60	0x393fc2d5	0.0001828776
61	0x38e51950	0.00010924286
62	0x393784c6	0.00017501702
63	0x395ccb86	0.00021056653
64	0x393e7188	0.00018162106
65	0x3971a5ba	0.00023045289
66	0x394f5756	0.00019773594
67	0x38e5fb6a	0.000109664004
68	0x396f1ba4	0.00022803113
69	0x390a80d0	0.00013208692
70	0x393c23e5	0.00017942449
71	0x38e40d10	0.0001087432
72	0x39378033	0.00017499998
73	0x395fa751	0.00021329267
74	0x393ed6ab	0.00018199782
75	0x396fd236	0.00022871126
76	0x3953760f	0.00020166508
77	0x38e31ea2	0.00010829909
78	0x396fa995	0.0002285599
79	0x3906fbb1	0.00012872998
80	0x393a4694	0.00017764635
81	0x38e30e5f	0.0001082688
82	0x39372960	0.00017467653
83	0x395c88c4	0.00021031784
84	0x3940f83a	0.00018403018
85	0x397001ec	0.000228889
86	0x3951b233	0.00019998178
87	0x38e5dc42	0.00010960597
88	0x396d916c	0.00022656255
89	0x390cca17	0.00013426725
90	0x393ae742	0.00017824493
91	0x38e6181a	0.00010971744
92	0x39386c41	0.00017587935
93	0x3958bcc8	0.00020669692
94	0x393d7d68	0.00018071162
95	0x396f429c	0.0002281763
96	0x3955ddef	0.0002039594
97	0x38e5964c	0.00010947566
98	0x39709241	0.00022942667
99	0x390b513f	0.0001328634
100	0x393e0713	0.00018122447
101	0x38e4ff2f	0.00010919419
102	0x393acd60	0.0001781485
103	0x395d8594	0.00021125964
104	0x393a0b13	0.00017742468
105	0x396c45e4	0.0002253275
106	0x394d5cae	0.0001958485
107	0x38e1dce1	0.00010769978
108	0x39709900	0.0002294518
109	0x390b2481	0.00013269672
110	0x393b7e47	0.00017880752
111	0x38e6c02c	0.000110030494
112	0x3939ad7f	0.00017707607
113	0x3959c2b0	0.0002076726
114	0x393d7f98	0.00018071977
115	0x396e106a	0.00022703563
116	0x39565148	0.0002043891
117	0x38e68f5b	0.00010993957
118	0x396cd0bb	0.00022584472
119	0x390a7891	0.0001320562
120	0x393d4589	0.00018050348
121	0x38eb08a1	0.000112072805
122	0x39390ea7	0.00017648433
123	0x395aa569	0.0002085172
124	0x3940416b	0.00018334917
125	0x3970d939	0.00022969105
126	0x39549912	0.00020274919
127	0x38e37fc2	0.00010848
128	0x396d1e3d	0.00022613346
129	0x390d1b95	0.00013457083
130	0x393a698e	0.00017777664
131	0x38e642f4	0.000109797256
132	0x39388d68	0.00017600285
133	0x395a4d41	0.0002081888
134	0x393ba9fa	0.00017897031
135	0x396e6ec3	0.0002273871
136	0x3953e4c5	0.00020207751
137	0x38e859e2	0.00011079364
138	0x396d364d	0.0002262231
139	0x390b4cf3	0.00013284739
140	0x393cf0ce	0.00018018784
141	0x38e3f647	0.00010870076
142	0x3935203f	0.00017273518
143	0x395b4b1c	0.00020913448
144	0x393bfb91	0.00017927426
145	0x3970bb55	0.0002295797
146	0x3952fb39	0.00020120748
147	0x38e483e3	0.00010896453
148	0x396ed1f0	0.00022775657
149	0x390a2a3d	0.0001317644
150	0x393859b1	0.0001758102
151	0x38eb4d55	0.000112200774
152	0x3934a0e8	0.0001722608
153	0x39605488	0.00021393795
154	0x393df279	0.00018114773
155	0x396e3598	0.00022717414
156	0x39528cea	0.00020079655
157	0x38e3ed00	0.00010868348
158	0x3970e647	0.00022973969
159	0x39097d33	0.00013111978
160	0x393ce99d	0.00018016105
161	0x38e62d05	0.0001097564
162	0x39372381	0.00017465466
163	0x395c8cef	0.00021033337
164	0x393ee643	0.00018205591
165	0x397007da	0.00022891109
166	0x3954af9b	0.00020283314
167	0x38e5e7d5	0.00010962753
168	0x39719541	0.00023039152
169	0x39086351	0.00013006969
170	0x393cb9f8	0.00017998356
171	0x38e765f0	0.00011033926
172	0x393941e3	0.0001766752
173	0x395d8d66	0.00021128877
174	0x39405006	0.00018340358
175	0x3970cb82	0.00022963996
176	0x3952f6a9	0.00020119049
177	0x38e1c58c	0.00010765632
178	0x39724a0c	0.00023106503
179	0x390a4961	0.00013188041
180	0x393bc053	0.00017905356
181	0x38e7cf53	0.000110535555
182	0x39364bb1	0.0001738507
183	0x395c057b	0.00020982877
184	0x393ed1e3	0.00018198001
185	0x396f258f	0.00022806808
186	0x3953cda8	0.00020199141
187	0x38e19310	0.000107562286
188	0x396c7ea0	0.00022553885
189	0x3909af04	0.00013130537
190	0x393d8169	0.00018072654
191	0x38e2f90e	0.0001082291
192	0x39364254	0.00017381582
193	0x395721f0	0.0002051664
194	0x393e9cb2	0.00018178186
195	0x396e3ad1	0.0002271936
196	0x3952627f	0.00020063853
197	0x38e7576b	0.00011031221
198	0x396f2b78	0.0002280901
199	0x3907983f	0.0001293132

posterior_weight_mean f4 [20, 10]
0	0xbe984a8d	-0.29744378
1	0xbe303233	-0.1720665
2	0xbf37ba7a	-0.71768916
3	0xbeb1de21	-0.34739783
4	0xbe05e5bd	-0.1307592
5	0xbec8e0aa	-0.39233905
6	0x3ca94994	0.020664968
7	0x3ea0697f	0.31330487
8	0x3da92f61	0.0826099
9	0x3d1bc01d	0.03802501
10	0xbe933b5a	-0.2875622
11	0x3e618f33	0.22027282
12	0xbf2a2027	-0.6645531
13	0xbed122ff	-0.40847012
14	0x3ebc7995	0.3681151
15	0xbc598161	-0.013275475
16	0xbe5501e6	-0.20801505
17	0xbeae0f06	-0.33995837
18	0xbf03800a	-0.5136725
19	0x3dcba82e	0.09944187
20	0xbf0fb859	-0.5614067
21	0x3ebaaf37	0.36461803
22	0x3eaad92f	0.33368823
23	0x3c5c8170	0.013458595
24	0xbed8a5a1	-0.42313865
25	0xbd5c2ce0	-0.053753734
26	0x3e8bdf1d	0.2731866
27	0x3bfc3799	0.0076970574
28	0xbdc37f4d	-0.09545765
29	0x3e9c38e8	0.30512166
30	0xbe9af156	-0.3026225
31	0xbf24537b	-0.6418988
32	0xbf2b2281	-0.66849524
33	0x3e708b61	0.23490669
34	0x3da11be0	0.07866645
35	0xbf7451fc	-0.954376
36	0x3e71220c	0.23548144
37	0x3d98ae41	0.07455111
38	0x3edd3450	0.43203974
39	0xbf1693c6	-0.58819234
40	0xbee0a20f	-0.4387364
41	0xbf0c7f8c	-0.5488212
42	0xbdc6c0b3	-0.09704723
43	0xbf9de72d	-1.2336174
44	0xbe297b3c	-0.16550916
45	0xbf8770a4	-1.058125
46	0xbf4e4d15	-0.8058637
47	0x3d5673d1	0.052356545
48	0xbe7ec658	-0.2488035
49	0xbec76453	-0.3894373
50	0x3e000b13	0.12504224
51	0x3d5b3264	0.053514853
52	0x3eb0ad1f	0.3450708
53	0x3f1b3a2d	0.60635644
54	0x3ed28187	0.41114447
55	0x3e4c0267	0.19922791
56	0x3e5cb76a	0.21554342
57	0xbda51355	-0.08060328
58	0x3f5e9f65	0.86961967
59	0x3dd24bcd	0.10268364
60	0xbf0b1c1a	-0.54339755
61	0x3db7aea0	0.08968854
62	0xbc9d1646	-0.01917566
63	0xbf571ce4	-0.8402846
64	0x3f052939	0.52016026
65	0xbefab117	-0.48963234
66	0xbf0bcfdd	-0.5461405
67	0x3dd68b7b	0.104758225
68	0xbdb94fa4	-0.09048393
69	0xbe3999df	-0.18125103
70	0x3ea5ddc9	0.3239577
71	0x3e3a0df3	0.18169384
72	0xbf0b7167	-0.54469913
73	0xbea78ee6	-0.3272621
74	0x3e03d591	0.12874438
75	0xbf13c8d7	-0.5772833
76	0xbe94a56f	-0.29032466
77	0xbed2e437	-0.4118974
78	0x3ce92fc6	0.028465163
79	0x3e6d4d07	0.23173915
80	0x3e33c291	0.1755469
81	0x3f00cf87	0.5031666
82	0xbcda3eb0	-0.02664122
83	0xbecd7156	-0.4012553
84	0xbec3b855	-0.38226572
85	0xbe6048c9	-0.21902765
86	0x3e478e74	0.19487935
87	0xbe1c4460	-0.15260458
88	0xbf3bbecd	-0.73338014
89	0x3e0ac92d	0.13553305
90	0xbe9525d1	-0.29130414
91	0x3ed49b17	0.41524574
92	0x3e28a09b	0.16467516
93	0xbe29d130	-0.16583705
94	0xbe194366	-0.14967117
95	0x3eb728b5	0.35773245
96	0x3d7eb5bc	0.062185034
97	0x3d5194aa	0.051167168
98	0xbce884c6	-0.028383624
99	0xbe01aa6b	-0.12662666
100	0xbf172c19	-0.5905166
101	0xbe3478ca	-0.17624202
102	0xbef5d8ac	-0.4801687
103	0xbeb020e9	-0.34400108
104	0xbf55bb01	-0.8348847
105	0xbe11d4e1	-0.14241363
106	0xbec8c389	-0.3921168
107	0x3d330274	0.04370351
108	0xbf0957b8	-0.53649473
109	0x3e187050	0.14886594
110	0xbea71d3e	-0.32639498
111	0x3e8db5a2	0.27677637
112	0xbf13e52b	-0.5777156
113	0x3f30daf4	0.69084096
114	0x3f85b53b	1.0445932
115	0xbe082a61	-0.13297416
116	0x3f3ad902	0.7298738
117	0x3dc22c82	0.094811454
118	0x3fa0c40b	1.2559828
119	0x3e86e42a	0.2634595
120	0xbe152f99	-0.14568938
121	0xbe7e4b15	-0.24833329
122	0xbf17d07a	-0.59302485
123	0x3d68bb09	0.056818996
124	0x3ea3449d	0.31888285
125	0xbef975a9	-0.4872258
126	0xbecd9a78	-0.40156913
127	0xbe4744d1	-0.19459845
128	0xbf332068	-0.69971323
129	0x3e4777b8	0.19479263
130	0xbf0def5e	-0.5544337
131	0xbe878fd0	-0.26476908
132	0xbf58c0ec	-0.84669375
133	0x3e8d0c08	0.27548242
134	0xbf3d841a	-0.74029696
135	0xbe5dd964	-0.21664959
136	0xbf845453	-1.0338234
137	0x3ddc707d	0.10763643
138	0xbf16da3e	-0.5892676
139	0x3f0d19cd	0.55117494
140	0xbea2443e	-0.3169269
141	0x3ec5904c	0.38586652
142	0xbf196b30	-0.5992918
143	0x3dfaa63b	0.12238737
144	0x3e8f6b7c	0.28011692
145	0xbe374bb7	-0.17899977
146	0xbecfbc5c	-0.40573394
147	0x3d3e6f95	0.04649313
148	0xbecd42be	-0.40089983
149	0x3f12bd9c	0.5732057
150	0xbe984f29	-0.29747894
151	0x3e2c1491	0.1680472
152	0xbf3bb224	-0.73318696
153	0xbeb06596	-0.34452504
154	0xbe58efd2	-0.21185234
155	0xbf1ecbd9	-0.62029797
156	0xbe2b6410	-0.1673739
157	0x3eb30b8c	0.34969747
158	0x3f19beeb	0.6005694
159	0xbe01ee1a	-0.12688485
160	0xbf89590e	-1.0730302
161	0xbc89ee12	-0.016837154
162	0xbee449ba	-0.445875
163	0xbee17d1c	-0.44040763
164	0xbece7b12	-0.4032827
165	0xbf9974fe	-1.1988828
166	0x3a1ca20a	0.00059750734
167	0xbf153241	-0.58279806
168	0x3df46d8a	0.119349554
169	0xbf2fb26c	-0.68631625
170	0x3ebf9530	0.3741851
171	0xbe03b0a8	-0.12860358
172	0x3ea61585	0.32438293
173	0xbee35554	-0.44401038
174	0x3ebdf73f	0.37102696
175	0x3f0e6aa4	0.5563147
176	0xbf0b55ea	-0.5442797
177	0x3da454b6	0.0802397
178	0xbe803ede	-0.25047964
179	0xbf5b300b	-0.8562018
180	0xbed3155d	-0.41227236
181	0x3e3dcb6c	0.1853463
182	0xbed3703f	-0.41296574
183	0x3e1391ea	0.1441113
184	0xbda64296	-0.08118169
185	0xbed3c185	-0.4135858
186	0x3e679644	0.22615916
187	0xbdd4d6fb	-0.10392567
188	0x3e17ca78	0.1482333
189	0xbdb61f7b	-0.08892723
190	0x3f815b04	1.0105901
191	0x3dae6d68	0.08516961
192	0x3f21a578	0.6314311
193	0xbf4f1091	-0.80884653
194	0x3c456b18	0.012049459
195	0x3f8053a1	1.0025522
196	0xbea1d1ce	-0.3160538
197	0x3e17f101	0.1483803
198	0xbe45b664	-0.19307858
199	0xbe24c2a1	-0.1608987

dropout_mu f4 [20]
0	0x3fadadb4	1.3568635
1	0x3f7c8446	0.98639333
2	0x3fb97836	1.448981
3	0x3fab9d1f	1.3407325
4	0x3f6028ac	0.8756206
5	0x3fbcf184	1.4761205
6	0x3fa14659	1.2599593
7	0x3f8813d4	1.0631051
8	0x3f8dca45	1.1077353
9	0x3fb25157	1.3931073
10	0x3f8f50c5	1.1196524
11	0x3fc0493f	1.5022353
12	0x3fa83522	1.3141215
13	0x3f6f6943	0.9351999
14	0x3fb622ed	1.4229409
15	0x3f97b7d1	1.1852971
16	0x3f7ffe5f	0.99997514
17	0x3fb9eb7d	1.452499
18	0x3f90d59f	1.1315192
19	0x3fd5b4b0	1.6695766

dropout_logvar f4 [20]
0	0xc10fdf9a	-8.99209
1	0xc11008d1	-9.002152
2	0xc10fea28	-8.994667
3	0xc10ff95b	-8.998378
4	0xc10fe29d	-8.9928255
5	0xc1103d91	-9.015031
6	0xc1102ab9	-9.01043
7	0xc110020a	-9.000498
8	0xc1100404	-9.00098
9	0xc1105ac6	-9.0221615
10	0xc1101a17	-9.00637
11	0xc11035e5	-9.013158
12	0xc10ffa3a	-8.99859
13	0xc10fe68d	-8.993787
14	0xc1104707	-9.017341
15	0xc1104273	-9.016223
16	0xc10febb4	-8.995045
17	0xc1101fd0	-9.007767
18	0xc1101b8d	-9.006726
19	0xc1102f35	-9.011525

weight_mu f4 [5, 20]
0	0xbee75ea5	-0.45189396
1	0xbc9f1391	-0.01941851
2	0xbe81ab7a	-0.2532614
3	0xbef3dddb	-0.476302
4	0xbdf39923	-0.11894443
5	0xbf31c8e7	-0.6944718
6	0xbe4e540f	-0.20149253
7	0xbe974677	-0.29545948
8	0xbef57c32	-0.47946316
9	0xbed72776	-0.42022294
10	0xbe6da31d	-0.23206754
11	0xbf57456f	-0.8409032
12	0xbedbd7a9	-0.42937973
13	0xbe546def	-0.20745061
14	0xbf12b62f	-0.5730924
15	0xbf1c1416	-0.6096815
16	0xbdc86ecd	-0.097867586
17	0x3f3f0b29	0.74626404
18	0xbe56e842	-0.20987037
19	0x3ee4e1ca	0.44703513
20	0xbde98050	-0.11401427
21	0x3dc939c8	0.09825474
22	0x3e6e3b11	0.2326472
23	0x3ecc272c	0.39873636
24	0x3ed55f9c	0.41674507
25	0x3eba2a08	0.36360192
26	0xbdfbdd0d	-0.122980215
27	0xbdb2e4d1	-0.087350495
28	0x3e84f0cc	0.25964963
29	0x3f1b3cf0	0.6063986
30	0x3dcacb14	0.09902015
31	0xbee4dc2d	-0.4469923
32	0x3d6d9e0e	0.05801206
33	0x3e84e17e	0.25953287
34	0x3dbb82a6	0.091557786
35	0xbecedffb	-0.4040526
36	0xbe206f36	-0.15667424
37	0x3e7aad20	0.24480104
38	0xbc28593b	-0.01027518
39	0x3ebefcb1	0.37302163
40	0x3e45da1a	0.1932148
41	0xbe5c4c81	-0.21513559
42	0x3ec04a4e	0.3755669
43	0x3e26b4e9	0.16279949
44	0x3d32f6d9	0.043692444
45	0x3ed93667	0.42424318
46	0x3eb10f08	0.3458178
47	0x3ecaaea7	0.39586374
48	0x3d9b8660	0.07593989
49	0x3e90ed9a	0.28306276
50	0x3ee028d3	0.43781146
51	0x3e841be6	0.25802535
52	0x3e7b1c56	0.24522528
53	0x3b21ce21	0.0024689513
54	0x3ea86948	0.32892823
55	0x3de91f2b	0.11382898
56	0x3ede6f02	0.43444067
57	0x3eba339d	0.36367503
58	0x3ed81bdb	0.42208752
59	0x3df35e32	0.11883201
60	0xbe22a494	-0.15883094
61	0x3e0ea934	0.13931733
62	0x3e52cd5c	0.20586151
63	0x3e0fe153	0.14050798
64	0xbdc8b975	-0.09800998
65	0x3dd510ca	0.10403593
66	0xbcc7bd46	-0.024382245
67	0x3e997a0a	0.2997592
68	0xbd40a5f8	-0.04703328
69	0xbc29d1c1	-0.010364951
70	0xbf1849b4	-0.5948746
71	0x3ec47a0f	0.38374373
72	0xbddb4e88	-0.10708338
73	0xbeb39a94	-0.3507887
74	0x3e49c0c3	0.19702439
75	0xbe08ccf6	-0.13359436
76	0x3de6bad3	0.11266103
77	0xbea2cf13	-0.3179861
78	0xbe2af602	-0.16695407
79	0xbf120fd1	-0.57055384
80	0xbefd7fb5	-0.49511495
81	0xbef95cc4	-0.48703587
82	0xbef3d4fe	-0.47623438
83	0xbe1702b6	-0.14747128
84	0x3e3d71f8	0.18500507
85	0xbef04584	-0.46928036
86	0xbecbbaf4	-0.3979107
87	0x3d4c079b	0.04981194
88	0xbe63a660	-0.22231436
89	0xbf401037	-0.7502474
90	0xbe49797c	-0.19675249
91	0x3dd7bb7b	0.10533806
92	0xbea73db7	-0.32664272
93	0xbdf127e8	-0.1177519
94	0xbee0d2cf	-0.43910834
95	0xbe78d4de	-0.24299952
96	0x3cc11efc	0.023574345
97	0xbf1a28b7	-0.60218376
98	0xbe3b942b	-0.1831824
99	0xbf67872b	-0.90440625

weight_logvar f4 [5, 20]
0	0xc1102ca2	-9.010897
1	0xc11042d3	-9.0163145
2	0xc10fdb46	-8.991034
3	0xc10ffeab	-8.999675
4	0xc11048a9	-9.017739
5	0xc10ffad1	-8.998734
6	0xc1101847	-9.005927
7	0xc110160e	-9.005384
8	0xc1101eb2	-9.007494
9	0xc1100f37	-9.003715
10	0xc1103813	-9.01369
11	0xc1102e30	-9.011276
12	0xc1101d91	-9.007218
13	0xc1101255	-9.004476
14	0xc10fe6aa	-8.993814
15	0xc10fe33b	-8.992976
16	0xc1102adc	-9.010464
17	0xc10ff3a5	-8.996984
18	0xc10fdcf2	-8.991442
19	0xc1104e68	-9.019142
20	0xc10fc30f	-8.985122
21	0xc10fd242	-8.988832
22	0xc11001a8	-9.000404
23	0xc10ffc6b	-8.9991255
24	0xc10ff38d	-8.996961
25	0xc10fe998	-8.99453
26	0xc1102800	-9.009766
27	0xc10fcc19	-8.987329
28	0xc11018eb	-9.0060835
29	0xc10fe840	-8.994202
30	0xc10fd8e5	-8.990453
31	0xc11031b5	-9.0121355
32	0xc10fee75	-8.995717
33	0xc10fe410	-8.993179
34	0xc10ffa8f	-8.998672
35	0xc1100462	-9.00107
36	0xc10ff67c	-8.997677
37	0xc10ff3fa	-8.997065
38	0xc1103cfc	-9.014889
39	0xc110377b	-9.013545
40	0xc1103d4c	-9.014965
41	0xc10fe03d	-8.992246
42	0xc10ff006	-8.996099
43	0xc1104395	-9.0164995
44	0xc1103304	-9.012455
45	0xc1100e2a	-9.003458
46	0xc11001f0	-9.000473
47	0xc10ffd58	-8.9993515
48	0xc110265c	-9.009365
49	0xc10ff818	-8.99807
50	0xc1100197	-9.000388
51	0xc10ff066	-8.996191
52	0xc10fd27b	-8.988887
53	0xc110389a	-9.013819
54	0xc11033bf	-9.012633
55	0xc11006d9	-9.001672
56	0xc1102763	-9.009616
57	0xc1102d5d	-9.011075
58	0xc10fed64	-8.995457
59	0xc10fe007	-8.992194
60	0xc1102a1b	-9.01028
61	0xc10ff46c	-8.997173
62	0xc10feedd	-8.995816
63	0xc110006e	-9.000105
64	0xc11021f9	-9.008294
65	0xc10febea	-8.995096
66	0xc1103915	-9.013936
67	0xc1100a38	-9.002495
68	0xc10fc6a4	-8.985996
69	0xc10fd92c	-8.9905205
70	0xc10fe24e	-8.99275
71	0xc11044c2	-9.016787
72	0xc1102b5e	-9.010588
73	0xc10fd09b	-8.988429
74	0xc10fe755	-8.993978
75	0xc10fe442	-8.993227
76	0xc1102d2a	-9.011026
77	0xc10fe524	-8.993443
78	0xc11022b0	-9.008469
79	0xc1103ad8	-9.014366
80	0xc10fe462	-8.9932575
81	0xc10fe531	-8.993455
82	0xc10fde9c	-8.991848
83	0xc1100b8b	-9.002818
84	0xc10feb74	-8.994984
85	0xc10fc9da	-8.98678
86	0xc1105a0d	-9.021985
87	0xc10fd111	-8.988542
88	0xc1100307	-9.000739
89	0xc10fef45	-8.995915
90	0xc11019c9	-9.006295
91	0xc11004cf	-9.001174
92	0xc10ffcda	-8.999231
93	0xc110089f	-9.002105
94	0xc10ff42a	-8.99711
95	0xc10fc850	-8.986404
96	0xc10fe54d	-8.993482
97	0xc1101620	-9.005402
98	0xc11012b2	-9.004564
99	0xc11025ef	-9.009261

bias_mu f4 [5]
0	0xbe1455ee	-0.14485905
1	0x3e1c320f	0.15253471
2	0x3e4f8235	0.20264514
3	0x3cea2f5b	0.028587034
4	0xbe917440	-0.28409004

bias_logvar f4 [5]
0	0xc1103b83	-9.014529
1	0xc10fc4be	-8.985533
2	0xc10fe796	-8.99404
3	0xc1102e15	-9.0112505
4	0xc10fe4ac	-8.993328

posterior_weight_variance f4 [5, 20]
0	0x396baa4d	0.00022474788
1	0x38f7bd36	0.00011813121
2	0x398911c7	0.0002614392
3	0x3968b135	0.00022191259
4	0x38c2f17f	9.295623e-05
5	0x398d2a07	0.00026924929
6	0x394c3750	0.00019475562
7	0x391177d4	0.00013872917
8	0x391d9b89	0.00015030628
9	0x397a3697	0.00023862194
10	0x392004fb	0.00015260644
11	0x399061f2	0.00027538795
12	0x395dddc9	0.00021158824
13	0x38e15840	0.00010745274
14	0x3983d274	0.00025143067
15	0x39371771	0.00017460973
16	0x39000d26	0.0001221193
17	0x3988ec33	0.00026115924
18	0x39271b23	0.0001593647
19	0x39b0f04c	0.0003374837
20	0x3971d0b9	0.00023061306
21	0x38fea466	0.000121422854
22	0x3987ca7a	0.00025900063
23	0x3968d1a9	0.00022203349
24	0x38c70aa1	9.491039e-05
25	0x398dc198	0.00027037854
26	0x394b6eeb	0.00019400909
27	0x39141e01	0.00014125557
28	0x391dd3d3	0.00015051597
29	0x397c9b9d	0.00024090563
30	0x3923c7dc	0.00015619345
31	0x39904130	0.0002751439
32	0x39606e10	0.00021403306
33	0x38e3e7d0	0.00010867382
34	0x39832e4c	0.0002502076
35	0x39359cc6	0.00017319908
36	0x3901b311	0.00012369106
37	0x3988e859	0.00026113054
38	0x39233b96	0.00015567089
39	0x39b1ee6b	0.00033937706
40	0x396ab4ad	0.00022383286
41	0x38fdc694	0.00012100968
42	0x398860a0	0.00026011933
43	0x3964ce8c	0.00021820719
44	0x38c3f9d0	9.344856e-05
45	0x398c7f20	0.00026797596
46	0x394d558d	0.00019582194
47	0x39125975	0.0001395697
48	0x391d4f34	0.00015002192
49	0x397ba0cd	0.00023997128
50	0x39222a17	0.00015465204
51	0x39929274	0.00027956406
52	0x3961f811	0.00021550084
53	0x38df3f6c	0.00010645282
54	0x39815ce3	0.00024674003
55	0x39358032	0.00017309262
56	0x390029ae	0.00012222558
57	0x398700e1	0.0002574986
58	0x39267046	0.00015872819
59	0x39b5c529	0.00034669906
60	0x396bcecd	0.00022488386
61	0x38fc8703	0.00012041444
62	0x39886a50	0.0002601915
63	0x396896bf	0.00022181401
64	0x38c4cb10	9.383832e-05
65	0x398daccc	0.0002702236
66	0x394a9620	0.00019320147
67	0x3911e39b	0.00013913067
68	0x3921075c	0.00015356898
69	0x397d889e	0.00024178854
70	0x3923690e	0.00015584027
71	0x398f95b9	0.00027386638
72	0x395d1e09	0.00021087391
73	0x38e4fe14	0.00010919213
74	0x3983cc5e	0.00025138533
75	0x39370a43	0.00017456063
76	0x38fff570	0.00012205064
77	0x3989679d	0.00026207874
78	0x392448d8	0.00015667395
79	0x39b1c967	0.00033910127
80	0x396fdc15	0.00022874803
81	0x38fd79a3	0.00012086637
82	0x3988f58d	0.0002612289
83	0x3967f56a	0.000221213
84	0x38c76e51	9.5096075e-05
85	0x398edc17	0.0002724833
86	0x3948f6fb	0.00019165494
87	0x3913f004	0.00014108425
88	0x391eac42	0.00015132225
89	0x397c2daa	0.00024049604
90	0x392134f8	0.00015373889
91	0x3991d7d6	0.00027817365
92	0x395fa4ed	0.00021328377
93	0x38e1e0f1	0.00010770735
94	0x39836323	0.0002506013
95	0x39384b37	0.00017575627
96	0x39023e8f	0.00012421071
97	0x3987c5f9	0.00025896708
98	0x3924ed64	0.00015728694
99	0x39b2b354	0.00034084416

posterior_weight_mean f4 [5, 20]
0	0xbf1cf7f3	-0.6131584
1	0xbc9ce974	-0.019154288
2	0xbebbe39e	-0.36697096
3	0xbf237ade	-0.63859355
4	0xbdd54cb2	-0.10415019
5	0xbf833743	-1.025124
6	0xbe81fb90	-0.2538724
7	0xbea0d24d	-0.31410447
8	0xbf07f75e	-0.5311183
9	0xbf15ddcd	-0.58541566
10	0xbe850917	-0.25983498
11	0xbfa1b1ab	-1.2632345
12	0xbf107328	-0.56425714
13	0xbe46a9fb	-0.1940078
14	0xbf50c313	-0.8154766
15	0xbf38ffd6	-0.72265375
16	0xbdc86d87	-0.09786516
17	0x3f8abecd	1.0839478
18	0xbe732bf4	-0.23747236
19	0x3f3f1169	0.7463594
20	0xbe1e6a26	-0.1547018
21	0x3dc67cda	0.09691782
22	0x3eac988d	0.33710137
23	0x3f08db77	0.53459877
24	0x3ebad58f	0.36491057
25	0x3f09667f	0.5367202
26	0xbe1eab3b	-0.15495007
27	0xbdbe2ed4	-0.092862755
28	0x3e934354	0.28762305
29	0x3f584364	0.8447783
30	0x3de30ed7	0.11086815
31	0xbf2be69d	-0.6714876
32	0x3d9c210a	0.07623489
33	0x3e788a50	0.24271512
34	0x3e056877	0.13028131
35	0xbef53550	-0.47892237
36	0xbe206e31	-0.15667035
37	0x3eb60db3	0.35557327
38	0xbc3e7d58	-0.011626564
39	0x3f1f6f0c	0.6227882
40	0x3e863aa3	0.2621661
41	0xbe594d23	-0.21220832
42	0x3f0b4ffe	0.54418933
43	0x3e5f8252	0.21827057
44	0x3d1cb46d	0.038258005
45	0x3f2050e0	0.62623405
46	0x3edf1637	0.43571636
47	0x3ed778f7	0.42084476
48	0x3dac47ca	0.0841213
49	0x3ec9e683	0.3943368
50	0x3efafb0e	0.49019665
51	0x3ec67572	0.3876148
52	0x3ea4feb7	0.32225582
53	0x3b1751f9	0.002308963
54	0x3eefa3a6	0.4680454
55	0x3e0a28c6	0.13492116
56	0x3ede6d98	0.43442988
57	0x3f073a95	0.52823764
58	0x3ef48801	0.47760013
59	0x3e4b2925	0.19839914
60	0xbe5caf27	-0.2155119
61	0x3e0cb845	0.13742168
62	0x3e98b964	0.29828942
63	0x3e40e7a2	0.18838361
64	0xbdafc22a	-0.08581956
65	0x3e1d4157	0.15356956
66	0xbcfba9d8	-0.030720636
67	0x3ea32971	0.31867555
68	0xbd556741	-0.052100424
69	0xbc6c939b	-0.014439489
70	0xbf2a8270	-0.6660528
71	0x3f1393c2	0.57647336
72	0xbe10190e	-0.14072058
73	0xbea7f72a	-0.3280576
74	0x3e8f8a91	0.28035405
75	0xbe22263f	-0.15834902
76	0x3de6b95b	0.112658225
77	0xbeec7ad1	-0.4618745
78	0xbe417214	-0.18891174
79	0xbf73dc81	-0.9525834
80	0xbf2bfb4f	-0.6718034
81	0xbef5f829	-0.48040894
82	0xbf30a76b	-0.6900546
83	0xbe4a76fd	-0.19771953
84	0x3e25e1d2	0.16199425
85	0xbf3155ba	-0.69271433
86	0xbf00588f	-0.5013513
87	0x3d58e7b0	0.05295533
88	0xbe7c2d03	-0.24626546
89	0xbf85c84d	-1.0451752
90	0xbe6194db	-0.2202944
91	0x3e220a56	0.15824255
92	0xbedbc66c	-0.4292482
93	0xbde1876a	-0.11012156
94	0xbf1ff48b	-0.6248252
95	0xbe93783a	-0.28802663
96	0x3cc11dc1	0.023573758
97	0xbf5fea76	-0.87467134
98	0xbe543fbe	-0.2072744
99	0xbfc146e1	-1.5099756
