Activelearning/SeedModels/simple_model_best.pth (torch, 15649 bytes, 24 tensors)

dropout_mu f4 [4]
00000000: 24df a63f d9b7 993f b998 af3f 9f0a 883f
1.3036847 1.2009231 1.3718482 1.0628241

dropout_logvar f4 [4]
00000000: 2dde 0fc1 6ffb 0fc1 263f 10c1 a8b5 0fc1
-8.991742 -8.998885 -9.015417 -8.98185

weight_mu f4 [10, 4]
00000000: 9609 80bf 8464 283e fcf9 f93e 51e6 833c
00000010: b2e8 1d3f 381f 8bbe 8a0c 13bf 3170 6c3e
00000020: 22ff b4bd 19f0 103f dc10 aabf 473d 003e
00000030: c72a 223f 33fd 15bf 4687 553f f673 33bf
00000040: 04bb a33d 084c b2be 4199 4e3f a9b6 993c
00000050: 941c 79bf 3752 31bf b6fd 543e 01f8 90bc
00000060: 6a44 4f3d 7277 7ebf de37 033e 48ab 403f
00000070: b78b 6fbe 8ed9 c13e c2c2 173f 8616 173f
00000080: 6c75 8f3e a9a5 f53e 518c 1d3f 64e6 1d3f
00000090: 6c62 b13e df56 97bf f2a2 293e c413 0cbf
-1.0002925 0.16444594 0.48823535 0.016101034 0.6168319 -0.27172256 -0.5744101 0.23089673
-0.08837725 0.5661636 -1.3286395 0.12523375 0.63346523 -0.58589476 0.83409536 -0.7009882
0.07994655 -0.34823632 0.80702597 0.018763857 -0.9730923 -0.69266075 0.20799908 -0.017696382
0.050602354 -0.9940101 0.1281428 0.75261354 -0.2339314 0.37861294 0.5928155 0.59018743
0.28019273 0.4797795 0.6154223 0.61679673 0.34645402 -1.1823386 0.16566065 -0.5471766

weight_logvar f4 [10, 4]
00000000: ec66 0fc1 d70c 10c1 672c 10c1 82d1 0fc1
00000010: 2f36 10c1 3be2 0fc1 8de0 0fc1 7d01 10c1
00000020: 0115 10c1 26c7 0fc1 97f4 0fc1 48e9 0fc1
00000030: 41ec 0fc1 a714 10c1 61ef 0fc1 bd06 10c1
00000040: 686a 10c1 d701 10c1 4f1f 10c1 ce13 10c1
00000050: 1d1e 10c1 71e6 0fc1 ce9e 0fc1 76ca 0fc1
00000060: b8fd 0fc1 98f5 0fc1 4ad6 0fc1 6003 10c1
00000070: 3d03 10c1 8f08 10c1 1a0e 10c1 b0b5 0fc1
00000080: 3b34 10c1 d143 10c1 db03 10c1 ff38 10c1
00000090: 560c 10c1 1af0 0fc1 69e4 0fc1 4c5c 10c1
-8.962627 -9.003135 -9.01084 -8.988649 -9.013228 -8.992732 -8.992322 -9.000363
-9.005128 -8.98612 -8.997214 -8.994453 -8.995179 -9.005042 -8.995942 -9.001645
-9.025978 -9.000449 -9.007644 -9.004835 -9.007352 -8.99376 -8.976271 -8.986929
-8.999443 -8.997459 -8.989817 -9.000824 -9.000791 -9.0020895 -9.003443 -8.981857
-9.012752 -9.016557 -9.000941 -9.013915 -9.003012 -8.996119 -8.993264 -9.022533

bias_mu f4 [10]
00000000: 1f76 163e db15 853e 228f 4b3e 0b47 8b3e
00000010: 4a35 f03d f11b ea3d 6423 023f 607c fdbd
00000020: 5765 1b3f 7bc5 c5bd
0.14693497 0.25993237 0.1987882 0.2720264 0.11728914 0.11431111 0.5083525 -0.12377238
0.6070151 -0.09656807

bias_logvar f4 [10]
00000000: 2530 10c1 3ce2 0fc1 eee4 0fc1 e715 10c1
00000010: 932a 10c1 9cec 0fc1 272a 10c1 69ee 0fc1
00000020: 6d4a 10c1 5bdf 0fc1
-9.011754 -8.992733 -8.993391 -9.005347 -9.010394 -8.995266 -9.010291 -8.995706
-9.01817 -8.99203

posterior_weight_variance f4 [10, 4]
00000000: b453 6439 b10b 3a39 c3e9 7039 e8d7 1339
00000010: 0e0d 5939 eefd 3b39 e16a 7539 5e1f 1239
00000020: 75cf 5a39 343e 3d39 0d3e 7439 f0fc 1239
00000030: 2801 5d39 3ab2 3939 5389 7439 46f1 1139
00000040: 9d4b 5639 298c 3a39 e1b0 7139 3e78 1139
00000050: dd56 5a39 26ce 3b39 4862 7939 1419 1439
00000060: c90e 5c39 b41e 3b39 3307 7639 4610 1239
00000070: 23c3 5b39 f93d 3a39 25b4 7239 53db 1439
00000080: 5426 5939 8591 3739 df4f 7339 3229 1039
00000090: 9546 5b39 a960 3b39 7a2e 7539 2cec 0e39
0.00021774956 0.00017742698 0.00022975267 0.00014099444 0.00020699596 0.00017928306 0.00023404836 0.0001393533
0.00020867384 0.00018047617 0.00023292769 0.00014017872 0.00021076633 0.0001770937 0.0002332081 0.00013918159
0.00020436799 0.00017790556 0.00023049444 0.00013873071 0.00020822459 0.00017910506 0.00023783103 0.00014123722
0.00020986343 0.00017845148 0.0002346307 0.00013929707 0.00020958162 0.00017761429 0.00023146028 0.00014196085
0.00020709011 0.0001750645 0.0002320404 0.00013748257 0.00020911761 0.00017869718 0.00023382335 0.00013630156

posterior_weight_mean f4 [10, 4]
00000000: a3eb a6bf 033a 4a3e 0477 2b3f a82f 8c3c
00000010: 0fdd 4d3f 2313 a7be 98ba 49bf d34a 7b3e
00000020: 67f6 ebbd 2b0f 2e3f f74d e9bf c04b 083e
00000030: 2e6a 533f 1520 34bf db76 923f 19ba 3ebf
00000040: f773 d53d f91e d6be 04b6 8d3f d55e a33c
00000050: ab61 a2bf f6f2 54bf 8018 923e 8913 9abc
00000060: 061b 873d 22cc 98bf f202 343e f9c5 4c3f
00000070: 6525 9cbe 79cc e83e 5831 503f 7894 203f
00000080: 5f06 bb3e 6c80 133f d121 583f e4d1 273f
00000090: df40 e73e 35bf b5bf 2eb7 683e a0e0 14bf
-1.3040661 0.19748692 0.6697848 0.017112568 0.80415434 -0.32631788 -0.78800344 0.24540262
-0.11521607 0.67991894 -1.8226918 0.13310146 0.8258389 -0.70361453 1.1442522 -0.7450271
0.10422509 -0.41820505 1.1071172 0.01994268 -1.2686056 -0.8318323 0.28534317 -0.018808143
0.06596951 -1.1937296 0.17579249 0.7998958 -0.3049728 0.454685 0.8132529 0.62726545
0.36528298 0.5761783 0.844266 0.6555464 0.4516668 -1.4198977 0.22726128 -0.5815525

dropout_mu f4 [10]
00000000: f368 9b3f 5168 8d3f 6332 983f 332a ae3f
00000010: 6163 9a3f 5431 af3f c8dd 9c3f a01b 8b3f
00000020: 16cb aa3f b608 903f
1.2141403 1.104746 1.1890377 1.3606628 1.2061578 1.3686929 1.2255182 1.0867805
1.3343227 1.1252658

dropout_logvar f4 [10]
00000000: 61ec 0fc1 5d22 10c1 8716 10c1 d419 10c1
00000010: e22a 10c1 843a 10c1 c4e2 0fc1 eb01 10c1
00000020: f4e4 0fc1 01ee 0fc1
-8.99521 -9.008389 -9.0055 -9.006306 -9.010469 -9.014286 -8.992863 -9.000468
-8.993397 -8.995606

weight_mu f4 [20, 10]
00000000: 102a 7b3e 25c1 4a3e 7651 48bf 1f9f ebbe
00000010: 5d9d 50bd ca74 f23e bc67 003f 7f1f b43e
00000020: e75e c4bd 8e65 93be 3310 86be 03fc 383e
00000030: 85dc 3fbf 549d ca3d 7973 263f 3110 913e
00000040: 810a 713e 7288 58bf 313b e43d 4002 c73e
00000050: 5943 35bf 5076 933e 11e5 a13e 9dde 103e
00000060: 5cf2 22be bb11 0dbe e61b b53d b3a9 f33d
00000070: ed72 6ebc 404c 9d3e 5766 88bd 98bb be3d
00000080: 733a 70be f808 1f3f 34ad 1f3e ee3d b2bf
00000090: 1839 81be 5b44 aabd 2862 093f 79f6 4abf
000000a0: b32f 893e 5d74 24bf 2d49 123d 45e9 9abf
000000b0: 901c 66be 8a29 a1bf ab84 83bf fce4 923e
000000c0: aa9d 9e3e 6cc1 25bf 8414 6c3d 4f99 653d
000000d0: e8ee 903e 3acb 0d3f e8ab e93e f639 893d
000000e0: d86f 293b 7580 a13d 51af 273f 84d6 a7bc
000000f0: cb20 efbe fd2e c93d 62b7 683d 5c53 1abf
00000100: 5e9c 523f 6231 85bf 9c70 aebd 74cd 3f3f
00000110: 93e4 f43e b246 0c3e ca38 4a3f fe10 9b3e
00000120: 06a0 5abf aa49 e0bd 3181 ac3e 955d 3a3e
00000130: d936 bdbd 30b4 dfbe 9874 3ebe c913 c23d
00000140: 66fb 1d3f 30f9 1d3f 982f febe 4387 25bf
00000150: f96d cebd db1f a03e 33fb 063f 4c01 40be
00000160: 85f9 77be 8245 bcbd c2cf b63c 451a f73e
00000170: be37 88bd 093a ccbe 5989 d5be 349e 363f
00000180: 6b99 4abe f0f4 adbe 8955 02be 392e dcbd
00000190: 51c8 fa3d ab0c adbe 78ce f3be a3c3 4fbf
000001a0: 0d21 71bf 76e8 e73e 8a1a 08bf e97f cc3e
000001b0: 024d 833d de5c 32be 4b04 b9be e595 ba3e
000001c0: a75a a0be 5532 b83e 1ec3 433f e86c 2fbe
000001d0: 83e2 eb3e 81c9 d0bc 30a8 5c3f ea12 d03d
000001e0: 0cd5 a53e a78a a4be 4b17 36bf bcba 5a3b
000001f0: 0655 a83e b7fe ad3d 8555 adbe f686 23be
00000200: 35c0 02bf b0e1 8bb9 433e 33bf 93ec 823e
00000210: 3cde 24bf 4200 2a3f 4122 eabe 709b 26bf
00000220: ceaf 2dbf 6c5d fe3d 814f 873e 4c93 3a3f
00000230: 6c71 4cbe c44c ee3e 5517 a6be 7a1f 9e3e
00000240: 43e3 df3e fcec 003e f2c9 4fbe 87c6 81be
00000250: 47c9 2ebe 4a27 2f3f 4349 13be 0cb3 d83e
00000260: 0364 c5be ba43 f1bc 6375 74be d62a 91bf
00000270: 1724 07be 05ba 013f 8dc3 393f 29e3 0d3e
00000280: 464f b3be 8dce 993e 3e99 38be d622 d23c
00000290: ed09 2bbe 1ed1 bcbf b73c 823e 380d 10bf
000002a0: e4b7 033f 96ab d0be e16c 373e f8f1 3d3e
000002b0: 4080 1d3e dae6 0e3c 8fcb 2e3f 7783 75bf
000002c0: fae8 0abf b757 263f aff8 543e f98e 8cbf
000002d0: ebf7 4dbe 0b70 063f 8b96 b2be ec2c d33e
000002e0: e110 25bd b99e 71bd 45cf 103f d462 62bd
000002f0: c1a6 473e f466 9d3d 0321 463f d978 3abe
00000300: d1d3 0f3f 40b4 25bf c990 e7bc a71f 1a3f
00000310: 6850 a6bd 0e94 733e f7c9 39be 819e 853e
0.24527764 0.19800241 -0.782493 -0.46019837 -0.050931323 0.47354728 0.50158286 0.3518028
-0.09588414 -0.28788418 -0.26184234 0.18064885 -0.7494586 0.09893289 0.6501995 0.28332666
0.23539163 -0.845832 0.11144102 0.38868904 -0.7080589 0.28801203 0.31620076 0.1414742
-0.15912765 -0.13776295 0.08843212 0.11897602 -0.014553768 0.30722237 -0.06660145 0.093131244
-0.23459797 0.6212306 0.15593415 -1.392515 -0.25238872 -0.08313819 0.536654 -0.7928234
0.26794204 -0.64240056 0.035714317 -1.2102438 -0.22471833 -1.2590802 -1.0274862 0.28690326
0.30979663 -0.64748263 0.057636753 0.05605441 0.2830727 0.55388224 0.45638967 0.06700508
0.0025854018 0.07885829 0.65501887 -0.020488031 -0.46704707 0.098234154 0.056815512 -0.60283446
0.8226985 -1.0405695 -0.08517572 0.7492287 0.47830638 0.13698843 0.78992903 0.30286402
-0.85400426 -0.1095155 0.33692315 0.18199761 -0.09238977 -0.4369216 -0.18599164 0.0947643
0.6171173 0.61708355 -0.49645686 -0.6465952 -0.10079569 0.31274304 0.5272705 -0.18750495
-0.24216278 -0.09192945 0.022315864 0.4826223 -0.06651257 -0.39888027 -0.4170635 0.7133515
-0.19785087 -0.33975935 -0.12727942 -0.10751004 0.122452386 -0.33798727 -0.4761846 -0.8115789
-0.94191056 0.4529454 -0.53165495 0.39941338 0.064111724 -0.17418239 -0.36136088 0.36442485
-0.31319162 0.359759 0.764696 -0.17131388 0.46071252 -0.02548671 0.86194134 0.101598576
0.32389104 -0.32137033 -0.7112929 0.0033375463 0.32877368 0.084958486 -0.3385431 -0.15969452
-0.51074535 -0.00026680296 -0.7001688 0.25571117 -0.644016 0.66406643 -0.4572926 -0.6508093
-0.6784638 0.124201626 0.26427844 0.7288101 -0.19965142 0.46542943 -0.32439676 0.3088339
0.43728074 0.12590402 -0.2029188 -0.25346777 -0.17068969 0.68419325 -0.14383416 0.42324102
-0.38552865 -0.02945124 -0.23872904 -1.1341197 -0.13197361 0.5067447 0.7256401 0.13856186
-0.35021418 0.30040398 -0.18027207 0.025651377 -0.16703005 -1.4751318 0.25436947 -0.5627017
0.5145247 -0.4075591 0.17912628 0.18549335 0.15380955 0.0087220315 0.68279356 -0.95903724
-0.54261744 0.6497759 0.2079799 -1.0981132 -0.20114104 0.52514714 -0.3488048 0.4124521
-0.0402993 -0.05898926 0.5656627 -0.05527003 0.19497205 0.076856524 0.7739412 -0.18210162
0.5618258 -0.64728165 -0.028267281 0.6020455 -0.08120805 0.23786947 -0.1814345 0.2609749

weight_logvar f4 [20, 10]
00000000: 172c 10c1 663a 10c1 31dc 0fc1 03f1 0fc1
00000010: 6669 10c1 a9ec 0fc1 7aee 0fc1 89e1 0fc1
00000020: 38cf 0fc1 2e56 10c1 45ed 0fc1 a42a 10c1
00000030: 20f1 0fc1 58ef 0fc1 1004 10c1 91ca 0fc1
00000040: db12 10c1 2ed3 0fc1 25bf 0fc1 04cc 0fc1
00000050: 0807 10c1 5213 10c1 2018 10c1 5f4a 10c1
00000060: f81c 10c1 e9fd 0fc1 89da 0fc1 112b 10c1
00000070: 4129 10c1 a463 10c1 ca47 10c1 11ee 0fc1
00000080: f9ff 0fc1 e4cf 0fc1 3053 10c1 4dcc 0fc1
00000090: f30f 10c1 b531 10c1 a61e 10c1 c417 10c1
000000a0: 0302 10c1 4efd 0fc1 1c16 10c1 090a 10c1
000000b0: 7803 10c1 e0c4 0fc1 8060 10c1 c2fe 0fc1
000000c0: 3a6f 10c1 33fb 0fc1 1428 10c1 1222 10c1
000000d0: 63ee 0fc1 b8fb 0fc1 75f8 0fc1 1fea 0fc1
000000e0: 8912 10c1 b64b 10c1 71ad 0fc1 0cd0 0fc1
000000f0: c4c5 0fc1 9822 10c1 0b05 10c1 aaf1 0fc1
00000100: 69fe 0fc1 7eed 0fc1 8248 10c1 efef 0fc1
00000110: df09 10c1 8c02 10c1 cd13 10c1 6335 10c1
00000120: 8405 10c1 dfbc 0fc1 ddf5 0fc1 940c 10c1
00000130: e0f7 0fc1 5623 10c1 6200 10c1 006c 10c1
00000140: 943c 10c1 6f47 10c1 050d 10c1 69f6 0fc1
00000150: 68c8 0fc1 5b09 10c1 331a 10c1 1cf2 0fc1
00000160: 6a24 10c1 7bbf 0fc1 d02e 10c1 f110 10c1
00000170: ebf0 0fc1 853d 10c1 ea12 10c1 2416 10c1
00000180: 86c9 0fc1 f8f6 0fc1 e1f0 0fc1 88ea 0fc1
00000190: f9ea 0fc1 6f24 10c1 76bc 0fc1 1ae4 0fc1
000001a0: 425e 10c1 9649 10c1 c46f 10c1 f539 10c1
000001b0: 79f0 0fc1 adef 0fc1 e921 10c1 3605 10c1
000001c0: 38d5 0fc1 4f2a 10c1 fa12 10c1 a72a 10c1
000001d0: 01c1 0fc1 a7e5 0fc1 9131 10c1 8403 10c1
000001e0: 39fb 0fc1 dfb9 0fc1 efe2 0fc1 9a19 10c1
000001f0: 95d7 0fc1 0efb 0fc1 eee1 0fc1 6a1c 10c1
00000200: 2c2c 10c1 3db6 0fc1 a439 10c1 e60d 10c1
00000210: 37ee 0fc1 1220 10c1 b23a 10c1 5224 10c1
00000220: b2ef 0fc1 f5c5 0fc1 872a 10c1 27eb 0fc1
00000230: 6902 10c1 0f37 10c1 e33a 10c1 7f0d 10c1
00000240: a333 10c1 03fd 0fc1 3201 10c1 230a 10c1
00000250: d40e 10c1 b10c 10c1 2667 10c1 2db5 0fc1
00000260: 3246 10c1 80b0 0fc1 0c09 10c1 3528 10c1
00000270: 8b09 10c1 cb14 10c1 59eb 0fc1 a420 10c1
00000280: 4503 10c1 610f 10c1 950d 10c1 1df6 0fc1
00000290: 97f4 0fc1 2909 10c1 34e0 0fc1 82f1 0fc1
000002a0: b1df 0fc1 c741 10c1 1107 10c1 b2f9 0fc1
000002b0: 72de 0fc1 8de3 0fc1 60d6 0fc1 fafb 0fc1
000002c0: 9101 10c1 9d3b 10c1 bed3 0fc1 4409 10c1
000002d0: 4b1c 10c1 6df2 0fc1 7920 10c1 ecff 0fc1
000002e0: 43f6 0fc1 1718 10c1 3ff1 0fc1 323f 10c1
000002f0: e336 10c1 d81a 10c1 67f6 0fc1 c848 10c1
00000300: 5a21 10c1 125c 10c1 b9fa 0fc1 f227 10c1
00000310: c80c 10c1 cdd7 0fc1 d108 10c1 7959 10c1
-9.010764 -9.014257 -8.991258 -8.996341 -9.025732 -8.995278 -8.995722 -8.992562
-8.9880905 -9.02104 -8.995427 -9.01041 -8.996368 -8.995934 -9.000992 -8.986955
-9.004603 -8.989058 -8.984166 -8.9873085 -9.001717 -9.004717 -9.00589 -9.018157
-9.007072 -8.99949 -8.990853 -9.010514 -9.010072 -9.024326 -9.017527 -8.995622
-8.999993 -8.988255 -9.020309 -8.987378 -9.003894 -9.0121355 -9.007483 -9.005802
-9.000491 -8.999342 -9.005398 -9.00245 -9.000847 -8.985565 -9.02356 -8.999697
-9.027155 -8.998828 -9.009785 -9.008318 -8.9957 -8.998955 -8.998158 -8.994658
-9.004525 -9.018484 -8.979844 -8.988293 -8.985783 -9.008446 -9.001231 -8.9965
-8.999612 -8.9954815 -9.017702 -8.996078 -9.00241 -9.000622 -9.004834 -9.013034
-9.001347 -8.983611 -8.997525 -9.003071 -8.998016 -9.008627 -9.000093 -9.026367
-9.01479 -9.01744 -9.003179 -8.997659 -8.986427 -9.002284 -9.006396 -8.996609
-9.00889 -8.984248 -9.011429 -9.004136 -8.996318 -9.015019 -9.004618 -9.005405
-8.9867 -8.997795 -8.996308 -8.994759 -8.994866 -9.008895 -8.983511 -8.993189
-9.023012 -9.017965 -9.027287 -9.01415 -8.996209 -8.996015 -9.008279 -9.001272
-8.989555 -9.010329 -9.004633 -9.010413 -8.98462 -8.993567 -9.012101 -9.000858
-8.998834 -8.982879 -8.992904 -9.00625 -8.990132 -8.998793 -8.992659 -9.006937
-9.010784 -8.981992 -9.014072 -9.003393 -8.995658 -9.00783 -9.01433 -9.008867
-8.996019 -8.985829 -9.010383 -8.99491 -9.000588 -9.013442 -9.014377 -9.003295
-9.012607 -8.99927 -9.000292 -9.002475 -9.00362 -9.0030985 -9.025183 -8.981732
-9.017138 -8.980591 -9.002209 -9.009816 -9.00233 -9.005076 -8.994958 -9.007969
-9.000798 -9.003755 -9.003316 -8.997586 -8.997214 -9.002236 -8.992237 -8.996462
-8.992112 -9.016059 -9.001725 -8.998461 -8.991808 -8.993054 -8.989838 -8.999018
-9.000382 -9.014554 -8.989195 -9.002262 -9.006907 -8.996686 -9.007928 -8.999981
-8.9976225 -9.005881 -8.996398 -9.015429 -9.0134 -9.006554 -8.997657 -9.017769
-9.008142 -9.022478 -8.998712 -9.009752 -9.00312 -8.990186 -9.002152 -9.021844

bias_mu f4 [20]
00000000: 592a 963e 29e4 88bd b10e 283e 5e5f d83e
00000010: a8cb 883d 92d1 6d3e 4901 8dbd 28b8 173d
00000020: fcf2 0ebe 50a3 103f 8ca8 0c3e f66e 083e
00000030: 90da 9a3d c4b4 153c 98bb e73e cf32 efbc
00000040: 1abb 40be 34fd 853d 1807 0ebd f939 013e
0.29329184 -0.06684143 0.16411854 0.4226026 0.06679469 0.23224476 -0.06885011 0.03704086
-0.13959879 0.56499195 0.1373617 0.13323578 0.07561219 0.009137336 0.4526031 -0.029199032
-0.18821374 0.06542435 -0.034674734 0.12619771

bias_logvar f4 [20]
00000000: 59f0 0fc1 731c 10c1 87f3 0fc1 9808 10c1
00000010: 12dd 0fc1 5df9 0fc1 851f 10c1 44c1 0fc1
00000020: cb2c 10c1 edda 0fc1 d3fc 0fc1 58ec 0fc1
00000030: e016 10c1 9311 10c1 8b11 10c1 9232 10c1
00000040: 8dd8 0fc1 21f4 0fc1 2803 10c1 b6f6 0fc1
-8.996179 -9.006946 -8.996955 -9.002098 -8.991472 -8.99838 -9.007695 -8.984684
-9.010936 -8.990949 -8.999225 -8.995201 -9.005585 -9.004291 -9.004283 -9.012346
-8.990369 -8.997102 -9.000771 -8.997732

posterior_weight_variance f4 [20, 10]
00000000: f8b7 3c39 cbb2 1b39 df91 3839 3276 7039
00000010: 3a7a 3739 2891 7339 7b30 4339 4ffb 1939
00000020: 8e27 6939 e271 2039 aca2 3f39 694c 1c39
00000030: cca0 3739 728e 7039 7814 3c39 bf99 7539
00000040: d775 4139 2788 1a39 4312 6a39 48f3 2539
00000050: dc70 3e39 1131 1d39 76e1 3539 0145 6b39
00000060: fdee 3a39 4a8a 7239 5523 4439 863d 1739
00000070: d415 6439 2ceb 1f39 2372 3b39 70a0 1e39
00000080: a4f4 3639 b46a 7239 b479 3839 b686 7539
00000090: 0799 4139 c7fe 1639 62ae 6439 c9ea 2239
000000a0: e1aa 3e39 480b 1e39 fbf7 3539 5904 6f39
000000b0: f119 3c39 53f7 7539 e3d7 3d39 e7e2 1839
000000c0: 3239 6039 cf0d 2439 12e7 3c39 18a0 1c39
000000d0: 45be 3739 e0d5 6f39 379c 3c39 efb6 7339
000000e0: 7c79 4139 250a 1639 9017 6b39 ddc8 2539
000000f0: bb7e 4139 ff9a 1c39 7dba 3639 016d 7039
00000100: fd57 3c39 f987 7339 27f1 3e39 c872 1939
00000110: dbd7 6539 e6c0 2339 9cd9 3d39 cee3 1b39
00000120: 0ab8 3639 fe89 7339 6bba 3c39 64ac 7139
00000130: f3bc 4239 6287 1739 855f 6639 5d97 1f39
00000140: 2df7 3b39 8235 1b39 7860 3639 f525 7039
00000150: 2bd5 3e39 5add 7139 0a1e 4139 c25b 1939
00000160: 1a5b 6439 e774 2639 9f97 3c39 0d49 1d39
00000170: e7a0 3739 d502 6c39 3365 3b39 081e 7139
00000180: 70f4 4439 8a2d 1939 183f 6739 60b7 2439
00000190: f8bd 3f39 6b89 1c39 baff 3939 5a3a 7139
000001a0: a6fd 3739 691a 6e39 ff1f 3d39 9db1 1639
000001b0: ea44 6739 8682 2439 7830 3d39 20bc 1d39
000001c0: 42e0 3839 c01e 6d39 2166 3b39 c9e7 6f39
000001d0: 245e 4539 33d3 1939 78a2 6339 f3b6 2339
000001e0: fbfb 3e39 9ba9 2039 b843 3839 5516 6e39
000001f0: e720 3e39 89b5 7239 36c9 4339 51c8 1739
00000200: 4fed 6339 20d5 2639 241a 3c39 4d66 1d39
00000210: 9cc1 3739 eeb7 6d39 ac95 3939 6048 7039
00000220: 7a22 4339 2905 1b39 f603 6439 21b3 2439
00000230: ffa5 3e39 05d4 1b39 0058 3439 1fcb 6e39
00000240: 8ce7 3939 e697 7239 c74b 4239 4076 1839
00000250: df8f 6539 0b5b 2339 3704 3a39 18d9 2039
00000260: e2d8 3339 8946 7439 71d8 3b39 7a11 7039
00000270: 6ae6 4139 a011 1839 3491 6739 078e 2239
00000280: 199c 3e39 d657 1d39 3259 3639 b628 7039
00000290: 18c9 3c39 a8e8 7139 23de 4339 ae62 1939
000002a0: 0f39 6839 533f 2139 856e 3e39 6a2d 1e39
000002b0: 7775 3839 f73f 7139 b630 3e39 3eab 7239
000002c0: 5148 4239 13a3 1639 d2e5 6839 0e81 2339
000002d0: 9172 3d39 5376 1e39 c182 3539 5a96 6f39
000002e0: 44b5 3c39 a4fe 7039 fc0e 4339 ad7f 1639
000002f0: f753 6339 eac8 2239 9737 3f39 0e27 1b39
00000300: 9179 3539 e542 6a39 ad80 3c39 b711 7039
00000310: 24bf 4139 d358 1a39 35e6 6539 d150 2039
0.00017997611 0.00014848557 0.00017601949 0.00022932215 0.00017497773 0.00023228361 0.0001861471 0.00014684837
0.00022235347 0.00015301214 0.0001827578 0.00014905784 0.00017512141 0.00022941249 0.00017936702 0.00023422296
0.00018449813 0.00014737305 0.00022322782 0.00015826256 0.00018161855 0.00014990965 0.00017345496 0.00022437052
0.00017827372 0.00023130435 0.00018705179 0.00014423401 0.00021751906 0.0001525103 0.00017876229 0.00015127822
0.00017448008 0.00023118668 0.00017592945 0.00023415204 0.00018462921 0.00014400027 0.00021808737 0.00015536988
0.0001818347 0.00015072257 0.00017353885 0.00022794436 0.00017938741 0.00023457156 0.00018104869 0.00014580377
0.00021383612 0.00015645403 0.00018015158 0.00014936959 0.00017523121 0.00022872491 0.00017987272 0.00023242434
0.00018451171 0.00014308894 0.00022420124 0.00015810454 0.00018453125 0.0001493506 0.00017426345 0.0002292879
0.00017961855 0.0002322494 0.00018209648 0.00014633976 0.00021919554 0.00015616752 0.0001810551 0.00014866816
0.00017425432 0.00023225692 0.00017998523 0.00023047772 0.00018571671 0.00014450916 0.00021970093 0.00015219809
0.0001792579 0.00014801885 0.0001739281 0.00022902324 0.00018199223 0.00023066011 0.00018417105 0.000146254
0.00021777712 0.00015874543 0.0001798556 0.000149999 0.00017512181 0.00022507769 0.0001787141 0.00022994739
0.00018783077 0.00014608182 0.00022053381 0.00015708571 0.00018285948 0.00014928512 0.0001773824 0.00023005289
0.00017546731 0.00022707287 0.00018036364 0.00014371281 0.00022055549 0.00015688883 0.000180425 0.00015042769
0.0001763115 0.00022613537 0.00017871756 0.00022879163 0.00018822454 0.00014669895 0.00021708931 0.00015613045
0.00018213682 0.00015321972 0.00017572835 0.00022705768 0.00018132069 0.00023146546 0.00018671606 0.00014475106
0.00021736811 0.00015910389 0.00017938815 0.00015010797 0.00017524365 0.000226706 0.00017698732 0.00022915145
0.00018609493 0.00014783874 0.0002174525 0.0001570699 0.0001818165 0.00014860935 0.0001719892 0.00022773117
0.00017729233 0.00023135505 0.00018529511 0.00014539901 0.00021892738 0.00015578808 0.00017739912 0.00015339663
0.00017151565 0.0002329593 0.0001791434 0.00022894694 0.0001849175 0.00014502415 0.00022083969 0.00015502433
0.00018177963 0.00015005408 0.000173901 0.0002290335 0.0001800399 0.00023070222 0.00018679402 0.00014627978
0.000221465 0.00015377747 0.00018160984 0.00015084972 0.00017591366 0.0002300738 0.00018137958 0.00023142711
0.00018528222 0.00014365865 0.00022210859 0.00015592968 0.00018067124 0.00015112133 0.00017310215 0.00022848826
0.00017996604 0.00022983045 0.00018602231 0.00014352678 0.00021679686 0.0001552437 0.00018235888 0.00014796501
0.00017306792 0.00022340899 0.00017977013 0.00022894783 0.0001847712 0.00014719674 0.000219249 0.00015288896

posterior_weight_mean f4 [20, 10]
00000000: 6f79 983e 00fe 5f3e 972f 6ebf fe4c 20bf
00000010: 4c9f 7bbd 8eec 253f e95c 1d3f 14c1 c33e
00000020: ce02 03be 48dc a5be 89c5 a2be 5d5c 4c3e
00000030: 6421 64bf 55d8 093e 29c4 483f 0a8c c63e
00000040: 39b3 933e e752 6bbf 5d44 183e 13f0 df3e
00000050: 2d14 5cbf 82e8 a23e bf7f c03e 601e 453e
00000060: 1a8a 44be 9b14 41be cdf3 dd3d 6f67 043e
00000070: 7b15 9fbc 7c00 b13e c39b a5bd 17b6 d23d
00000080: fdd1 8ebe 9f64 583f 5c98 403e 5cf5 f3bf
00000090: 7c5d 9ebe fa0a b9bd 5650 373f 1863 64bf
000000a0: 3e90 a63e 35ae 35bf 7bf0 2d3d 2cc8 d2bf
000000b0: 83c6 8abe e694 dcbf 912d a1bf 5ea4 9f3e
000000c0: 0fa5 d33e e184 3abf 3451 8f3d ffa5 7d3d
000000d0: c154 ac3e 02ef 403f 20ec 0c3f 21d2 bb3d
000000e0: e3a5 4f3b 5a84 af3d e4be 5f3f c1dc bcbc
000000f0: e32a 11bf b841 de3d b05a 8a3d 32fc 51bf
00000100: a607 7e3f d84c b6bf 7dc7 d5bd 8172 503f
00000110: 1062 233f 14d9 1d3e 9386 753f 184f ab3e
00000120: 0bfa 81bf 0a97 18be 5e11 d03e c413 7f3e
00000130: b1e2 e7bd f41d f3be 0821 7ebe 7763 da3d
00000140: f6cf 3f3f 3d85 2e3f 4a1e 17bf 713a 61bf
00000150: 95fc f8bd 4329 db3e 076c 253f d9aa 50be
00000160: 6a70 a5be 02db d3bd 79f5 dd3c 297e 083f
00000170: d1f7 a1bd 1cf1 0abf 85c7 00bf abf2 793f
00000180: 044a 78be 880d bdbe 64e8 2dbe fcc2 f7bd
00000190: 183e 183e fc2c bfbe 94f2 10bf 3859 8dbf
000001a0: 7d6b 91bf 98b4 1e3f 2bcc 26bf 0a3f de3e
000001b0: 9932 af3d 9db4 48be e6a2 e0be 2e21 ce3e
000001c0: c6aa bebe 25a1 fa3e bd1e 6c3f 801a 70be
000001d0: 638a 103f e2e7 e2bc bc36 933f 7023 ea3d
000001e0: f457 c93e d5c6 b5be 5783 58bf face 943b
000001f0: fd08 cb3e 4c25 ee3d 8f6c d4be dab7 31be
00000200: ba76 2ebf 6b67 9db9 5ca0 59bf 4da3 903e
00000210: ce08 44bf 6650 673f 7f33 0dbf b808 64bf
00000220: 34db 54bf 2c38 0a3e 478c b43e 68f2 513f
00000230: f938 78be 63a1 033f 177d c5be eb26 d73e
00000240: a005 073f b075 303e 26a6 7ebe 9909 8dbe
00000250: a438 69be 1f18 453f 7ad3 32be d665 ef3e
00000260: 77b4 eabe ce23 24bd 846d 93be 82b0 c6bf
00000270: 249e 25be 01fc 0c3f 73de 773f 36a9 1f3e
00000280: 04b5 d9be e0ea a93e a47e 5bbe 51f6 0e3d
00000290: bc4c 4ebe 5537 01c0 a79b 9f3e 728d 1cbf
000002a0: 37c1 2f3f 3ccf eabe 3db4 5e3e 58d7 513e
000002b0: 4c46 3b3e ed70 423c 9ed4 523f 2d04 a8bf
000002c0: a03c 2abf 27c7 343f 1816 8e3e 692a 9ebf
000002d0: 1713 7abe fc84 143f 1259 d4be 58ab 0f3f
000002e0: 7718 47bd 0f5a a5bd 8477 313f 2e08 76bd
000002f0: 1f33 853e 891e b13d 6d8e 703f 1701 4ebe
00000300: 2604 2b3f a877 61bf fea6 0bbd acf2 523f
00000310: 29d2 cbbd ac5b 843e 02e7 77be 695b 963e
0.29780146 0.21874237 -0.93041366 -0.6261748 -0.061431214 0.6481408 0.61469895 0.38233244
-0.12794039 -0.32394624 -0.31791332 0.19957109 -0.8911345 0.1346143 0.78424317 0.38778716
0.28847674 -0.91923374 0.14869829 0.4373785 -0.85968286 0.31818014 0.37597463 0.19249868
-0.19193307 -0.18855517 0.10837517 0.12930082 -0.019419422 0.34570682 -0.0808635 0.10288637
-0.27894583 0.84528536 0.1880812 -1.9059253 -0.30930698 -0.09035297 0.7160696 -0.89213705
0.32531923 -0.70968944 0.04246567 -1.6467338 -0.27104577 -1.723294 -1.2592031 0.3118009
0.41336867 -0.7285901 0.0699791 0.061925884 0.33658412 0.75364697 0.550478 0.09170938
0.003168457 0.08570166 0.8740065 -0.023054482 -0.56706065 0.108523786 0.067555785 -0.82025445
0.9923042 -1.4242201 -0.1043844 0.8142472 0.63821507 0.1541484 0.9590847 0.3345878
-1.0154432 -0.14901367 0.4063825 0.24909884 -0.11322535 -0.4748379 -0.24817288 0.10663503
0.749267 0.68172055 -0.5903059 -0.879798 -0.12157551 0.42804918 0.6461796 -0.20377673
-0.32312328 -0.10344507 0.02709459 0.53317505 -0.07908595 -0.54274154 -0.5030444 0.97635907
-0.24246985 -0.36924386 -0.16983181 -0.12097737 0.14867437 -0.37339008 -0.56620145 -1.1042852
-1.1360928 0.61994314 -0.65155286 0.4340747 0.085545726 -0.19600148 -0.43874282 0.4025969
-0.37239665 0.4895107 0.922344 -0.23447609 0.5646116 -0.027698461 1.1501079 0.114325404
0.39324915 -0.3550326 -0.8457541 0.004541275 0.39655295 0.116282076 -0.41489074 -0.1735529
-0.6814991 -0.00030022426 -0.85010314 0.2824959 -0.76575935 0.90357053 -0.551567 -0.89075804
-0.8314698 0.1349799 0.35263273 0.8201051 -0.24240483 0.5141813 -0.38571998 0.4202188
0.5274296 0.17232394 -0.24868068 -0.27546385 -0.22775513 0.7698993 -0.17463484 0.46757382
-0.4584081 -0.04007321 -0.2879449 -1.5522616 -0.16173607 0.5507203 0.96823806 0.15591893
-0.42520916 0.33187008 -0.21435028 0.034902874 -0.2014646 -2.0190022 0.3117344 -0.6115333
0.686542 -0.45861232 0.21748443 0.20492303 0.18288535 0.011867744 0.8235568 -1.3126274
-0.66498756 0.7061638 0.2775123 -1.2356693 -0.24421345 0.5801542 -0.41474205 0.56120825
-0.048607316 -0.08073818 0.6932299 -0.060066395 0.26015565 0.08648402 0.93967324 -0.20117603
0.66803205 -0.88073206 -0.034094803 0.8240154 -0.09952194 0.2585119 -0.24209216 0.29366615

dropout_mu f4 [20]
00000000: 1872 c73f 1e7d b23f 1fc1 d93f 4584 ed3f
00000010: fecb 9e3f 8718 e33f 3786 c73f 3944 a93f
00000020: a3d6 bc3f c0d9 0140 61c2 dd3f e673 1040
00000030: 31f2 d53f 8930 753f 3a0b cb3f e624 933f
00000040: cbc4 4a3f c968 e93f 17c1 943f 11ef 2440
1.5581694 1.3944433 1.7012061 1.855599 1.2406003 1.774186 1.5587834 1.3223945
1.4753002 2.0289154 1.7324945 2.2570739 1.6714536 0.95777184 1.5862801 1.1495636
0.7920653 1.8235103 1.1621426 2.5770915

dropout_logvar f4 [20]
00000000: 9adf 0fc1 d108 10c1 28ea 0fc1 5bf9 0fc1
00000010: 9de2 0fc1 913d 10c1 b92a 10c1 0a02 10c1
00000020: 0404 10c1 c65a 10c1 171a 10c1 e535 10c1
00000030: 3afa 0fc1 8de6 0fc1 0747 10c1 7342 10c1
00000040: b4eb 0fc1 d01f 10c1 8d1b 10c1 352f 10c1
-8.99209 -9.002152 -8.994667 -8.998378 -8.9928255 -9.015031 -9.01043 -9.000498
-9.00098 -9.0221615 -9.00637 -9.013158 -8.99859 -8.993787 -9.017341 -9.016223
-8.995045 -9.007767 -9.006726 -9.011525

weight_mu f4 [5, 20]
00000000: f13d 8ebe 924f 64be f0df b1be 770c 95be
00000010: 3dd8 6fbe eba9 60bf f7b2 03be 1f2f 01bf
00000020: 150f 27bf 8a22 50bf 8bc4 49bf 82cf d1bf
00000030: 8a52 28bf 1322 e23d 4c8e 50bf dcfc 5cbe
00000040: e44f 4e3d 255d 263f cc8e ffbd 1c6b 773f
00000050: a8ae babd 813e 433e 7b66 b53b 554d 613f
00000060: a529 4e3f ebb7 483e 036e 61be 4513 15be
00000070: 3606 bb3e a4e1 603f 8d20 223f f0ab 27bf
00000080: debc 9dbd 8c37 903e 183f c73d 613d 8fbe
00000090: 4602 473e 5495 0a3f 6aaf da3d bfab ca3e
000000a0: 3831 403e d522 81be dcde dc3e 09b7 ccbd
000000b0: a778 82be 213f 4d3f 10a7 ee3e c41b 113f
000000c0: 038e 4e3e 60e2 bf3e 1391 1b3f edc8 9e3d
000000d0: 8bd7 f83e c1bc 94be ec4b b83e 9db9 0f3e
000000e0: 52e1 293c a54c 833e d548 c53e 514f 45bd
000000f0: 6d3e 90bd 047d e53e f2a7 0b3f c825 4c3e
00000100: e866 75bd 57cd 0abd 0267 ef3d 7615 bd3e
00000110: 86f8 e03d 9b82 563e b071 1ebf f2a0 033f
00000120: 5f9a 813d b2f3 75be 867d 8b3e b5b0 bbbe
00000130: adc1 663e acb9 19bd caab afbe 0d47 71bf
00000140: d88e 78bf 98a8 51bf e775 17bf 2444 1bbf
00000150: 1671 153e ef60 ffbe f80c 4fbf c1b8 1c3c
00000160: a3b3 4bbf 6ee4 adbf 8c56 76bf 1ca5 243f
00000170: ab6e 06bf 0402 ebbd 9c96 cabe e8a9 fdbe
00000180: 1bbb 19be ff4c aebf fb8b e1bd d77b e6bf
-0.27781633 -0.22295979 -0.34741163 -0.29111072 -0.23422332 -0.87759274 -0.12861238 -0.50462526
-0.6525739 -0.813027 -0.78815526 -1.6391451 -0.65750945 0.110416554 -0.8146713 -0.21580833
0.05036916 0.6498588 -0.12478408 0.9664781 -0.09115344 0.19066812 0.0055358983 0.88008624
0.80532295 0.19601409 -0.22014622 -0.14558132 0.36528176 0.878443 0.6333092 -0.6549673
-0.07702039 0.2816738 0.09728831 -0.27976516 0.19434461 0.54134107 0.10677989 0.39584157
0.18768775 -0.25221887 0.43138778 -0.09995849 -0.25482675 0.8017445 0.46611834 0.5668299
0.2017136 0.37477398 0.6076824 0.07753167 0.48601946 -0.29050258 0.35995424 0.1403565
0.010368662 0.25644413 0.3853213 -0.048171345 -0.07043157 0.44821942 0.5455314 0.19936287
-0.059912592 -0.033887234 0.11689569 0.36930436 0.10984902 0.2094826 -0.61892223 0.5141746
0.06328272 -0.24018744 0.27244204 -0.36658254 0.22534819 -0.037530586 -0.34310752 -0.9424904
-0.9709296 -0.8189788 -0.5916428 -0.6065085 0.1459392 -0.49878642 -0.80879164 0.009565533
-0.7957098 -1.3585336 -0.9622581 0.64314437 -0.52512616 -0.11474994 -0.3956803 -0.4954369
-0.15012781 -1.3617247 -0.11013027 -1.8006543

weight_logvar f4 [5, 20]
00000000: a22c 10c1 d342 10c1 46db 0fc1 abfe 0fc1
00000010: a948 10c1 d1fa 0fc1 4718 10c1 0e16 10c1
00000020: b21e 10c1 370f 10c1 1338 10c1 302e 10c1
00000030: 911d 10c1 5512 10c1 aae6 0fc1 3be3 0fc1
00000040: dc2a 10c1 a5f3 0fc1 f2dc 0fc1 684e 10c1
00000050: 0fc3 0fc1 42d2 0fc1 a801 10c1 6bfc 0fc1
00000060: 8df3 0fc1 98e9 0fc1 0028 10c1 19cc 0fc1
00000070: eb18 10c1 40e8 0fc1 e5d8 0fc1 b531 10c1
00000080: 75ee 0fc1 10e4 0fc1 8ffa 0fc1 6204 10c1
00000090: 7cf6 0fc1 faf3 0fc1 fc3c 10c1 7b37 10c1
000000a0: 4c3d 10c1 3de0 0fc1 06f0 0fc1 9543 10c1
000000b0: 0433 10c1 2a0e 10c1 f001 10c1 58fd 0fc1
000000c0: 5c26 10c1 18f8 0fc1 9701 10c1 66f0 0fc1
000000d0: 7bd2 0fc1 9a38 10c1 bf33 10c1 d906 10c1
000000e0: 6327 10c1 5d2d 10c1 64ed 0fc1 07e0 0fc1
000000f0: 1b2a 10c1 6cf4 0fc1 ddee 0fc1 6e00 10c1
00000100: f921 10c1 eaeb 0fc1 1539 10c1 380a 10c1
00000110: a4c6 0fc1 2cd9 0fc1 4ee2 0fc1 c244 10c1
00000120: 5e2b 10c1 9bd0 0fc1 55e7 0fc1 42e4 0fc1
00000130: 2a2d 10c1 24e5 0fc1 b022 10c1 d83a 10c1
00000140: 62e4 0fc1 31e5 0fc1 9cde 0fc1 8b0b 10c1
00000150: 74eb 0fc1 dac9 0fc1 0d5a 10c1 11d1 0fc1
00000160: 0703 10c1 45ef 0fc1 c919 10c1 cf04 10c1
00000170: dafc 0fc1 9f08 10c1 2af4 0fc1 50c8 0fc1
00000180: 4de5 0fc1 2016 10c1 b212 10c1 ef25 10c1
-9.010897 -9.0163145 -8.991034 -8.999675 -9.017739 -8.998734 -9.005927 -9.005384
-9.007494 -9.003715 -9.01369 -9.011276 -9.007218 -9.004476 -8.993814 -8.992976
-9.010464 -8.996984 -8.991442 -9.019142 -8.985122 -8.988832 -9.000404 -8.9991255
-8.996961 -8.99453 -9.009766 -8.987329 -9.0060835 -8.994202 -8.990453 -9.0121355
-8.995717 -8.993179 -8.998672 -9.00107 -8.997677 -8.997065 -9.014889 -9.013545
-9.014965 -8.992246 -8.996099 -9.0164995 -9.012455 -9.003458 -9.000473 -8.9993515
-9.009365 -8.99807 -9.000388 -8.996191 -8.988887 -9.013819 -9.012633 -9.001672
-9.009616 -9.011075 -8.995457 -8.992194 -9.01028 -8.997173 -8.995816 -9.000105
-9.008294 -8.995096 -9.013936 -9.002495 -8.985996 -8.9905205 -8.99275 -9.016787
-9.010588 -8.988429 -8.993978 -8.993227 -9.011026 -8.993443 -9.008469 -9.014366
-8.9932575 -8.993455 -8.991848 -9.002818 -8.994984 -8.98678 -9.021985 -8.988542
-9.000739 -8.995915 -9.006295 -9.001174 -8.999231 -9.002105 -8.99711 -8.986404
-8.993482 -9.005402 -9.004564 -9.009261

bias_mu f4 [5]
00000000: 7a7b 81bd 4125 b73d 0297 223e 7ebc dc3c
00000010: c250 43be
-0.063223794 0.089426525 0.15877917 0.026945349 -0.19073775

bias_logvar f4 [5]
00000000: 833b 10c1 bec4 0fc1 96e7 0fc1 152e 10c1
00000010: ace4 0fc1
-9.014529 -8.985533 -8.99404 -9.0112505 -8.993328

posterior_weight_variance f4 [5, 20]
00000000: 6663 9b39 728d 7739 4af1 bc39 f0db de39
00000010: 05aa 4339 ffed cb39 f848 9c39 0615 6139
00000020: f5c6 8b39 a5ae 043a 1292 bf39 b8f8 223a
00000030: 3d77 b339 4f5a ec38 23d3 a339 b736 2c39
00000040: abad a038 f9cc d739 e445 3039 6ac9 523a
00000050: e571 9f39 2c73 7e39 e72d bb39 b2fc de39
00000060: 29c8 4739 7ec8 cc39 c0af 9b39 e72d 6539
00000070: def8 8b39 6bf3 053a 9112 c439 a2d2 223a
00000080: d289 b539 3c0a ef38 9e06 a339 76d3 2a39
00000090: 4fbf a238 3cc8 d739 1e30 2c39 84f7 533a
000000a0: cec1 9a39 5695 7d39 03fd bb39 ee23 db39
000000b0: 74b3 4439 baf7 ca39 2f24 9d39 f971 6239
000000c0: 4983 8b39 666e 053a 4422 c239 2470 253a
000000d0: d0c8 b639 3428 ea38 37c4 a039 e9b8 2a39
000000e0: 89d0 a038 3dc7 d439 9f91 2f39 648a 583a
000000f0: ce7b 9b39 ca56 7c39 e00a bc39 50c3 de39
00000100: 2a85 4539 bbaa cc39 d009 9b39 49bb 6139
00000110: aecf 8e39 2571 063a 589f c339 0d11 223a
00000120: d5db b239 6f2d f038 1ccb a339 052c 2c39
00000130: ed96 a038 1790 d839 744c 2d39 b4cb 533a
00000140: 1829 9e39 5f49 7d39 64ca bc39 7529 de39
00000150: c72a 4839 c360 ce39 e6cc 9939 b2e6 6439
00000160: e8b9 8c39 c7b9 053a aefe c039 0a9e 243a
00000170: 56e7 b439 efe9 ec38 1f48 a339 365a 2d39
00000180: 566e a338 c200 d639 95f9 2d39 90e3 543a
0.0002963796 0.00023608448 0.0003603793 0.00042507006 0.00018659986 0.00038896498 0.00029809005 0.00021465504
0.0002666038 0.00050614245 0.0003653919 0.00062168716 0.0003423038 0.00011270178 0.00031247092 0.00016423581
7.661743e-05 0.00041160712 0.00016810704 0.00080408773 0.000304117 0.00024266233 0.0003570162 0.00042531412
0.00019052684 0.0003905929 0.00029694848 0.00021856242 0.00026697566 0.00051098195 0.00037397866 0.00062111963
0.00034625694 0.000113983144 0.00031094713 0.00016291239 7.760396e-05 0.00041157182 0.00016421123 0.0008085894
0.00029517565 0.00024183592 0.00035855928 0.00041797705 0.00018758868 0.00038713013 0.00029972332 0.00021595498
0.0002660996 0.0005089998 0.00037028093 0.0006310961 0.00034863362 0.00011165478 0.0003066377 0.00016281348
7.668237e-05 0.00040584235 0.00016743549 0.0008260368 0.00029656145 0.00024064924 0.00035866257 0.0004248866
0.00018836992 0.00039037116 0.00029571215 0.00021527441 0.00027239084 0.0005128554 0.0003731202 0.00061823503
0.00034114593 0.000114525545 0.0003124111 0.00016419597 7.657507e-05 0.00041306086 0.00016527047 0.00080793654
0.00030166726 0.00024155293 0.00036008947 0.00042374028 0.00019089422 0.00039363475 0.00029335095 0.00021829715
0.00026841392 0.00051012303 0.00036810845 0.0006279653 0.00034504634 0.000112969305 0.00031143517 0.00016532172
7.792997e-05 0.00040817825 0.00016591542 0.00081210677

posterior_weight_mean f4 [5, 20]
00000000: 17a3 ddbe e92e 9fbe 024d 17bf 8d49 0abf
00000010: 94c6 94be 324c c7bf 544a 4dbe 11d5 2abf
00000020: 4976 76bf e224 d3bf dfc7 aebf 6cc7 6cc0
00000030: ebab 8cbf 7c95 d83d fc69 a5bf 190a 7ebe
00000040: a369 233d dfae 973f 507f 14be ab67 1f40
00000050: f870 11be e220 883e b64c 1a3c 0009 d13f
00000060: f7c3 7f3f 500e b23e b4b2 afbe e622 45be
00000070: 5ef5 093f f721 e43f 3471 8c3f 4039 bdbf
00000080: 5fd3 03be 8120 8a3e c507 1e3e c8a9 a4be
00000090: c7a0 1d3e 46b5 7c3f b624 fe3d 4a93 823f
000000a0: eabb 953e aa12 b4be 87df 3b3f 39ef 3dbe
000000b0: dcdc a1be a412 b63f fc00 3a3f 00e4 3f3f
000000c0: 785d 983e 92a8 423f 5cc2 863f d031 333e
000000d0: c2f6 4f3f d874 8ebe 492c 123f 9938 253e
000000e0: 628e 063c 016d ef3e d245 e53e 243e febd
000000f0: a0c1 e0bd 1601 203f 6d95 6d3f 7568 bd3e
00000100: 0f39 98bd c142 76bd 9696 3a3e 1d0b fa3e
00000110: 21f3 253e 8b9c d93e 7340 89bf 3f8c 943f
00000120: 1ca0 d83d db90 6bbe 4f45 dd3e 0bc3 d7be
00000130: 36c6 363e ea28 8cbd a227 ccbe d672 1bc0
00000140: d1a5 c1bf b22d 92bf 33d5 80bf 4e0e 90bf
00000150: c165 393e 6c8b 62bf a25f a1bf 773f 4f3c
00000160: b642 96bf 0968 30c0 c263 d5bf d4ce b93f
00000170: 85b2 60bf 7c15 e1bd 50ae 20bf 20cd 11bf
00000180: a187 f3bd 6ceb 1ec0 0c0f 03be 937e 94c0
-0.4328849 -0.31090477 -0.5910188 -0.5401848 -0.29057753 -1.5570128 -0.20047885 -0.66731364
-0.9627424 -1.6495631 -1.3654746 -3.6996717 -1.0989965 0.10575387 -1.2922969 -0.2480854
0.039895665 1.1850241 -0.14501691 2.4907024 -0.1420325 0.26587588 0.009417703 1.6330872
0.99908394 0.34776545 -0.34316027 -0.19251594 0.53890026 1.7822865 1.0972047 -1.4783096
-0.128736 0.26977924 0.15432651 -0.32160783 0.15393363 0.987141 0.12409346 1.0201199
0.2924493 -0.3517049 0.7338795 -0.18548287 -0.31613815 1.4224439 0.7265775 0.74957275
0.2975881 0.7603847 1.0528064 0.1749947 0.812359 -0.2782352 0.57098824 0.16134872
0.008212658 0.4676285 0.4477983 -0.12414196 -0.10974431 0.62501657 0.9280613 0.36993757
-0.07432758 -0.060122255 0.18221506 0.48836604 0.16206028 0.42502245 -1.0722793 1.16053
0.105774134 -0.23004477 0.4321694 -0.42140993 0.17849049 -0.06843741 -0.39873987 -2.428884
-1.5128728 -1.1420195 -1.0065063 -1.1254365 0.18105222 -0.8849399 -1.260731 0.012649409
-1.1739109 -2.7563498 -1.6671069 1.4516244 -0.877724 -0.10990426 -0.6276598 -0.5695362
-0.118911035 -2.483119 -0.12798709 -4.640451
