Activelearning/SeedModels/simple_model.pth (torch, 15071 bytes, 24 tensors)

dropout_mu f4 [4]
00000000: 510c aa3f 8647 803f 1afb a03f 7117 873f
1.3285009 1.0021827 1.257663 1.0554029

dropout_logvar f4 [4]
00000000: 2dde 0fc1 6ffb 0fc1 263f 10c1 a8b5 0fc1
-8.991742 -8.998885 -9.015417 -8.98185

weight_mu f4 [10, 4]
00000000: 9550 82bf d5da f33d b989 ca3e 11da 8f3c
00000010: 01d1 2d3f bac7 ddbd 4c69 05bf dce3 b13e
00000020: b9f6 16bd 50e4 323f 10c0 a5bf 5526 043c
00000030: b873 0b3f b005 17bf 6480 463f d100 42bf
00000040: c030 833d 95cd bbbe e74a 393f 44b9 f03c
00000050: 40d2 84bf 7e9f adbe 86cd 323e 3880 253d
00000060: 44cf 663e 17c1 67bf e1b0 a33e 752b 4d3f
00000070: 2ae5 6dbe 2a82 973e 0680 013f 1c45 fd3e
00000080: a709 a83e 0ac5 f53e 3ae7 273f 09e4 113f
00000090: 9b96 a73e 7a38 86bf e896 5e3e 0abf d1be
-1.0180842 0.11906973 0.395582 0.017560037 0.6789704 -0.108291104 -0.52113795 0.34744155
-0.036856387 0.6987963 -1.2949238 0.00806578 0.5447345 -0.58993053 0.7753966 -0.75782496
0.06405783 -0.36680284 0.72379917 0.029385217 -1.0376663 -0.33910745 0.17461213 0.040405482
0.22540003 -0.90529007 0.31970885 0.80144435 -0.2323195 0.29591495 0.50585973 0.4946679
0.32819864 0.4800189 0.655872 0.5698858 0.3273209 -1.0485985 0.21737254 -0.40966064

weight_logvar f4 [10, 4]
00000000: ec66 0fc1 d70c 10c1 672c 10c1 82d1 0fc1
00000010: 2f36 10c1 3be2 0fc1 8de0 0fc1 7d01 10c1
00000020: 0115 10c1 26c7 0fc1 97f4 0fc1 48e9 0fc1
00000030: 41ec 0fc1 a714 10c1 61ef 0fc1 bd06 10c1
00000040: 686a 10c1 d701 10c1 4f1f 10c1 ce13 10c1
00000050: 1d1e 10c1 71e6 0fc1 ce9e 0fc1 76ca 0fc1
00000060: b8fd 0fc1 98f5 0fc1 4ad6 0fc1 6003 10c1
00000070: 3d03 10c1 8f08 10c1 1a0e 10c1 b0b5 0fc1
00000080: 3b34 10c1 d143 10c1 db03 10c1 ff38 10c1
00000090: 560c 10c1 1af0 0fc1 69e4 0fc1 4c5c 10c1
-8.962627 -9.003135 -9.01084 -8.988649 -9.013228 -8.992732 -8.992322 -9.000363
-9.005128 -8.98612 -8.997214 -8.994453 -8.995179 -9.005042 -8.995942 -9.001645
-9.025978 -9.000449 -9.007644 -9.004835 -9.007352 -8.99376 -8.976271 -8.986929
-8.999443 -8.997459 -8.989817 -9.000824 -9.000791 -9.0020895 -9.003443 -8.981857
-9.012752 -9.016557 -9.000941 -9.013915 -9.003012 -8.996119 -8.993264 -9.022533

bias_mu f4 [10]
00000000: a8fb 2d3d 1e1c 283e 35b9 0d3e 7143 a23e
00000010: 00d1 e83d 6f51 113e 05e4 a63e b140 53be
00000020: d253 053f 4290 83bb
0.042476326 0.16416976 0.13840182 0.3169208 0.113679886 0.1419122 0.3259584 -0.20630147
0.52081025 -0.0040149996

bias_logvar f4 [10]
00000000: 2530 10c1 3ce2 0fc1 eee4 0fc1 e715 10c1
00000010: 932a 10c1 9cec 0fc1 272a 10c1 69ee 0fc1
00000020: 6d4a 10c1 5bdf 0fc1
-9.011754 -8.992733 -8.993391 -9.005347 -9.010394 -8.995266 -9.010291 -8.995706
-9.01817 -8.99203

posterior_weight_variance f4 [10, 4]
00000000: 2d1a 6d39 4390 0139 167a 4a39 33c9 1139
00000010: dd64 6139 18eb 0239 6243 4e39 1317 1039
00000020: 4738 6339 66cb 0339 5b47 4d39 36f1 1039
00000030: 197f 6539 6c52 0139 e785 4d39 b6e9 0f39
00000040: 0888 5e39 f4e9 0139 8421 4b39 ff71 0f39
00000050: 76bb 6239 14c9 0239 c998 5139 7909 1239
00000060: 1c84 6439 5850 0239 25c7 4e39 4208 1039
00000070: 5735 6439 40b3 0139 5afb 4b39 97c8 1239
00000080: f27e 6139 d8ad ff38 d87e 4c39 6627 0e39
00000090: f1b3 6339 417e 0239 be10 4e39 7aee 0c39
0.00022611833 0.0001235614 0.00019309702 0.0001390323 0.00021495247 0.00012485345 0.00019670793 0.00013741506
0.00021669372 0.00012568905 0.00019576905 0.00013822768 0.0002188649 0.00012333103 0.00019600206 0.00013724607
0.00021222245 0.00012389553 0.00019372074 0.0001368001 0.00021622874 0.00012472674 0.0001998871 0.00013927174
0.00021792989 0.00012427696 0.00019719878 0.00013735986 0.00021763645 0.00012369175 0.00019453224 0.0001399837
0.00021504963 0.000121917285 0.00019502209 0.00013556852 0.0002171544 0.000124448 0.00019651928 0.0001344028

posterior_weight_mean f4 [10, 4]
00000000: 901f adbf 1863 f43d 7ab9 fe3e 56d2 973c
00000010: 4fea 663f a743 debd 57c9 27bf e6be bb3e
00000020: 348e 48bd 4648 333f 3c75 d0bf a178 0b3c
00000030: 1b43 393f 135a 17bf e5a5 793f 64c0 4cbf
00000040: 5f49 ae3d 8636 bcbe 1f09 693f 7c0f fe3c
00000050: 0574 b0bf 8200 aebe abdf 603e 8aab 2e3d
00000060: be50 993e 9742 68bf 37de cd3e 6889 583f
00000070: a005 9ebe d3d6 973e 13de 223f a3a6 053f
00000080: fd3c df3e 5f4e f63e 6a2a 533f 39f9 193f
00000090: 26a4 de3e 7a83 86bf a6f8 8b3e e65d ddbe
-1.3525257 0.11932963 0.49750882 0.018532913 0.90201277 -0.108527474 -0.65541595 0.3666908
-0.04896374 0.70032156 -1.6285777 0.008512647 0.7236802 -0.5912182 0.9751876 -0.79981065
0.08510088 -0.36760348 0.9102954 0.031013243 -1.3785406 -0.33984762 0.21960323 0.04264406
0.29944414 -0.9072661 0.402086 0.84584665 -0.30863667 0.29656085 0.6362011 0.5220739
0.43601218 0.48106667 0.82486594 0.6014591 0.4348461 -1.0508873 0.2733814 -0.432357

dropout_mu f4 [10]
00000000: 65e9 973f 6e0d 8b3f f1d4 983f 0fa3 9e3f
00000010: 6def 913f bc73 a73f 185e 9b3f c61d 723f
00000020: 588a a73f ae32 753f
1.1868101 1.0863473 1.1939985 1.2393512 1.1401192 1.3082194 1.213809 0.9457668
1.3089094 0.95780456

dropout_logvar f4 [10]
00000000: 61ec 0fc1 5d22 10c1 8716 10c1 d419 10c1
00000010: e22a 10c1 843a 10c1 c4e2 0fc1 eb01 10c1
00000020: f4e4 0fc1 01ee 0fc1
-8.99521 -9.008389 -9.0055 -9.006306 -9.010469 -9.014286 -8.992863 -9.000468
-8.993397 -8.995606

weight_mu f4 [20, 10]
00000000: 088d da3d a36e 423c a8cb 06bf f679 26be
00000010: 8953 e63c c274 c83d 142c 4c3e 3b7b ea3e
00000020: b56c 313e 0dab 2a3d e58b 2bbe 4942 ab3e
00000030: c814 18bf 7205 0bbe bf78 cd3e 7e37 bc3d
00000040: fd4c b73c 115d 03bf d195 0fbe 3632 7b3e
00000050: 4aa0 f5be 9f20 d73e 1fe2 8a3e 1640 103e
00000060: 4e14 3abe ab49 a43d bc4e 673e 91ec 1c3e
00000070: 14d9 6c3d ed13 b03e 4268 61be ca21 cebe
00000080: e263 bbbe 3f0e de3e 577c 233e 535d 54bf
00000090: 6e7e 2a3e e6f7 973d 0ba0 f63e d5ba febe
000000a0: f219 1fbe 479e 2fbf 34b9 20be 18a6 87bf
000000b0: 21c8 29be 4d1c 4abf 7f6e 2bbf 6ac3 7c3e
000000c0: 4b4a cf3c 2198 c2be 697d 163e 3a03 ec3d
000000d0: f811 5c3e 9a89 083f 6c84 ce3e f4bf 333e
000000e0: 5187 263d 2f68 233d 0dc1 353f 6033 7dbc
000000f0: 893a a3be b9da de3d 3b16 77bd f01b 09bf
00000100: fa80 2f3f d989 79be 2df9 69be 6655 f33e
00000110: 0771 703e 7138 1ebc 0e0d 1c3f a473 b13e
00000120: c8f2 0ebf 4386 bbbd 53d7 973e f08a 8bbd
00000130: d3c3 d5bd 094e cabe e1af 2c3d fc63 943e
00000140: 7d32 cc3e 7ecb 0b3f 1d4b 88be 77ac a0be
00000150: 2dbe 2abe 3ef4 a53d ad5c af3e 405a 3ebe
00000160: 745b 95be 906f ab3d f409 00bd 8c33 cb3e
00000170: 3e34 a8b9 6ef5 0abe d061 17be b5b2 073f
00000180: aaa8 9bbd 62ff d0bd a5c9 053c e2bf 18be
00000190: 8c10 18be ca1e 9ebe 522d 0cbf 15c8 dfbe
000001a0: cc45 39bf 7978 193e 5f34 b6be bc0d a73e
000001b0: 16ef 1dbe c8e2 8c3d 18a6 a7be 62ed b83e
000001c0: 1660 babe 176f d53e 4018 483f 0857 f8bd
000001d0: a4e1 083f cea8 09bc 3812 583f 4d06 3b3e
000001e0: e848 753e 0bc2 3dbe 4d6d 0ebf 9108 0e3e
000001f0: 988b c53e 2a6f f4bc 28b6 72be 6ce6 b3bd
00000200: 5de8 abbe 7229 7c3e 4581 1abf d47b 00bd
00000210: b388 31bf 059f f23e 1b22 debe ead2 cabe
00000220: a613 1ebf 2186 3f3e f06c 9dbd c81a 3f3f
00000230: 6cef 85bb ca71 173f 65c0 b1be 2bfb 5a3e
00000240: 9c33 9d3e 133c 0e3e e73a 80be 0ccf b63d
00000250: 25e2 0cbe d851 213f bc33 dcbd dd7d b63e
00000260: d36f f7be 147a fcbd 0916 2fbe dc75 aabe
00000270: 55a5 84bd 0486 dc3e 9816 113f c56d ac3d
00000280: 06a9 31bf 66f5 973d a99a cbbe eb20 94be
00000290: e327 00be e4b8 4bbf c1a3 753e 00b7 c9be
000002a0: 0b66 823e d6fc d8be 0a67 7cbd b873 42be
000002b0: 21e1 693d d9f1 80be a8bf e93e 88a6 87be
000002c0: a469 b8be 2746 a23e 7661 b43c 2728 5dbf
000002d0: 8923 00be 0844 e13e b370 a2be e4e3 9d3e
000002e0: 1c17 713c ed88 eebd 9012 e03e ed89 9b3d
000002f0: 06ea 8f3e f992 9d3d c211 4d3f 8ae5 c8bd
00000300: 2853 183f 2d6d 17bf 895e d13c cf70 2c3f
00000310: 2bbc 07be 9820 3e3e 1930 46be 7173 573d
0.10671431 0.011867198 -0.52654505 -0.16257462 0.028116005 0.09787895 0.1993869 0.45797142
0.17326625 0.041667033 -0.16752584 0.3344901 -0.5940671 -0.13576296 0.40131184 0.09190272
0.022375578 -0.51313883 -0.14021994 0.24530873 -0.47973853 0.42017075 0.27125642 0.14086947
-0.18171808 0.080218635 0.22588629 0.15324618 0.05782421 0.34390202 -0.22012427 -0.40260154
-0.36599642 0.43370244 0.159654 -0.829549 0.16649792 0.0742033 0.48168978 -0.49751917
-0.15537241 -0.6860089 -0.1569565 -1.0597563 -0.1658025 -0.78949434 -0.6696548 0.2468392
0.02530398 -0.3800669 0.14696278 0.11524053 0.2149123 0.53334963 0.40335405 0.17553693
0.04065639 0.03989428 0.709977 -0.015454143 -0.31880596 0.10881562 -0.060323935 -0.53558254
0.6855618 -0.24368991 -0.2284896 0.4752609 0.23480617 -0.009657011 0.6095742 0.3465854
-0.55839205 -0.09156468 0.29656467 -0.068136096 -0.10437741 -0.3951266 0.04215992 0.28982532
0.3988227 0.5460738 -0.26619807 -0.3138158 -0.16674109 0.08103226 0.34250394 -0.18589115
-0.29171336 0.08370888 -0.031259492 0.39687765 -0.0003208238 -0.13570186 -0.14783406 0.5300706
-0.076005295 -0.102049604 0.008165752 -0.14916947 -0.14850062 -0.30882865 -0.54756653 -0.43707338
-0.72372127 0.14987363 -0.3558683 0.32627666 -0.15423235 0.068791926 -0.32743907 0.3611861
-0.36401433 0.41686317 0.78162 -0.12125975 0.534693 -0.008402063 0.844028 0.18264122
0.23953593 -0.18531053 -0.5563553 0.13870455 0.38583064 -0.029838163 -0.237023 -0.08784184
-0.33575717 0.24625185 -0.603535 -0.03136809 -0.6934921 0.47386947 -0.43385395 -0.3961404
-0.6174873 0.1870351 -0.07686794 0.7465024 -0.004087379 0.59158003 -0.34717098 0.21384875
0.30703437 0.13890104 -0.2504494 0.0892621 -0.13758142 0.6301551 -0.10752055 0.356429
-0.48327503 -0.12327972 -0.1709825 -0.33293045 -0.06476847 0.43070996 0.566751 0.084193744
-0.69398534 0.07419853 -0.39766434 -0.28931364 -0.12515216 -0.79578996 0.23988248 -0.3939743
0.25468478 -0.423804 -0.061621703 -0.18989456 0.057099465 -0.25184515 0.45654035 -0.2649424
-0.36018097 0.31694147 0.02201913 -0.8638939 -0.12513556 0.43997216 -0.31726608 0.3083793
0.014714982 -0.1164721 0.43764162 0.07594667 0.28108233 0.076940484 0.8010522 -0.09809406
0.59501886 -0.59150964 0.025557773 0.6735963 -0.13255374 0.18567121 -0.19354285 0.052600328

weight_logvar f4 [20, 10]
00000000: 172c 10c1 663a 10c1 31dc 0fc1 03f1 0fc1
00000010: 6669 10c1 a9ec 0fc1 7aee 0fc1 89e1 0fc1
00000020: 38cf 0fc1 2e56 10c1 45ed 0fc1 a42a 10c1
00000030: 20f1 0fc1 58ef 0fc1 1004 10c1 91ca 0fc1
00000040: db12 10c1 2ed3 0fc1 25bf 0fc1 04cc 0fc1
00000050: 0807 10c1 5213 10c1 2018 10c1 5f4a 10c1
00000060: f81c 10c1 e9fd 0fc1 89da 0fc1 112b 10c1
00000070: 4129 10c1 a463 10c1 ca47 10c1 11ee 0fc1
00000080: f9ff 0fc1 e4cf 0fc1 3053 10c1 4dcc 0fc1
00000090: f30f 10c1 b531 10c1 a61e 10c1 c417 10c1
000000a0: 0302 10c1 4efd 0fc1 1c16 10c1 090a 10c1
000000b0: 7803 10c1 e0c4 0fc1 8060 10c1 c2fe 0fc1
000000c0: 3a6f 10c1 33fb 0fc1 1428 10c1 1222 10c1
000000d0: 63ee 0fc1 b8fb 0fc1 75f8 0fc1 1fea 0fc1
000000e0: 8912 10c1 b64b 10c1 71ad 0fc1 0cd0 0fc1
000000f0: c4c5 0fc1 9822 10c1 0b05 10c1 aaf1 0fc1
00000100: 69fe 0fc1 7eed 0fc1 8248 10c1 efef 0fc1
00000110: df09 10c1 8c02 10c1 cd13 10c1 6335 10c1
00000120: 8405 10c1 dfbc 0fc1 ddf5 0fc1 940c 10c1
00000130: e0f7 0fc1 5623 10c1 6200 10c1 006c 10c1
00000140: 943c 10c1 6f47 10c1 050d 10c1 69f6 0fc1
00000150: 68c8 0fc1 5b09 10c1 331a 10c1 1cf2 0fc1
00000160: 6a24 10c1 7bbf 0fc1 d02e 10c1 f110 10c1
00000170: ebf0 0fc1 853d 10c1 ea12 10c1 2416 10c1
00000180: 86c9 0fc1 f8f6 0fc1 e1f0 0fc1 88ea 0fc1
00000190: f9ea 0fc1 6f24 10c1 76bc 0fc1 1ae4 0fc1
000001a0: 425e 10c1 9649 10c1 c46f 10c1 f539 10c1
000001b0: 79f0 0fc1 adef 0fc1 e921 10c1 3605 10c1
000001c0: 38d5 0fc1 4f2a 10c1 fa12 10c1 a72a 10c1
000001d0: 01c1 0fc1 a7e5 0fc1 9131 10c1 8403 10c1
000001e0: 39fb 0fc1 dfb9 0fc1 efe2 0fc1 9a19 10c1
000001f0: 95d7 0fc1 0efb 0fc1 eee1 0fc1 6a1c 10c1
00000200: 2c2c 10c1 3db6 0fc1 a439 10c1 e60d 10c1
00000210: 37ee 0fc1 1220 10c1 b23a 10c1 5224 10c1
00000220: b2ef 0fc1 f5c5 0fc1 872a 10c1 27eb 0fc1
00000230: 6902 10c1 0f37 10c1 e33a 10c1 7f0d 10c1
00000240: a333 10c1 03fd 0fc1 3201 10c1 230a 10c1
00000250: d40e 10c1 b10c 10c1 2667 10c1 2db5 0fc1
00000260: 3246 10c1 80b0 0fc1 0c09 10c1 3528 10c1
00000270: 8b09 10c1 cb14 10c1 59eb 0fc1 a420 10c1
00000280: 4503 10c1 610f 10c1 950d 10c1 1df6 0fc1
00000290: 97f4 0fc1 2909 10c1 34e0 0fc1 82f1 0fc1
000002a0: b1df 0fc1 c741 10c1 1107 10c1 b2f9 0fc1
000002b0: 72de 0fc1 8de3 0fc1 60d6 0fc1 fafb 0fc1
000002c0: 9101 10c1 9d3b 10c1 bed3 0fc1 4409 10c1
000002d0: 4b1c 10c1 6df2 0fc1 7920 10c1 ecff 0fc1
000002e0: 43f6 0fc1 1718 10c1 3ff1 0fc1 323f 10c1
000002f0: e336 10c1 d81a 10c1 67f6 0fc1 c848 10c1
00000300: 5a21 10c1 125c 10c1 b9fa 0fc1 f227 10c1
00000310: c80c 10c1 cdd7 0fc1 d108 10c1 7959 10c1
-9.010764 -9.014257 -8.991258 -8.996341 -9.025732 -8.995278 -8.995722 -8.992562
-8.9880905 -9.02104 -8.995427 -9.01041 -8.996368 -8.995934 -9.000992 -8.986955
-9.004603 -8.989058 -8.984166 -8.9873085 -9.001717 -9.004717 -9.00589 -9.018157
-9.007072 -8.99949 -8.990853 -9.010514 -9.010072 -9.024326 -9.017527 -8.995622
-8.999993 -8.988255 -9.020309 -8.987378 -9.003894 -9.0121355 -9.007483 -9.005802
-9.000491 -8.999342 -9.005398 -9.00245 -9.000847 -8.985565 -9.02356 -8.999697
-9.027155 -8.998828 -9.009785 -9.008318 -8.9957 -8.998955 -8.998158 -8.994658
-9.004525 -9.018484 -8.979844 -8.988293 -8.985783 -9.008446 -9.001231 -8.9965
-8.999612 -8.9954815 -9.017702 -8.996078 -9.00241 -9.000622 -9.004834 -9.013034
-9.001347 -8.983611 -8.997525 -9.003071 -8.998016 -9.008627 -9.000093 -9.026367
-9.01479 -9.01744 -9.003179 -8.997659 -8.986427 -9.002284 -9.006396 -8.996609
-9.00889 -8.984248 -9.011429 -9.004136 -8.996318 -9.015019 -9.004618 -9.005405
-8.9867 -8.997795 -8.996308 -8.994759 -8.994866 -9.008895 -8.983511 -8.993189
-9.023012 -9.017965 -9.027287 -9.01415 -8.996209 -8.996015 -9.008279 -9.001272
-8.989555 -9.010329 -9.004633 -9.010413 -8.98462 -8.993567 -9.012101 -9.000858
-8.998834 -8.982879 -8.992904 -9.00625 -8.990132 -8.998793 -8.992659 -9.006937
-9.010784 -8.981992 -9.014072 -9.003393 -8.995658 -9.00783 -9.01433 -9.008867
-8.996019 -8.985829 -9.010383 -8.99491 -9.000588 -9.013442 -9.014377 -9.003295
-9.012607 -8.99927 -9.000292 -9.002475 -9.00362 -9.0030985 -9.025183 -8.981732
-9.017138 -8.980591 -9.002209 -9.009816 -9.00233 -9.005076 -8.994958 -9.007969
-9.000798 -9.003755 -9.003316 -8.997586 -8.997214 -9.002236 -8.992237 -8.996462
-8.992112 -9.016059 -9.001725 -8.998461 -8.991808 -8.993054 -8.989838 -8.999018
-9.000382 -9.014554 -8.989195 -9.002262 -9.006907 -8.996686 -9.007928 -8.999981
-8.9976225 -9.005881 -8.996398 -9.015429 -9.0134 -9.006554 -8.997657 -9.017769
-9.008142 -9.022478 -8.998712 -9.009752 -9.00312 -8.990186 -9.002152 -9.021844

bias_mu f4 [20]
00000000: d352 383e 3e66 05be 2521 1f3e ba27 443e
00000010: 7927 8bbe 402c 9d3e 4d58 3fbe f62b 6ebd
00000020: 013c 66be d75b da3e 4a84 ffbd 1603 3a3e
00000030: 9e68 a83d 0143 0ebe 9b96 ff3e a1ff 00be
00000040: 56aa adbe 4962 3cbe 7343 8fbd 5704 483e
0.18000345 -0.13027284 0.15539987 0.1915578 -0.27178553 0.30697823 -0.18686028 -0.058147393
-0.22483827 0.42648193 -0.12476404 0.1816524 0.08223079 -0.13892747 0.4991959 -0.12597515
-0.33919019 -0.18396868 -0.06995287 0.19532906

bias_logvar f4 [20]
00000000: 59f0 0fc1 731c 10c1 87f3 0fc1 9808 10c1
00000010: 12dd 0fc1 5df9 0fc1 851f 10c1 44c1 0fc1
00000020: cb2c 10c1 edda 0fc1 d3fc 0fc1 58ec 0fc1
00000030: e016 10c1 9311 10c1 8b11 10c1 9232 10c1
00000040: 8dd8 0fc1 21f4 0fc1 2803 10c1 b6f6 0fc1
-8.996179 -9.006946 -8.996955 -9.002098 -8.991472 -8.99838 -9.007695 -8.984684
-9.010936 -8.990949 -8.999225 -8.995201 -9.005585 -9.004291 -9.004283 -9.012346
-8.990369 -8.997102 -9.000771 -8.997732

posterior_weight_variance f4 [20, 10]
00000000: 4351 3439 118e 1639 8f1b 3a39 4d7e 4739
00000010: abef 2339 2584 5e39 5679 3f39 b53b e938
00000020: b25b 6039 4c7c e838 c41a 3739 1423 1739
00000030: fe28 3939 1293 4739 8e0b 2839 4660 6039
00000040: c0c7 3d39 c70d ea38 7e3d 6139 9876 f038
00000050: b4f5 3539 4000 1839 ae66 3739 2d30 4339
00000060: 3f06 2739 bd94 5d39 9b68 4039 e413 e538
00000070: db7a 5b39 f6b9 e738 4d1a 3339 ba63 1939
00000080: 977c 3839 9b1d 4939 f5d3 2439 ba4a 6039
00000090: 59ea 3d39 bfb4 e438 750d 5c39 2610 ec38
000000a0: f92d 3639 29d3 1839 997d 3739 b24b 4639
000000b0: 3f11 2839 a8b2 6039 4439 3a39 0692 e738
000000c0: 25c3 5739 3db6 ed38 897e 3439 b973 1739
000000d0: 7247 3939 06fa 4639 9f85 2839 8ea7 5e39
000000e0: 8ecb 3d39 3142 e338 4939 6239 8b39 f038
000000f0: 57e1 3839 c36e 1739 a341 3839 3a77 4739
00000100: 3648 2839 c878 5e39 b94f 3b39 536a e838
00000110: 372b 5d39 fd47 ed38 4865 3539 bcbd 1639
00000120: 723d 3839 7d0c 4a39 a5a0 2839 f6c9 5c39
00000130: df08 3f39 c183 e538 4eae 5d39 be40 e738
00000140: 6a98 3339 cb14 1639 24e6 3739 543b 4739
00000150: 2682 2a39 75f6 5c39 3471 3d39 2849 e838
00000160: 9ebd 5b39 d632 f138 8c32 3439 c916 1839
00000170: f429 3939 33cd 4339 4b6f 2739 4447 5c39
00000180: 6b35 4139 7402 e838 8385 5e39 5ead ee38
00000190: 0835 3739 b05d 1739 2a8e 3b39 3220 4839
000001a0: 0964 2439 6886 5939 a186 3939 c13f e438
000001b0: 428b 5e39 8760 ee38 85c4 3439 5686 1839
000001c0: 236c 3a39 78b9 4439 0371 2739 852c 5b39
000001d0: 939d 4139 fffd e838 d30b 5b39 e539 ed38
000001e0: 797b 3639 c95a 1b39 54cd 3939 af86 4539
000001f0: 39e1 2939 46bc 5d39 c90f 4039 ece5 e538
00000200: 4953 5b39 c3be f138 3bba 3339 1633 1839
00000210: 364b 3939 b737 4539 acd1 2539 e383 5b39
00000220: 2b6c 3f39 9fcd ea38 6669 5b39 87a8 ee38
00000230: 5629 3639 e8ae 1639 19da 3539 751c 4639
00000240: 831a 2639 3da1 5d39 ef99 3e39 22ed e638
00000250: 95e6 5c39 fbb4 ec38 76bc 3139 c888 1b39
00000260: 325a 3539 faa8 4a39 b4d6 2739 694e 5b39
00000270: 5a36 3e39 fa54 e638 d1d3 5e39 638b eb38
00000280: 8721 3639 0625 1839 08e0 3739 f73e 4739
00000290: c7ad 2839 acfb 5c39 8524 4039 e152 e838
000002a0: 5275 5f39 eda6 e938 5ff4 3539 e2f3 1839
000002b0: 3a00 3a39 9026 4839 48ee 2939 c8af 5d39
000002c0: ca95 3e39 1628 e438 2f1c 6039 8dea ec38
000002d0: a603 3539 153a 1939 3307 3739 03c5 4639
000002e0: 179c 2839 5e2b 5c39 d558 3f39 44f4 e338
000002f0: 76c0 5a39 c7e0 eb38 e3b4 3639 0207 1639
00000300: 2cfe 3639 095a 4239 1d6d 2839 5d53 5b39
00000310: eb0f 3e39 54c8 e938 b939 5d39 7a4c e838
0.0001719641 0.00014358039 0.00017748609 0.0001902517 0.00015634175 0.00021220797 0.0001826038 0.00011121427
0.00021396464 0.00011085774 0.00017462211 0.0001441355 0.00017658246 0.00019032907 0.00016026033 0.0002139817
0.00018098857 0.00011160556 0.0002148058 0.000114661816 0.00017353037 0.00014495943 0.00017490491 0.00018614596
0.00015928688 0.00021131612 0.00018349515 0.00010923276 0.00020931235 0.00011049576 0.00017080568 0.00014628368
0.00017594021 0.00019179883 0.00015719219 0.00021390143 0.00018111746 0.00010905554 0.00020985848 0.00011256365
0.00017373999 0.00014574513 0.00017499029 0.0001891095 0.00016028153 0.0002142886 0.00017759675 0.00011042137
0.00020576695 0.00011334985 0.00017213276 0.00014443592 0.0001766959 0.00018975892 0.00016071506 0.00021233989
0.00018100275 0.000108365326 0.0002157438 0.0001145481 0.00017631553 0.00014441744 0.00017572059 0.00019022534
0.00016048629 0.00021216564 0.00017863409 0.000110824265 0.00021092301 0.000113144495 0.00017299235 0.00014375796
0.00017570498 0.00019268873 0.00016081573 0.00021056071 0.00018218484 0.00010944112 0.00021141136 0.000110269975
0.00017127549 0.00014312861 0.00017537974 0.0001900022 0.00016260947 0.00021072647 0.00018066616 0.000110762485
0.00020956105 0.000115012444 0.00017184968 0.00014504338 0.00017658604 0.00018673092 0.00015967821 0.00021007383
0.00018425814 0.00011063079 0.00021221307 0.000113810165 0.00017471996 0.00014435383 0.0001788667 0.0001908548
0.00015677525 0.00020744803 0.00017693128 0.00010883762 0.00021223447 0.00011366704 0.00017239347 0.00014545894
0.00017778626 0.00018761109 0.00015968461 0.00020902052 0.00018464615 0.000111099325 0.00020889872 0.00011311824
0.0001740287 0.00014815772 0.00017719466 0.00018837558 0.00016200998 0.0002114634 0.00018316427 0.00010962397
0.00020916494 0.00011527308 0.00017140147 0.0001451488 0.00017670993 0.0001880814 0.00015813735 0.00020934599
0.00018255475 0.000111962894 0.00020924732 0.00011380115 0.00017372271 0.00014370272 0.00017342753 0.00018893353
0.0001584087 0.00021136268 0.00018177157 0.00011011424 0.00021066733 0.00011287067 0.00016950243 0.00014832907
0.00017295105 0.0001932717 0.00016006344 0.00020914678 0.0001814006 0.00010983083 0.00021250478 0.00011231636
0.00017369362 0.00014509642 0.00017535698 0.00019001575 0.00016086466 0.0002107459 0.00018324151 0.000110780595
0.00021310642 0.00011141398 0.0001735254 0.00014586703 0.00017738427 0.00019087852 0.00016205863 0.00021141686
0.00018175613 0.00010879354 0.00021372804 0.000112970454 0.00017262864 0.00014612854 0.00017454922 0.00018956144
0.00016079877 0.0002099699 0.00018248272 0.000108697015 0.00020861797 0.00011247541 0.00017424258 0.00014307725
0.00017451559 0.00018534822 0.00016062376 0.00020916523 0.00018125742 0.0001114762 0.00021097706 0.00011076867

posterior_weight_mean f4 [20, 10]
00000000: 70b0 013e 8b38 533c 17f2 20bf 9e52 4ebe
00000010: bb4c 033d ca1e 033e 77d3 773e c3c3 dd3e
00000020: 973b 683e 7d77 233d d497 4bbe f30b ba3e
00000030: ae95 35bf d24b 2cbe 1f43 ea3e 953a f63d
00000040: f97d de3c 827a f8be a7f0 3bbe c898 703e
00000050: 7bc1 11bf ffb3 e93e 91d3 a53e dec6 323e
00000060: 1127 54be a9ec d63d b061 8c3e e169 143e
00000070: 9a01 9b3d eda5 a83e 00c2 85be 52ee dfbe
00000080: 5bbe dfbe 3b9a 093f a864 3a3e e3e8 8abf
00000090: 6ef2 4e3e 04ba 8f3d ae67 213f 3bfb f3be
000000a0: b6d2 3cbe 4ec8 3ebf 4fe7 3fbe d31d a8bf
000000b0: 4a92 41be d533 84bf d315 50bf 200e 6f3e
000000c0: 7ca9 073d 1e62 babe 599a 323e 2232 003e
000000d0: b961 833e c937 293f 4d74 eb3e f726 6b3e
000000e0: 4722 4a3d 7e8b 1a3d 50e6 6d3f 4b84 72bc
000000f0: afb8 c1be e718 f23d ba82 93bd 26ed 29bf
00000100: 6318 483f bd39 a3be deff 8dbe 0723 e63e
00000110: ab5b 9d3e 578b 17bc f133 393f 32c6 c03e
00000120: 1dae 2abf 9e68 e8bd f11d ad3e 718d b6bd
00000130: 23bc 01be 4c55 bfbe 1c08 623d 1121 8e3e
00000140: e457 f23e a6dd 173f efbb a2be 9121 c7be
00000150: cfaa 42be b61a d93d 22db d43e 7407 34be
00000160: bf7e c3be b533 a43d 35f5 17bd 4cbf dc3e
00000170: ddd5 c8b9 f937 2cbe f797 2cbe da85 313f
00000180: abf0 bcbd b9a9 c5bd af1d 2f3c e14d 12be
00000190: cb78 34be 06c6 abbe 045f 27bf 06ac 0abf
000001a0: 9f3b 53bf f2c5 483e 5c29 ddbe 69fe 9d3e
000001b0: a1b8 4ebe edf0 863d a1f7 c6be 2fe5 c83e
000001c0: 2888 debe 8242 043f c021 643f 0c71 22be
000001d0: dc25 263f 9531 02bc a768 8d3f 0e22 333e
000001e0: a18d 913e a124 4ebe bd0e 2abf 8307 303e
000001f0: a539 e13e 06e3 1fbd 804d 93be be24 aabd
00000200: f602 e1be 9685 713e 395e 37bf f393 0bbd
00000210: adf9 53bf af58 163f 2342 fdbe 48ab 04bf
00000220: ffdf 3fbf 1223 353e 470e cebd 770a 373f
00000230: a9f4 9ebb 7585 243f 2d3c d4be 7fb2 873e
00000240: 833a b33e fc12 3a3e 97a5 9bbe fce4 ac3d
00000250: 5167 38be 4383 1a3f 46ab 02be d43f c63e
00000260: 37b8 13bf 2974 1cbe 769e 47be e5ff debe
00000270: b701 a1bd 5690 d03e 4ae8 3d3f 3027 a53d
00000280: 57d9 52bf 6e14 a53d 601a f3be 5595 b7be
00000290: e71c 12be b641 85bf 6f14 953e 74c6 bebe
000002a0: 12ae aa3e eed4 cfbe e4c6 95bd 113e 53be
000002b0: 36a0 8b3d cbce 9fbe 2c40 053f ec75 b1be
000002c0: 7dd7 dfbe 3079 993e 1d1a ec3c 35d3 53bf
000002d0: 9113 18be 83b7 f43e 11f4 c1be 70ae c33e
000002e0: 926f 893c 2907 1cbe 99fd 073f 791a 933d
000002f0: df5e bc3e daec 963d df60 733f 583e dabd
00000300: 28e0 353f aaab 3bbf b8b4 ee3c 1997 613f
00000310: a4c1 24be ecd0 333e 7ab4 81be 225c 4e3d
0.12664962 0.012891899 -0.628694 -0.20148703 0.032055598 0.12804714 0.24201761 0.43313417
0.22678982 0.039908875 -0.19882137 0.36337242 -0.7093152 -0.16825798 0.45754334 0.120228924
0.027159678 -0.48530966 -0.1835352 0.23495781 -0.5693585 0.4564514 0.32387975 0.17458674
-0.20718028 0.10494358 0.2741828 0.14493515 0.07568665 0.3293909 -0.26124573 -0.4373651
-0.43699917 0.5375096 0.1820246 -1.0852321 0.20209667 0.070179015 0.6304883 -0.4765261
-0.18439755 -0.7452439 -0.18740581 -1.3134102 -0.18903461 -1.0328318 -0.812833 0.23345232
0.033120617 -0.36402982 0.17441691 0.12519124 0.25660494 0.66100746 0.45987168 0.22964083
0.049349096 0.037730686 0.92929554 -0.014802049 -0.37836215 0.11821156 -0.072026685 -0.66377485
0.7816221 -0.31879988 -0.27734274 0.449486 0.30734 -0.00924953 0.7234488 0.3765121
-0.66671926 -0.11348079 0.33811906 -0.089136966 -0.12669425 -0.37369764 0.055183515 0.27759603
0.4733268 0.59322584 -0.31784007 -0.38892797 -0.19010471 0.10600798 0.41573435 -0.17580968
-0.38182637 0.08017675 -0.037099082 0.43114698 -0.00038306313 -0.16818227 -0.16854845 0.69344866
-0.09225591 -0.09651513 0.010688229 -0.14287521 -0.17624204 -0.33549517 -0.6537936 -0.54168737
-0.8251285 0.1960676 -0.43195617 0.30858162 -0.20187618 0.06588922 -0.388608 0.39237353
-0.43463254 0.5166398 0.89114 -0.15863436 0.6490152 -0.007946392 1.1047562 0.1749346
0.28428367 -0.2013116 -0.6642874 0.17190365 0.43989292 -0.039034866 -0.28770065 -0.08307789
-0.43947572 0.23586115 -0.7162815 -0.034076642 -0.8280285 0.5872907 -0.4946452 -0.51823854
-0.74951166 0.1768916 -0.10061317 0.71500343 -0.004850943 0.6426614 -0.4145216 0.2650337
0.35005578 0.18171304 -0.30399773 0.08442113 -0.18008162 0.6035654 -0.12760648 0.38720572
-0.57702965 -0.15278687 -0.19494042 -0.43554607 -0.07861655 0.4073512 0.7418257 0.08064115
-0.82362884 0.08060537 -0.4748106 -0.3585612 -0.14268838 -1.0410678 0.29117152 -0.37260783
0.3333593 -0.4059214 -0.07313326 -0.20629145 0.06817667 -0.31212458 0.52051044 -0.3466028
-0.43719092 0.2997527 0.028821046 -0.8274415 -0.14851214 0.47796258 -0.3788152 0.38219023
0.016776834 -0.15237106 0.53121334 0.07182784 0.3679113 0.073693946 0.9506969 -0.106564224
0.7104516 -0.73308814 0.029138908 0.8812118 -0.16089493 0.17560166 -0.25333005 0.050380833

dropout_mu f4 [20]
00000000: 6428 c93f 99f5 9d3f 9054 ce3f ab5e d13f
00000010: 4a5d 803f 573e d43f a31c b63f 2e43 a43f
00000020: cdf6 b13f 2226 df3f c068 a73f 4c5e f93f
00000030: 756a c53f 4dd5 813f 71c9 c43f 79fe 8f3f
00000040: 1cf7 583f 2af2 c83f a687 8b3f 3a9a 1340
1.5715451 1.2340575 1.6119556 1.6357015 1.002847 1.6581525 1.4227489 1.2833002
1.3903443 1.7433512 1.3078842 1.9481902 1.5423113 1.0143219 1.5373975 1.1249534
0.8475206 1.5698903 1.0900772 2.3062882

dropout_logvar f4 [20]
00000000: 9adf 0fc1 d108 10c1 28ea 0fc1 5bf9 0fc1
00000010: 9de2 0fc1 913d 10c1 b92a 10c1 0a02 10c1
00000020: 0404 10c1 c65a 10c1 171a 10c1 e535 10c1
00000030: 3afa 0fc1 8de6 0fc1 0747 10c1 7342 10c1
00000040: b4eb 0fc1 d01f 10c1 8d1b 10c1 352f 10c1
-8.99209 -9.002152 -8.994667 -8.998378 -8.9928255 -9.015031 -9.01043 -9.000498
-9.00098 -9.0221615 -9.00637 -9.013158 -8.99859 -8.993787 -9.017341 -9.016223
-8.995045 -9.007767 -9.006726 -9.011525

weight_mu f4 [5, 20]
00000000: 523f 05bf 7e94 4bbe da9d a1be 3622 f1be
00000010: ffe4 0dbe 34e1 42bf e2c7 7ebe 1b05 05bf
00000020: a986 35bf f5c8 28bf 5dcf 14bf 9448 aabf
00000030: a44b 1ebf 211e 4bbe 494a 2ebf 84fd 04bf
00000040: 5852 82bd 5abc 0e3f ab5e 17be fd30 4d3f
00000050: 0351 a4bc 20af 403e 81dd 093e b70a 323f
00000060: 0398 163f adad 8b3e d07f 84bd 85fd 74bc
00000070: 9894 b33e 0a82 2b3f 74f2 c83e 58eb 0ebf
00000080: 5788 dd3d 1806 d03e 99c7 eb3d d8c3 7cbe
00000090: 1419 b63d 84d3 c53e 543a e43d 2898 c63e
000000a0: e299 863e 6af9 60be f64e e43e 95fe bc3d
000000b0: 07e9 a8bd 429d 283f cdb8 ae3e cf1e f23e
000000c0: ed56 fd3d b070 c73e 1758 dd3e 4ab9 fc3d
000000d0: b92b 983e 02bc 1cbe 5b8b a83e aa9e aa3d
000000e0: 7e2f 803e 96bf d53e 8f29 aa3e c707 cc3c
000000f0: e380 0cbe a707 a03e 1d79 b73e 2f4a a33d
00000100: 1bc2 0fbc 31a0 003d a90c 0b3e 53f9 dc3e
00000110: f214 eb3d 8f83 493e f376 e0be 547e e33e
00000120: 6b3c 0c3d 3564 7dbe e314 8e3e d9fb 44be
00000130: 77c9 283e 36d0 f1bd 97d3 3ebe 0647 45bf
00000140: b349 3ebf a998 2ebf dc14 18bf fd93 bdbe
00000150: f3d0 0f3b f494 0ebf 900d 33bf ac46 16be
00000160: a9ee dbbe bb44 8dbf b0e9 0dbf c8a2 fe3e
00000170: 2351 00bf 1534 66be df79 f9be 3a5d e0be
00000180: f609 44be 2012 89bf b6c7 6abe 83b6 d1bf
-0.52049744 -0.19880864 -0.31565744 -0.47096413 -0.13856886 -0.7612488 -0.24880937 -0.51960915
-0.709086 -0.65931636 -0.5812891 -1.3303399 -0.6183417 -0.19835712 -0.680821 -0.51949334
-0.06363362 0.5575615 -0.14782207 0.80152875 -0.02005816 0.18816805 0.13463403 0.695476
0.588257 0.27280942 -0.06469691 -0.014953022 0.35074306 0.669953 0.39247477 -0.55827856
0.108170204 0.4062965 0.115126796 -0.24684083 0.08891502 0.38637936 0.11143938 0.3878796
0.26289278 -0.21970144 0.44591492 0.09228245 -0.082475714 0.65864956 0.34125367 0.4728913
0.123700954 0.3895316 0.4323127 0.123400286 0.29720858 -0.15306094 0.3291882 0.08331044
0.25036234 0.4174773 0.33234832 0.024906052 -0.13721041 0.31255838 0.3583459 0.07973134
-0.008774306 0.03140277 0.13579048 0.4315897 0.114786044 0.19679092 -0.4384075 0.44432318
0.034237307 -0.24745257 0.2775031 -0.19236697 0.16483103 -0.11807291 -0.18635403 -0.770615
-0.74331206 -0.6820169 -0.5940683 -0.3702697 0.0021944612 -0.55696034 -0.6994257 -0.14675397
-0.4295552 -1.10366 -0.55434704 0.49733567 -0.50123805 -0.22480805 -0.48725793 -0.43821126
-0.19144425 -1.0708656 -0.22927746 -1.6383823

weight_logvar f4 [5, 20]
00000000: a22c 10c1 d342 10c1 46db 0fc1 abfe 0fc1
00000010: a948 10c1 d1fa 0fc1 4718 10c1 0e16 10c1
00000020: b21e 10c1 370f 10c1 1338 10c1 302e 10c1
00000030: 911d 10c1 5512 10c1 aae6 0fc1 3be3 0fc1
00000040: dc2a 10c1 a5f3 0fc1 f2dc 0fc1 684e 10c1
00000050: 0fc3 0fc1 42d2 0fc1 a801 10c1 6bfc 0fc1
00000060: 8df3 0fc1 98e9 0fc1 0028 10c1 19cc 0fc1
00000070: eb18 10c1 40e8 0fc1 e5d8 0fc1 b531 10c1
00000080: 75ee 0fc1 10e4 0fc1 8ffa 0fc1 6204 10c1
00000090: 7cf6 0fc1 faf3 0fc1 fc3c 10c1 7b37 10c1
000000a0: 4c3d 10c1 3de0 0fc1 06f0 0fc1 9543 10c1
000000b0: 0433 10c1 2a0e 10c1 f001 10c1 58fd 0fc1
000000c0: 5c26 10c1 18f8 0fc1 9701 10c1 66f0 0fc1
000000d0: 7bd2 0fc1 9a38 10c1 bf33 10c1 d906 10c1
000000e0: 6327 10c1 5d2d 10c1 64ed 0fc1 07e0 0fc1
000000f0: 1b2a 10c1 6cf4 0fc1 ddee 0fc1 6e00 10c1
00000100: f921 10c1 eaeb 0fc1 1539 10c1 380a 10c1
00000110: a4c6 0fc1 2cd9 0fc1 4ee2 0fc1 c244 10c1
00000120: 5e2b 10c1 9bd0 0fc1 55e7 0fc1 42e4 0fc1
00000130: 2a2d 10c1 24e5 0fc1 b022 10c1 d83a 10c1
00000140: 62e4 0fc1 31e5 0fc1 9cde 0fc1 8b0b 10c1
00000150: 74eb 0fc1 dac9 0fc1 0d5a 10c1 11d1 0fc1
00000160: 0703 10c1 45ef 0fc1 c919 10c1 cf04 10c1
00000170: dafc 0fc1 9f08 10c1 2af4 0fc1 50c8 0fc1
00000180: 4de5 0fc1 2016 10c1 b212 10c1 ef25 10c1
-9.010897 -9.0163145 -8.991034 -8.999675 -9.017739 -8.998734 -9.005927 -9.005384
-9.007494 -9.003715 -9.01369 -9.011276 -9.007218 -9.004476 -8.993814 -8.992976
-9.010464 -8.996984 -8.991442 -9.019142 -8.985122 -8.988832 -9.000404 -8.9991255
-8.996961 -8.99453 -9.009766 -8.987329 -9.0060835 -8.994202 -8.990453 -9.0121355
-8.995717 -8.993179 -8.998672 -9.00107 -8.997677 -8.997065 -9.014889 -9.013545
-9.014965 -8.992246 -8.996099 -9.0164995 -9.012455 -9.003458 -9.000473 -8.9993515
-9.009365 -8.99807 -9.000388 -8.996191 -8.988887 -9.013819 -9.012633 -9.001672
-9.009616 -9.011075 -8.995457 -8.992194 -9.01028 -8.997173 -8.995816 -9.000105
-9.008294 -8.995096 -9.013936 -9.002495 -8.985996 -8.9905205 -8.99275 -9.016787
-9.010588 -8.988429 -8.993978 -8.993227 -9.011026 -8.993443 -9.008469 -9.014366
-8.9932575 -8.993455 -8.991848 -9.002818 -8.994984 -8.98678 -9.021985 -8.988542
-9.000739 -8.995915 -9.006295 -9.001174 -8.999231 -9.002105 -8.99711 -8.986404
-8.993482 -9.005402 -9.004564 -9.009261

bias_mu f4 [5]
00000000: 4a3a c3bd a7ea fb3d b5bb 2a3e ca72 0d3d
00000010: aeb9 69be
-0.09532602 0.12300616 0.16673167 0.0345333 -0.22824737

bias_logvar f4 [5]
00000000: 833b 10c1 bec4 0fc1 96e7 0fc1 152e 10c1
00000010: ace4 0fc1
-9.014529 -8.985533 -8.99404 -9.0112505 -8.993328

posterior_weight_variance f4 [5, 20]
00000000: ad11 9e39 aee1 4139 34a3 a939 982b ad39
00000010: 7bb5 ff38 7420 b239 a332 8239 92f8 5339
00000020: 6c49 7839 16ec c339 9a59 5a39 8bd5 f239
00000030: 10ce 9839 398b 0439 dde1 9939 32ec 2439
00000040: 22f7 b738 52f2 9f39 dc16 1b39 85d0 283a
00000050: ab31 a239 9d48 4739 fe0d a839 7e44 ad39
00000060: 4e8b 0239 94df b239 d3b2 8139 26d4 5739
00000070: 98a1 7839 85cb c539 f77a 5f39 3e9d f239
00000080: ce91 9a39 370d 0639 1622 9939 0497 2339
00000090: 3c55 ba38 adee 9f39 bd7e 1739 98c2 293a
000000a0: f96c 9d39 d69a 4639 f8c7 a839 8947 aa39
000000b0: 1b88 0039 4849 b139 08e9 8239 c040 5539
000000c0: a1d0 7739 7107 c539 7f45 5d39 e082 f639
000000d0: 2aa1 9b39 9c4f 0339 be02 9739 9a7d 2339
000000e0: 8f1f b838 1ab5 9d39 2278 1a39 4c6c 2d3a
000000f0: 232a 9e39 1da1 4539 10d4 a839 1718 ad39
00000100: 4611 0139 80c5 b239 ab28 8139 4395 5439
00000110: 9dac 7d39 6f85 c639 d5f7 5e39 cf7c f139
00000120: b649 9839 2fb0 0639 a9da 9939 aae0 2439
00000130: d5dc b738 f782 a039 9f78 1839 5d9f 293a
00000140: 5fe2 a039 1a5f 4639 6080 a939 4aa0 ac39
00000150: 02cc 0239 4c44 b439 8920 8039 4291 5739
00000160: ebf6 7939 5c76 c539 5cf8 5b39 ac49 f539
00000170: 7b07 9a39 cfdb 0439 c95f 9939 4002 2639
00000180: 021e bb38 c39c 9e39 6211 1939 b47f 2a3a
0.00030149278 0.00018489987 0.00032355788 0.0003302961 0.00012193151 0.00033974985 0.0002483326 0.00020215128
0.00023678475 0.00037369196 0.0002082348 0.0004631694 0.00029145228 0.00012640365 0.00029350715 0.00015728248
8.772152e-05 0.00030507386 0.00014790468 0.0006439763 0.00030936053 0.0001900517 0.00032053882 0.00033048162
0.00012449661 0.00034117384 0.00024738032 0.00020583029 0.00023711321 0.00037726402 0.00021312745 0.00046274991
0.00029481802 0.00012784159 0.0002920783 0.00015601149 8.885047e-05 0.0003050467 0.00014447696 0.0006475835
0.00030026564 0.00018940432 0.00032192445 0.00032478225 0.00012257734 0.0003381467 0.00024969154 0.00020337384
0.00023633476 0.00037580312 0.00021102092 0.00047018286 0.0002968398 0.0001252279 0.00028803007 0.00015591682
8.779682e-05 0.00030080305 0.00014731337 0.0006615564 0.00030167503 0.00018847403 0.00032201456 0.0003301508
0.00012308834 0.00034097955 0.00024635097 0.000202735 0.00024192264 0.0003786492 0.00021263894 0.00046060092
0.00029046618 0.0001284487 0.0002934535 0.00015723953 8.767253e-05 0.00030615155 0.00014540784 0.00064705854
0.00030686238 0.0001891818 0.0003232984 0.0003292582 0.00012473765 0.0003438316 0.00024438303 0.0002055811
0.00023838475 0.00037662953 0.00020977989 0.0004678493 0.00029378742 0.00012670386 0.000292538 0.00015831832
8.922444e-05 0.00030252905 0.00014597693 0.00065040146

posterior_weight_mean f4 [5, 20]
00000000: 7b67 51bf c03a 7bbe 6842 02bf 1a36 45bf
00000010: 694c 0ebe f491 a1bf 9b3e b5be 5bb4 2abf
00000020: 3762 7cbf 3220 93bf 53a0 42bf 51df 25c0
00000030: 1224 74bf d806 4ebe 05fa 85bf 9e9b 15bf
00000040: 8ce6 5cbd 5814 603f 3801 25be 7e9d ec3f
00000050: 881d 01bd 83c8 6d3e 903b 5e3e 969c 913f
00000060: c505 173f ae9b e73e 6083 bcbd b432 9dbc
00000070: bbad f93e d37f 953f 6368 033f 8d37 8bbf
00000080: 0bd6 2a3e cb00 d33e 593e 353e a72c 8ebe
00000090: ef54 9a3d 6248 1b3f 35c9 f83d 0702 653f
000000a0: 1e88 d33e cbd0 8abe f402 383f bb91 1a3e
000000b0: 2264 a9bd 4acb 8b3f da95 f83e 465b 1b3f
000000c0: 561d 303e dfd8 2d3f 09bf 103f 502d 763e
000000d0: dab1 ea3e a9fa 1ebe 518f 013f 76f0 bf3d
000000e0: 9c47 593e dfc7 273f 767d b93e c446 6b3d
000000f0: bbce 5cbe 717c c53e 10e0 133f f38b 053e
00000100: e12a 10bc f647 553d 1cd5 453e b6c9 0d3f
00000110: 1e6c 233e 9ea7 af3e 71c9 12bf ac99 5d3f
00000120: 9f49 583d 9f82 80be 966f da3e fa98 5dbe
00000130: e90c 0f3e 69cf 3dbe 0104 50be 447d e3bf
00000140: e385 95bf 4076 57bf 0b26 75bf ed0b 1bbf
00000150: c439 103b 256c 6cbf 58bf 7ebf 6bd9 40be
00000160: 0ae4 18bf d447 f6bf 069b 39bf 200a 783f
00000170: 98e7 45bf 1a80 69be 9ec5 3fbf 3466 fcbe
00000180: a325 26be a52f d7bf afed 7fbe 49d4 71c0
-0.81798524 -0.2453413 -0.5088258 -0.7703568 -0.13896336 -1.2622666 -0.35399327 -0.6668145
-0.98587364 -1.14942 -0.76025885 -2.5917552 -0.9536754 -0.20119798 -1.0466925 -0.5844058
-0.053930804 0.8753104 -0.16113746 1.8485563 -0.031522304 0.2322102 0.21702409 1.1375911
0.5899318 0.45235962 -0.09204745 -0.019189216 0.48765358 1.1679634 0.51331156 -1.0876328
0.16683213 0.41211542 0.17699565 -0.27768442 0.07535731 0.6065732 0.12147752 0.8945622
0.41314787 -0.2711242 0.71879506 0.15094654 -0.08271052 1.0921414 0.48551828 0.6068615
0.17198691 0.67909044 0.56541497 0.24040723 0.45838815 -0.15525307 0.5060931 0.09372036
0.21218723 0.65539354 0.36228532 0.057440534 -0.21563236 0.38571504 0.5776377 0.13041668
-0.008799286 0.05207058 0.19319576 0.5538591 0.15959212 0.3430757 -0.57338625 0.8656261
0.052804586 -0.25099656 0.42663258 -0.21640387 0.13969769 -0.18536152 -0.20314027 -1.7772603
-1.1681484 -0.8416481 -0.95761174 -0.6056507 0.0022007087 -0.92352515 -0.9951072 -0.18832938
-0.5972296 -1.924067 -0.7250217 0.9689045 -0.7730651 -0.22802773 -0.74910915 -0.49296725
-0.16225295 -1.6811415 -0.24993013 -3.7785819
