Activelearning/SeedModels/simple_model.pth (torch, 15071 bytes, 24 tensors)

dropout_mu f4 [4]
1.3674144 0.9960439 1.2387574 1.0240304
00000000: 6f07 af3f bcfc 7e3f 9a8f 9e3f 6e13 833f

dropout_logvar f4 [4]
-8.991742 -8.998885 -9.015417 -8.98185
00000000: 2dde 0fc1 6ffb 0fc1 263f 10c1 a8b5 0fc1

weight_mu f4 [10, 4]
-1.0146445 0.008658337 0.36369997 -0.002284474 0.5120036 -0.023704259 -0.35390714 0.44311243
0.15935312 0.72931445 -1.2511879 0.023829632 0.60513055 -0.598061 0.7313272 -0.70029646
0.112783514 -0.3733394 0.75299644 0.13967343 -1.0517188 -0.26766482 0.15311484 0.026149962
0.20090857 -0.92420566 0.5075951 0.77030396 -0.32084605 0.40050387 0.5878452 0.3894148
0.50440884 0.44388685 0.6717142 0.5345985 0.42872694 -0.987769 0.3631297 -0.33335257
00000000: dfdf 81bf b3db 0d3c e236 ba3e 1db7 15bb
00000010: ab12 033f 6f2f c2bc 5133 b5be a2df e23e
00000020: 772d 233e 5ab4 3a3f ed26 a0bf 5c36 c33c
00000030: d6e9 1a3f 871a 19bf 4238 3b3f a146 33bf
00000040: 0bfb e63d 5826 bfbe 60c4 403f 8d06 0f3e
00000050: b99e 86bf 5d0b 89be 23ca 1c3e 7238 d63c
00000060: faba 4d3e be98 6cbf c1f1 013f a432 453f
00000070: ef45 a4be d80e cd3e 067d 163f 6061 c73e
00000080: f020 013f 2345 e33e 76f5 2b3f 73db 083f
00000090: 1982 db3e 6ede 7cbf 23ec b93e 30ad aabe

weight_logvar f4 [10, 4]
-8.962627 -9.003135 -9.01084 -8.988649 -9.013228 -8.992732 -8.992322 -9.000363
-9.005128 -8.98612 -8.997214 -8.994453 -8.995179 -9.005042 -8.995942 -9.001645
-9.025978 -9.000449 -9.007644 -9.004835 -9.007352 -8.99376 -8.976271 -8.986929
-8.999443 -8.997459 -8.989817 -9.000824 -9.000791 -9.0020895 -9.003443 -8.981857
-9.012752 -9.016557 -9.000941 -9.013915 -9.003012 -8.996119 -8.993264 -9.022533
00000000: ec66 0fc1 d70c 10c1 672c 10c1 82d1 0fc1
00000010: 2f36 10c1 3be2 0fc1 8de0 0fc1 7d01 10c1
00000020: 0115 10c1 26c7 0fc1 97f4 0fc1 48e9 0fc1
00000030: 41ec 0fc1 a714 10c1 61ef 0fc1 bd06 10c1
00000040: 686a 10c1 d701 10c1 4f1f 10c1 ce13 10c1
00000050: 1d1e 10c1 71e6 0fc1 ce9e 0fc1 76ca 0fc1
00000060: b8fd 0fc1 98f5 0fc1 4ad6 0fc1 6003 10c1
00000070: 3d03 10c1 8f08 10c1 1a0e 10c1 b0b5 0fc1
00000080: 3b34 10c1 d143 10c1 db03 10c1 ff38 10c1
00000090: 560c 10c1 1af0 0fc1 69e4 0fc1 4c5c 10c1

bias_mu f4 [10]
0.17167002 -0.009093168 0.20055117 0.25759155 0.224834 0.3230946 0.25611112 0.01742219
0.30797935 -0.0495104
00000000: 44ca 2f3e 83fb 14bc 495d 4d3e 0ae3 833e
00000010: e23a 663e a86c a53e ff20 833e fbb8 8e3c
00000020: 78af 9d3e 6bcb 4abd

bias_logvar f4 [10]
-9.011754 -8.992733 -8.993391 -9.005347 -9.010394 -8.995266 -9.010291 -8.995706
-9.01817 -8.99203
00000000: 2530 10c1 3ce2 0fc1 eee4 0fc1 e715 10c1
00000010: 932a 10c1 9cec 0fc1 272a 10c1 69ee 0fc1
00000020: 6d4a 10c1 5bdf 0fc1

posterior_weight_variance f4 [10, 4]
0.00023955783 0.00012205209 0.00018733494 0.00013088953 0.00022772593 0.00012332841 0.0001908363 0.00012936827
0.00022957449 0.00012415474 0.00018992662 0.00013013204 0.00023187514 0.00012182496 0.00019015286 0.00012920712
0.0002248372 0.00012238245 0.00018794123 0.00012878835 0.00022908098 0.00012320277 0.00019392262 0.00013111492
0.00023088355 0.0001227598 0.00019131701 0.00012931485 0.0002305736 0.00012218217 0.00018872909 0.00013178396
0.00022783443 0.000120427816 0.00018920338 0.00012762831 0.00023006325 0.00012292637 0.00019065668 0.00012653045
00000000: d131 7b39 38f6 ff38 576f 4439 643f 0939
00000010: b7c9 6e39 b851 0139 3b1b 4839 08a7 0739
00000020: efb9 7039 892f 0239 0a27 4739 0e74 0839
00000030: 8223 7339 477c ff38 c563 4739 c67b 0739
00000040: 47c2 6b39 ca53 0039 1712 4539 5c0b 0739
00000050: 7535 7039 fe2f 0139 b557 4b39 e57b 0939
00000060: 5519 7239 15b9 0039 459c 4839 b198 0739
00000070: 21c6 7139 071e 0039 94e5 4539 7d2f 0a39
00000080: d7e6 6e39 318e fc38 e564 4639 f7d3 0539
00000090: 223d 7139 cce5 0039 03eb 4739 42ad 0439

posterior_weight_mean f4 [10, 4]
-1.3874395 0.008624084 0.450536 -0.002339371 0.70012105 -0.023610482 -0.43840507 0.45376062
0.21790175 0.7264292 -1.5499183 0.024402268 0.8274642 -0.595695 0.90593696 -0.7171249
0.1542218 -0.37186244 0.9327799 0.14302984 -1.4381354 -0.2666059 0.18967214 0.026778357
0.27472526 -0.92054945 0.6287872 0.7888147 -0.4387295 0.39891946 0.7281976 0.3987726
0.6897359 0.4421308 0.8320909 0.5474452 0.5862474 -0.9838613 0.4498296 -0.3413632
00000000: 9e97 b1bf 084c 0d3c a8ac e63e 2250 19bb
00000010: 223b 333f c56a c1bc a176 e0be 5053 e83e
00000020: a321 5f3e 44f7 393f b963 c6bf 44e7 c73c
00000030: b2d4 533f 787f 18bf 7ceb 673f 7f95 37bf
00000040: 52ec 1d3e c164 bebe aaca 6e3f 6a76 123e
00000050: d214 b8bf 9280 88be 6a39 423e 495e db3c
00000060: caa8 8c3e 21a9 6bbf 33f8 203f c3ef 493f
00000070: 27a1 e0be 2c3f cc3e 286b 3a3f ec2b cc3e
00000080: 8892 303f f85e e23e e903 553f 5e25 0c3f
00000090: 4f14 163f 56de 7bbf 1150 e63e 28c7 aebe

dropout_mu f4 [10]
1.1821988 0.8897681 1.1811244 1.2348957 1.2035924 1.3299721 1.2389953 0.9940419
1.300191 0.9895311
00000000: 4a52 973f d8c7 633f 162f 973f 1011 9e3f
00000010: 510f 9a3f 873c aa3f 6697 9e3f 8879 7e3f
00000020: a96c a63f e951 7d3f

dropout_logvar f4 [10]
-8.99521 -9.008389 -9.0055 -9.006306 -9.010469 -9.014286 -8.992863 -9.000468
-8.993397 -8.995606
00000000: 61ec 0fc1 5d22 10c1 8716 10c1 d419 10c1
00000010: e22a 10c1 843a 10c1 c4e2 0fc1 eb01 10c1
00000020: f4e4 0fc1 01ee 0fc1

weight_mu f4 [20, 10]
-0.20840561 -0.14246933 -0.5373221 -0.24745381 -0.11442296 -0.23902792 0.052751213 0.32995173
0.072736636 0.06956391 -0.122708656 0.31811005 -0.44569272 -0.23495385 0.38076818 0.09999523
-0.09481721 -0.26356155 -0.28923202 0.16772293 -0.38077974 0.37330037 0.2978159 -0.03087535
-0.3688104 -0.0014710713 0.23676138 -0.01185092 -0.06216628 0.2653385 -0.25480172 -0.66676974
-0.5103424 0.1389721 0.032529626 -0.6786535 0.18596731 0.06226669 0.29536465 -0.57380486
-0.2531621 -0.43668613 0.06499745 -0.8412384 -0.078594945 -0.64106387 -0.5299108 0.09854071
-0.102535516 -0.2800737 0.08156625 0.003620496 0.2999897 0.35604465 0.24687935 0.14074008
0.15535831 -0.1690519 0.5717619 0.032060303 -0.36643612 0.1255603 0.04652821 -0.59983593
0.43728724 -0.28936338 -0.4165711 0.09942745 -0.059035406 -0.16935025 0.3561596 0.21686654
-0.36949944 -0.19916432 0.15099841 -0.33213305 -0.18428387 -0.38992757 0.07184893 0.2621445
0.28473282 0.6132821 0.1231703 -0.24763346 -0.2852972 -0.02752724 0.18132013 -0.09089693
-0.48045087 0.20037346 -0.18212913 0.4735358 0.17184512 -0.1615689 -0.17637055 0.30968815
0.09368328 0.068870924 0.0035769774 -0.124956354 -0.37483132 -0.09518699 -0.28151435 -0.19090393
-0.6522768 0.008133492 -0.24441162 0.06646979 -0.35501435 0.21059099 -0.27356187 0.2134937
-0.5650886 0.5292334 0.8586279 -0.10418593 0.5358204 0.09664982 0.8969621 0.24153237
-0.060548678 -0.20906585 -0.39136025 0.05744576 0.25798786 -0.28721768 -0.29331607 -0.2205059
-0.5074377 0.21185571 -0.31287572 -0.17530201 -0.5589229 0.27825576 -0.5647626 -0.01098651
-0.7438088 0.18005018 -0.3762876 0.607583 -0.3023768 0.29464033 -0.57050353 0.0010399105
0.1552635 -0.1711829 -0.3790702 -0.03114907 -0.38692692 0.4742369 -0.1941099 0.19896768
-0.561343 -0.2111362 -0.14349905 -0.39311945 -0.107077114 0.40349483 0.4817402 -0.08785654
-0.82315624 0.040607233 -0.28830808 -0.24962033 -0.27701876 -0.82387644 0.002778362 -0.6180209
0.14100724 -0.62333655 0.3583087 -0.06199141 0.28127247 -0.21438527 0.39461648 0.46076342
-0.351142 0.14510876 -0.09332718 -0.7250179 -0.25782958 0.25554532 -0.24804734 0.16316651
-0.038145833 -0.21404134 0.21808812 -0.11023946 0.15331794 -0.03297149 0.80026686 0.17235431
0.48092487 -0.5535333 0.0406259 0.69198143 -0.22731301 0.17125288 -0.088394135 -0.12683699
00000000: 4868 55be 7be3 11be f18d 09bf 8864 7dbe
00000010: 9656 eabd bcc3 74be a811 583d 6fef a83e
00000020: f2f6 943d 8677 8e3d ad4e fbbd 52df a23e
00000030: d631 e4be be97 70be 0cf4 c23e 4dca cc3d
00000040: 872f c2bd 8af1 86be 3816 94be 8fbf 2b3e
00000050: 90f5 c2be 3a21 bf3e 537b 983e 4dee fcbc
00000060: b7d4 bcbe f6d0 c0ba 9371 723e 5c2a 42bc
00000070: 12a2 7ebd 73da 873e 5f75 82be 6cb1 2abf
00000080: cda5 02bf b44e 0e3e c93d 053d 3cbc 2dbf
00000090: 376e 3e3e 5b0b 7f3d 093a 973e e0e4 12bf
000000a0: 769e 81be 5395 dfbe 621d 853d 665b 57bf
000000b0: 63f6 a0bd c31c 24bf 3ca8 07bf b6cf c93d
000000c0: 24fe d1bd d265 8fbe 350c a73d d845 6d3b
000000d0: 4098 993e 7c4b b63e f1cd 7c3e 2b1e 103e
000000e0: 4016 1f3e f11b 2dbe fd5e 123f aa51 033d
000000f0: 849d bbbe e192 003e 5d94 3e3d d98e 19bf
00000100: 1de4 df3e 7027 94be cf48 d5be 9ea0 cb3d
00000110: 1ccf 71bd 276a 2dbe 8d5a b63e 4312 5e3e
00000120: 082f bdbe bbf1 4bbe 549f 1a3e 580d aabe
00000130: e9b4 3cbe 96a4 c7be 8825 933d ce37 863e
00000140: 80c8 913e 0e00 1d3f b640 fc3d a093 7dbe
00000150: 7912 92be ce80 e1bc fcab 393e 2b28 babd
00000160: a8fd f5be b32e 4d3e 0f80 3abe 4973 f23e
00000170: 2bf8 2f3e 5172 25be 7b9a 34be 728f 9e3e
00000180: 05dd bf3d 330c 8d3d b96b 6a3b 1ee9 ffbd
00000190: e4e9 bfbe 66f1 c2bd a622 90be 527c 43be
000001a0: 9dfb 26bf 5742 053c 0a47 7abe 5021 883d
000001b0: 71c4 b5be 2aa5 573e 4d10 8cbe 189e 5a3e
000001c0: a6a9 10bf d77b 073f 0acf 5b3f 6f5f d5bd
000001d0: 872b 093f 57f0 c53d 4f9f 653f 4354 773e
000001e0: e401 78bd 5c15 56be 5f60 c8be 3f4c 6b3d
000001f0: fc16 843e 320e 93be 862d 96be 4ccc 61be
00000200: 70e7 01bf b4f0 583e 3f31 a0be 5f82 33be
00000210: 9215 0fbf 8a77 8e3e 4894 10bf c300 34bc
00000220: 416a 3ebf 135f 383e c5a8 c0be 8f8a 1b3f
00000230: 22d1 9abe 19db 963e 850c 12bf 9b4d 883a
00000240: 65fd 1e3e 924a 2fbe 7d15 c2be 562c ffbc
00000250: 491b c6be 2ecf f23e bfc4 46be 2fbe 4b3e
00000260: 2db4 0fbf 1734 58be 6af1 12be f446 c9be
00000270: 3f4b dbbd e096 ce3e a7a6 f63e 21ee b3bd
00000280: 5eba 52bf c553 263d 1e9d 93be 799c 7fbe
00000290: 67d5 8dbe 91e9 52bf 2e15 363b 9e36 1ebf
000002a0: 3464 103e fc92 1fbf 3d74 b73e b4ea 7dbd
000002b0: f202 903e d087 5bbe 2c0b ca3e 2fe9 eb3e
000002c0: e2c8 b3be 6497 143e 5222 bfbd c69a 39bf
000002d0: 3d02 84be d6d6 823e 1f00 7ebe 1f15 273e
000002e0: ce3e 1cbd a72d 5bbe 7e52 5f3e 3ac5 e1bd
000002f0: 61ff 1c3e 1d0d 07bd 4ade 4c3f a67d 303e
00000300: c93b f63e 5cb4 0dbf 5867 263d b225 313f
00000310: bec4 68be ea5c 2f3e fc07 b5bd 8ee1 01be

weight_logvar f4 [20, 10]
-9.010764 -9.014257 -8.991258 -8.996341 -9.025732 -8.995278 -8.995722 -8.992562
-8.9880905 -9.02104 -8.995427 -9.01041 -8.996368 -8.995934 -9.000992 -8.986955
-9.004603 -8.989058 -8.984166 -8.9873085 -9.001717 -9.004717 -9.00589 -9.018157
-9.007072 -8.99949 -8.990853 -9.010514 -9.010072 -9.024326 -9.017527 -8.995622
-8.999993 -8.988255 -9.020309 -8.987378 -9.003894 -9.0121355 -9.007483 -9.005802
-9.000491 -8.999342 -9.005398 -9.00245 -9.000847 -8.985565 -9.02356 -8.999697
-9.027155 -8.998828 -9.009785 -9.008318 -8.9957 -8.998955 -8.998158 -8.994658
-9.004525 -9.018484 -8.979844 -8.988293 -8.985783 -9.008446 -9.001231 -8.9965
-8.999612 -8.9954815 -9.017702 -8.996078 -9.00241 -9.000622 -9.004834 -9.013034
-9.001347 -8.983611 -8.997525 -9.003071 -8.998016 -9.008627 -9.000093 -9.026367
-9.01479 -9.01744 -9.003179 -8.997659 -8.986427 -9.002284 -9.006396 -8.996609
-9.00889 -8.984248 -9.011429 -9.004136 -8.996318 -9.015019 -9.004618 -9.005405
-8.9867 -8.997795 -8.996308 -8.994759 -8.994866 -9.008895 -8.983511 -8.993189
-9.023012 -9.017965 -9.027287 -9.01415 -8.996209 -8.996015 -9.008279 -9.001272
-8.989555 -9.010329 -9.004633 -9.010413 -8.98462 -8.993567 -9.012101 -9.000858
-8.998834 -8.982879 -8.992904 -9.00625 -8.990132 -8.998793 -8.992659 -9.006937
-9.010784 -8.981992 -9.014072 -9.003393 -8.995658 -9.00783 -9.01433 -9.008867
-8.996019 -8.985829 -9.010383 -8.99491 -9.000588 -9.013442 -9.014377 -9.003295
-9.012607 -8.99927 -9.000292 -9.002475 -9.00362 -9.0030985 -9.025183 -8.981732
-9.017138 -8.980591 -9.002209 -9.009816 -9.00233 -9.005076 -8.994958 -9.007969
-9.000798 -9.003755 -9.003316 -8.997586 -8.997214 -9.002236 -8.992237 -8.996462
-8.992112 -9.016059 -9.001725 -8.998461 -8.991808 -8.993054 -8.989838 -8.999018
-9.000382 -9.014554 -8.989195 -9.002262 -9.006907 -8.996686 -9.007928 -8.999981
-8.9976225 -9.005881 -8.996398 -9.015429 -9.0134 -9.006554 -8.997657 -9.017769
-9.008142 -9.022478 -8.998712 -9.009752 -9.00312 -8.990186 -9.002152 -9.021844
00000000: 172c 10c1 663a 10c1 31dc 0fc1 03f1 0fc1
00000010: 6669 10c1 a9ec 0fc1 7aee 0fc1 89e1 0fc1
00000020: 38cf 0fc1 2e56 10c1 45ed 0fc1 a42a 10c1
00000030: 20f1 0fc1 58ef 0fc1 1004 10c1 91ca 0fc1
00000040: db12 10c1 2ed3 0fc1 25bf 0fc1 04cc 0fc1
00000050: 0807 10c1 5213 10c1 2018 10c1 5f4a 10c1
00000060: f81c 10c1 e9fd 0fc1 89da 0fc1 112b 10c1
00000070: 4129 10c1 a463 10c1 ca47 10c1 11ee 0fc1
00000080: f9ff 0fc1 e4cf 0fc1 3053 10c1 4dcc 0fc1
00000090: f30f 10c1 b531 10c1 a61e 10c1 c417 10c1
000000a0: 0302 10c1 4efd 0fc1 1c16 10c1 090a 10c1
000000b0: 7803 10c1 e0c4 0fc1 8060 10c1 c2fe 0fc1
000000c0: 3a6f 10c1 33fb 0fc1 1428 10c1 1222 10c1
000000d0: 63ee 0fc1 b8fb 0fc1 75f8 0fc1 1fea 0fc1
000000e0: 8912 10c1 b64b 10c1 71ad 0fc1 0cd0 0fc1
000000f0: c4c5 0fc1 9822 10c1 0b05 10c1 aaf1 0fc1
00000100: 69fe 0fc1 7eed 0fc1 8248 10c1 efef 0fc1
00000110: df09 10c1 8c02 10c1 cd13 10c1 6335 10c1
00000120: 8405 10c1 dfbc 0fc1 ddf5 0fc1 940c 10c1
00000130: e0f7 0fc1 5623 10c1 6200 10c1 006c 10c1
00000140: 943c 10c1 6f47 10c1 050d 10c1 69f6 0fc1
00000150: 68c8 0fc1 5b09 10c1 331a 10c1 1cf2 0fc1
00000160: 6a24 10c1 7bbf 0fc1 d02e 10c1 f110 10c1
00000170: ebf0 0fc1 853d 10c1 ea12 10c1 2416 10c1
00000180: 86c9 0fc1 f8f6 0fc1 e1f0 0fc1 88ea 0fc1
00000190: f9ea 0fc1 6f24 10c1 76bc 0fc1 1ae4 0fc1
000001a0: 425e 10c1 9649 10c1 c46f 10c1 f539 10c1
000001b0: 79f0 0fc1 adef 0fc1 e921 10c1 3605 10c1
000001c0: 38d5 0fc1 4f2a 10c1 fa12 10c1 a72a 10c1
000001d0: 01c1 0fc1 a7e5 0fc1 9131 10c1 8403 10c1
000001e0: 39fb 0fc1 dfb9 0fc1 efe2 0fc1 9a19 10c1
000001f0: 95d7 0fc1 0efb 0fc1 eee1 0fc1 6a1c 10c1
00000200: 2c2c 10c1 3db6 0fc1 a439 10c1 e60d 10c1
00000210: 37ee 0fc1 1220 10c1 b23a 10c1 5224 10c1
00000220: b2ef 0fc1 f5c5 0fc1 872a 10c1 27eb 0fc1
00000230: 6902 10c1 0f37 10c1 e33a 10c1 7f0d 10c1
00000240: a333 10c1 03fd 0fc1 3201 10c1 230a 10c1
00000250: d40e 10c1 b10c 10c1 2667 10c1 2db5 0fc1
00000260: 3246 10c1 80b0 0fc1 0c09 10c1 3528 10c1
00000270: 8b09 10c1 cb14 10c1 59eb 0fc1 a420 10c1
00000280: 4503 10c1 610f 10c1 950d 10c1 1df6 0fc1
00000290: 97f4 0fc1 2909 10c1 34e0 0fc1 82f1 0fc1
000002a0: b1df 0fc1 c741 10c1 1107 10c1 b2f9 0fc1
000002b0: 72de 0fc1 8de3 0fc1 60d6 0fc1 fafb 0fc1
000002c0: 9101 10c1 9d3b 10c1 bed3 0fc1 4409 10c1
000002d0: 4b1c 10c1 6df2 0fc1 7920 10c1 ecff 0fc1
000002e0: 43f6 0fc1 1718 10c1 3ff1 0fc1 323f 10c1
000002f0: e336 10c1 d81a 10c1 67f6 0fc1 c848 10c1
00000300: 5a21 10c1 125c 10c1 b9fa 0fc1 f227 10c1
00000310: c80c 10c1 cdd7 0fc1 d108 10c1 7959 10c1

bias_mu f4 [20]
-0.14814167 -0.19762842 0.023668092 -0.14544392 -0.21353097 0.07778332 -0.18087423 -0.22216947
-0.25392878 0.13589197 -0.11262579 0.2549211 -0.17866458 -0.18720023 0.048645183 -0.20305727
-0.19002733 0.11132622 -0.20243666 0.3395742
00000000: 73b2 17be 1b5f 4abe 96e3 c13c 40ef 14be
00000010: dda7 5abe dc4c 9f3d 1837 39be 6580 63be
00000020: f402 82be 4427 0b3e 5aa8 e6bd 0585 823e
00000030: d9f3 36be 6bb1 3fbe 2c40 473d 3fee 4fbe
00000040: 8696 42be 00ff e33d 8e4b 4fbe abdc ad3e

bias_logvar f4 [20]
-8.996179 -9.006946 -8.996955 -9.002098 -8.991472 -8.99838 -9.007695 -8.984684
-9.010936 -8.990949 -8.999225 -8.995201 -9.005585 -9.004291 -9.004283 -9.012346
-8.990369 -8.997102 -9.000771 -8.997732
00000000: 59f0 0fc1 731c 10c1 87f3 0fc1 9808 10c1
00000010: 12dd 0fc1 5df9 0fc1 851f 10c1 44c1 0fc1
00000020: cb2c 10c1 edda 0fc1 d3fc 0fc1 58ec 0fc1
00000030: e016 10c1 9311 10c1 8b11 10c1 9232 10c1
00000040: 8dd8 0fc1 21f4 0fc1 2803 10c1 b6f6 0fc1

posterior_weight_variance f4 [20, 10]
0.00017063084 9.6319185e-05 0.00017367958 0.00018888678 0.00017423434 0.00021932443 0.00019025983 0.00012285565
0.00021112342 0.00011832358 0.00017326754 9.6691656e-05 0.00017279283 0.00018896363 0.00017860069 0.00022115694
0.00018857759 0.00012328637 0.00021195479 0.00012238324 0.00017218318 9.724431e-05 0.00017115375 0.00018480972
0.00017751785 0.00021840185 0.00019118919 0.00012066818 0.00020653328 0.00011793634 0.00016948117 9.813743e-05
0.00017216855 0.00019041971 0.00017518153 0.00022107015 0.00018871183 0.00012047277 0.00020706998 0.00012014531
0.00017239308 9.7769174e-05 0.00017123672 0.0001877461 0.00017862448 0.00022147056 0.00018504063 0.000121980745
0.0002030351 0.00012098232 0.00017079747 9.689267e-05 0.00017290674 0.00018839467 0.00017910617 0.00021945988
0.00018859256 0.00011971073 0.00021287666 0.00012226243 0.00017494855 9.688051e-05 0.00017195164 0.00018886123
0.00017884803 0.00021928031 0.00018612605 0.00012242302 0.00020812177 0.00012076473 0.00017164694 9.64375e-05
0.00017193385 0.00019130629 0.00017921906 0.00021762279 0.00018982423 0.00012089844 0.00020860447 0.000117695876
0.00016994591 9.601842e-05 0.00017161731 0.000188638 0.00018121998 0.00021779245 0.00018824016 0.00012235799
0.00020678091 0.00012275855 0.00017051729 9.730209e-05 0.00017279902 0.00018539086 0.00017795256 0.0002171151
0.00019198416 0.00012221286 0.00020939548 0.000121474666 0.00017336667 9.683692e-05 0.00017502702 0.00018948269
0.00017471497 0.00021440382 0.00018434896 0.00012023037 0.00020941817 0.000121322635 0.0001710559 9.757844e-05
0.00017397596 0.0001862662 0.00017796045 0.00021602932 0.00019238822 0.0001227307 0.00020612667 0.00012073662
0.00017267812 9.938983e-05 0.00017339186 0.00018702334 0.00018054958 0.00021855539 0.0001908448 0.00012110135
0.00020639003 0.00012303592 0.0001700681 9.7371485e-05 0.0001729174 0.00018672935 0.00017623689 0.00021636336
0.00019021171 0.00012368443 0.00020647117 0.00012146169 0.00017237672 9.639874e-05 0.0001697109 0.00018757686
0.00017653649 0.00021845022 0.00018939447 0.00012164222 0.00020787228 0.00012046899 0.00016818815 9.950377e-05
0.00016924282 0.00019188503 0.00017838161 0.00021616046 0.00018900687 0.000121328616 0.00020968201 0.00011988039
0.00017234952 9.733585e-05 0.00017159479 0.00018865168 0.00017927561 0.00021781298 0.00019092394 0.00012238167
0.0002102763 0.000118920194 0.00017218145 9.7852535e-05 0.00017358083 0.00018950833 0.00018060414 0.00021850818
0.00018937701 0.00012018201 0.00021089044 0.00012057439 0.0001712905 9.802729e-05 0.00017080488 0.00018819993
0.0001792013 0.00021701107 0.0001901319 0.000120076824 0.00020584729 0.00012005007 0.00017289122 9.59817e-05
0.00017077079 0.00018401738 0.00017900625 0.00021617908 0.0001888581 0.00012314675 0.00020817544 0.00011822866
00000000: 5eeb 3239 f8fe c938 c21d 3639 e90f 4639
00000010: adb2 3639 74fa 6539 7c80 4739 d0d2 0039
00000020: 0361 5d39 7d24 f838 27af 3539 f0c6 ca38
00000030: b92f 3539 8a24 4639 c246 3b39 5de6 6739
00000040: e9bc 4539 6f46 0139 2e40 5e39 0054 0039
00000050: 128c 3439 a4ef cb38 bc77 3339 7bc9 4139
00000060: 1624 3a39 cd02 6539 f579 4839 3c0f fd38
00000070: db90 5839 9754 f738 c1b6 3139 22cf cd38
00000080: 2588 3439 67ab 4739 efb0 3739 11cf 6739
00000090: f2e0 4539 53a6 fc38 ed20 5939 86f6 fb38
000000a0: 6ac4 3439 6d09 cd38 028e 3339 b6dd 4439
000000b0: 254d 3b39 8d3a 6839 7707 4239 eacf ff38
000000c0: d2e5 5439 e3b7 fd38 1918 3339 db32 cb38
000000d0: 4d4e 3539 cf8b 4539 72ce 3b39 d01e 6639
000000e0: eec0 4539 350d fb38 a537 5f39 9233 0039
000000f0: 6572 3739 542c cb38 eb4d 3439 0d09 4639
00000100: 2789 3b39 9cee 6539 d52a 4339 ae5e 0039
00000110: 433b 5a39 1243 fd38 20fc 3339 7d3e ca38
00000120: 2449 3439 6499 4839 c0ec 3b39 ac31 6439
00000130: 8e0b 4739 db8a fd38 d6bc 5a39 7ed3 f638
00000140: 8233 3239 7f5d c938 2cf4 3339 21cd 4539
00000150: de05 3e39 375f 6439 5562 4539 394d 0039
00000160: 54d3 5839 bfb8 0039 e3cc 3239 a90e cc38
00000170: 6231 3539 7b65 4239 c798 3a39 64a9 6339
00000180: 5b4f 4939 4426 0039 2c91 5b39 37c0 fe38
00000190: c3c9 3539 ed14 cb38 7587 3739 dfaf 4639
000001a0: b133 3739 96d1 6039 cc4d 4139 3024 fc38
000001b0: 4397 5b39 986e fe38 785d 3339 07a3 cc38
000001c0: 516d 3639 7450 4339 e59a 3a39 ee85 6239
000001d0: d2bb 4939 45b1 0039 b523 5839 fb33 fd38
000001e0: ee10 3539 826f d038 86d0 3539 b21b 4439
000001f0: e951 3d39 042c 6539 831d 4839 cbf7 fd38
00000200: 676a 5839 3403 0139 4f54 3239 eb33 cc38
00000210: 2951 3539 c7cc 4339 3bcc 3839 99df 6239
00000220: 9173 4739 49b1 0139 2f80 5839 40b9 fe38
00000230: 06c0 3439 ae29 ca38 6cf4 3139 48b0 4439
00000240: a71c 3939 c90f 6539 3198 4639 2b1a ff38
00000250: 4af8 5939 4ca4 fc38 aa5b 3039 aeac d038
00000260: c676 3139 bf34 4939 f30b 3b39 22a9 6239
00000270: 2530 4639 ce71 fe38 16de 5b39 4b68 fb38
00000280: b9b8 3439 c920 cc38 20ee 3339 cdd0 4539
00000290: eefb 3b39 ba64 6439 c132 4839 9453 0039
000002a0: 9d7d 5c39 cb64 f938 9b8b 3439 2e36 cd38
000002b0: 4003 3639 c1b6 4639 8e60 3d39 581f 6539
000002c0: 8193 4639 3a0a fc38 7922 5d39 e2dc fc38
000002d0: 729c 3339 0094 cd38 161a 3339 8957 4539
000002e0: fce7 3b39 778d 6339 255e 4739 c1d1 fb38
000002f0: b6d8 5739 64c3 fb38 224a 3539 c849 c938
00000300: ef10 3339 caf4 4039 a0b3 3b39 21ae 6239
00000310: 3608 4639 f420 0139 ab49 5a39 87f1 f738

posterior_weight_mean f4 [20, 10]
-0.24637686 -0.12676467 -0.63464427 -0.30557963 -0.1377186 -0.31790048 0.065358505 0.32798585
0.09457152 0.06883565 -0.14506602 0.2830442 -0.52641857 -0.2901435 0.45828968 0.13299088
-0.11747808 -0.26199123 -0.37605688 0.16596705 -0.45015734 0.3321508 0.35175762 -0.038127836
-0.4438974 -0.0019564838 0.29334623 -0.01178031 -0.08082804 0.2625607 -0.3012263 -0.5932705
-0.6027779 0.17161605 0.03915241 -0.9025902 0.23041263 0.0618957 0.38403046 -0.5677977
-0.29928792 -0.3885494 0.076770075 -1.0388416 -0.09459628 -0.8525971 -0.656557 0.097953595
-0.13331576 -0.27714163 0.09642752 0.003221402 0.35432518 0.439678 0.29714212 0.18718038
0.19248822 -0.16804467 0.74339974 0.031724665 -0.43320033 0.11171955 0.054955605 -0.7407348
0.5263156 -0.38484523 -0.5161297 0.09883505 -0.076757304 -0.16757734 0.42105144 0.19296093
-0.43642482 -0.24594715 0.18174055 -0.4417277 -0.22832684 -0.38760436 0.09341733 0.25940013
0.3366108 0.54567885 0.14547946 -0.30580148 -0.34338152 -0.03661046 0.2246548 -0.09035536
-0.6246779 0.19827576 -0.21531284 0.42133707 0.20297047 -0.19952074 -0.21227825 0.41187662
0.11607315 0.06846058 0.004650754 -0.1236482 -0.44312513 -0.084694356 -0.33250347 -0.23574644
-0.7850754 0.010817318 -0.30282485 0.06607375 -0.46158648 0.20838633 -0.3234045 0.1899599
-0.66744 0.65354806 1.0334381 -0.1385644 0.663879 0.09607397 1.1662221 0.23900379
-0.071580574 -0.18602014 -0.46224517 0.070939526 0.3105122 -0.3819915 -0.36341724 -0.2191921
-0.65976596 0.20963782 -0.36988127 -0.15597814 -0.6601575 0.34361684 -0.67974395 -0.014611752
-0.9215756 0.17897743 -0.48924577 0.6012223 -0.3574695 0.26216158 -0.6738357 0.001284181
0.18687397 -0.2276685 -0.46966618 -0.030963482 -0.50307894 0.46927217 -0.22947648 0.1770351
-0.66301596 -0.2607312 -0.17271437 -0.52283794 -0.13266805 0.40109077 0.6263543 -0.08693678
-0.9731343 0.03613102 -0.3405277 -0.30825508 -0.33341768 -1.0957327 0.0034423776 -0.6143387
0.18333636 -0.6168109 0.4235921 -0.055157978 0.33221778 -0.26474345 0.4749574 0.6128025
-0.43506327 0.1442442 -0.121343166 -0.7174278 -0.30480582 0.22737607 -0.29297477 0.20149362
-0.045912035 -0.284669 0.27021015 -0.10958265 0.19934262 -0.032626316 0.9460745 0.15335537
0.56803215 -0.6835559 0.048897024 0.92031604 -0.28163975 0.17023253 -0.114929266 -0.12550914
00000000: 374a 7cbe 99ce 01be 0c78 22bf ef74 9cbe
00000010: 1b06 0dbe dac3 a2be aeda 853d c3ed a73e
00000020: b7ae c13d b5f9 8c3d 308c 14be 2beb 903e
00000030: 5ec3 06bf b08d 94be f2a4 ea3e c32e 083e
00000040: 5998 f0bd b723 86be 878a c0be 44f3 293e
00000050: 067b e6be ab0f aa3e 9319 b43e ef2b 1cbd
00000060: 8546 e3be 5a38 00bb 7a31 963e 3402 41bc
00000070: 2c89 a5bd 5b6e 863e 553a 9abe 93e0 17bf
00000080: a74f 1abf 1ebc 2f3e 475e 203d 2710 67bf
00000090: 4af1 6b3e 5886 7d3d a49f c43e 315b 11bf
000000a0: 443c 99be f2ef c6be a139 9d3d c3f8 84bf
000000b0: b2bb c1bd ce43 5abf 1f14 28bf e59b c83d
000000c0: ed83 08be 82e5 8dbe cb7b c53d 281e 533b
000000d0: 1c6a b53e 7a1d e13e 0323 983e 37ac 3f3e
000000e0: a21b 453e e713 2cbe 724f 3e3f b9f1 013d
000000f0: 6fcc ddbe 38cd e43d 2119 613d cca0 3dbf
00000100: 9fbc 063f 6f0a c5be 1321 04bf 086a ca3d
00000110: ef32 9dbd 6599 2bbe 0e94 d73e 8d97 453e
00000120: 1373 dfbe 92d9 7bbe 321a 3a3e 222a e2be
00000130: 83ce 69be 1474 c6be 9651 bf3d 18d0 843e
00000140: 4058 ac3e 9cb1 0b3f 91f8 143e 0392 9cbe
00000150: b4cf afbe daf4 15bd e80b 663e 3b0c b9bd
00000160: e4ea 1fbf cd08 4b3e f87a 5cbe 7eb9 d73e
00000170: 7ed7 4f3e 2a4f 4cbe 785f 59be 7ee1 d23e
00000180: c2b7 ed3d 1035 8c3d 5a65 983b 443b fdbd
00000190: 4ce1 e2be 3c74 adbd e53d aabe 8467 71be
000001a0: b4fa 48bf 1f3b 313c dc0b 9bbe ad51 873d
000001b0: 1055 ecbe 3a63 553e 4695 a5be d984 423e
000001c0: 59dd 2abf ed4e 273f b347 843f d3e3 0dbe
000001d0: f9f3 293f 6ec2 c43d c446 953f 69bd 743e
000001e0: d698 92bd 107c 3ebe 66ab ecbe be48 913d
000001f0: 75fb 9e3e 6494 c3be d311 babe e573 60be
00000200: 6ce6 28bf 4cab 563e 1461 bdbe bcb8 1fbe
00000210: 1500 29bf 8cee af3e b303 2ebf 2166 6fbc
00000220: 61ec 6bbf dc45 373e 6c7e fabe b4e9 193f
00000230: 3e06 b7be 0b3a 863e 7f80 2cbf f751 a83a
00000240: e45b 3f3e ee21 69be 1678 f0be 21a7 fdbc
00000250: c8c9 00bf 7144 f03e e2fb 6abe b048 353e
00000260: 6abb 29bf 8f7e 85be 09dc 30be b5d8 05bf
00000270: 22da 07be c55b cd3e c158 203f e90b b2bd
00000280: 541f 79bf 1ffe 133d a659 aebe 9cd3 9dbe
00000290: b9b5 aabe f840 8cbf 8399 613b 4d45 1dbf
000002a0: 87bc 3b3e 52e7 1dbf 10e1 d83e 55ed 61bd
000002b0: 7318 aa3e 748c 87be 9e2d f33e a0e0 1c3f
000002c0: 9dc0 debe c0b4 133e c482 f8bd 59a9 37bf
000002d0: 820f 9cbe 46d5 683e ca00 96be 5854 4e3e
000002e0: 420e 3cbd 23c0 91be fc58 8a3e de6c e0bd
000002f0: 7920 4c3e 2ca3 05bd f031 723f 3109 1d3e
00000300: 8e6a 113f 85fd 2ebf 3f48 483d d599 6b3f
00000310: 1633 90be 7051 2e3e 0960 ebbd 7885 00be

dropout_mu f4 [20]
1.2042662 0.9413872 1.2880247 1.1755435 0.89314467 1.2947218 1.1415726 0.9443081
1.0203655 1.2623911 1.0892218 1.3619078 1.177751 0.9356623 1.2346078 1.0830724
0.95757985 1.304014 1.0594362 1.4277953
00000000: 6525 9a3f c0fe 703f fedd a43f 3678 963f
00000010: 21a5 643f 72b9 a53f 0d1f 923f 2dbe 713f
00000020: 569b 823f 0896 a13f 9f6b 8b3f ff52 ae3f
00000030: 8bc0 963f 9187 6f3f a107 9e3f 1ea2 8a3f
00000040: f423 753f eee9 a63f 9b9b 873f ffc1 b63f

dropout_logvar f4 [20]
-8.99209 -9.002152 -8.994667 -8.998378 -8.9928255 -9.015031 -9.01043 -9.000498
-9.00098 -9.0221615 -9.00637 -9.013158 -8.99859 -8.993787 -9.017341 -9.016223
-8.995045 -9.007767 -9.006726 -9.011525
00000000: 9adf 0fc1 d108 10c1 28ea 0fc1 5bf9 0fc1
00000010: 9de2 0fc1 913d 10c1 b92a 10c1 0a02 10c1
00000020: 0404 10c1 c65a 10c1 171a 10c1 e535 10c1
00000030: 3afa 0fc1 8de6 0fc1 0747 10c1 7342 10c1
00000040: b4eb 0fc1 d01f 10c1 8d1b 10c1 352f 10c1

weight_mu f4 [5, 20]
-0.30579147 0.10890222 -0.14728566 -0.3261027 -0.0739206 -0.5294547 -0.12565985 -0.15340978
-0.38631922 -0.321527 -0.119799376 -0.60286915 -0.29479027 -0.08143998 -0.4100148 -0.46724048
0.006377023 0.70980006 -0.06775547 0.2667786 -0.16058324 0.066456504 0.25062865 0.33179313
0.3847793 0.3465395 -0.14758544 -0.123829 0.2541582 0.606238 0.06378634 -0.4666917
0.019141914 0.22425912 0.06286532 -0.4443484 -0.18815437 0.20060417 -0.03542141 0.35173357
0.105740815 -0.29747424 0.28833777 0.09360116 -0.009575059 0.31109747 0.26769203 0.30731642
-0.00035793078 0.18280338 0.3624312 0.2788757 0.17232192 -0.06193234 0.24657276 0.031364568
0.3730594 0.2972167 0.34857717 0.14646608 -0.21719332 0.07243157 0.12549232 0.11008819
-0.1332374 0.05686869 -0.08128594 0.23050557 -0.11890717 -0.08098019 -0.66324174 0.35796994
-0.17221637 -0.41499946 0.12013295 -0.17610872 0.05650252 -0.30332518 -0.2335152 -0.45690402
-0.35786068 -0.34725347 -0.33854634 -0.044459514 0.3304398 -0.35540298 -0.2266355 0.1931257
-0.07711454 -0.58106214 -0.044576492 -0.031158544 -0.19999789 -0.002080584 -0.31771973 -0.1386996
0.15156712 -0.38815627 -0.0786278 -0.6425871
00000000: b390 9cbe 2108 df3d 0dd2 16be eff6 a6be
00000010: af63 97bd 588a 07bf faac 00be 7417 1dbe
00000020: a2cb c5be 309f a4be 6059 f5bd a255 1abf
00000030: c0ee 96be 01ca a6bd 76ed d1be 253a efbe
00000040: 59f6 d03b 75b5 353f 61c3 8abd 3497 883e
00000050: ef6f 24be 591a 883d 6652 803e cae0 a93e
00000060: cb01 c53e a06d b13e a320 17be 0f9a fdbd
00000070: 0621 823e 6a32 1b3f 6aa2 823d 37f2 eebe
00000080: 81cf 9c3c 2fa4 653e 88bf 803d a281 e3be
00000090: 8aab 40be 2e6b 4d3e 0a16 11bd 6c16 b43e
000000a0: a48e d83d 8b4e 98be 02a1 933e f7b1 bf3d
000000b0: b5e0 1cbc 2b48 9f3e ee0e 893e 9458 9d3e
000000c0: a8a8 bbb9 cf30 3b3e 9590 b93e ccc8 8e3e
000000d0: 2875 303e c4ac 7dbd 927d 7c3e 2278 003d
000000e0: a401 bf3e ca2c 983e b578 b23e 34fb 153e
000000f0: ed67 5ebe 0157 943d 0f81 003e eb75 e13d
00000100: 636f 08be 25ef 683d 3e79 a6bd a709 6c3e
00000110: 9a85 f3bd f1d8 a5bd 36ca 29bf d647 b73e
00000120: 7d59 30be cf7a d4be 4408 f63d d855 34be
00000130: 306f 673d 704d 9bbe 9c1e 6fbe 53ef e9be
00000140: 8439 b7be 35cb b1be f255 adbe 2e1b 36bd
00000150: 682f a93e 61f7 b5be 2313 68be bec2 453e
00000160: 3aee 9dbd 7dc0 14bf d795 36bd 3440 ffbc
00000170: 3fcc 4cbe 685a 08bb 29ac a2be 4507 0ebe
00000180: 6934 1b3e 6bbc c6be 9d07 a1bd 9780 24bf

weight_logvar f4 [5, 20]
-9.010897 -9.0163145 -8.991034 -8.999675 -9.017739 -8.998734 -9.005927 -9.005384
-9.007494 -9.003715 -9.01369 -9.011276 -9.007218 -9.004476 -8.993814 -8.992976
-9.010464 -8.996984 -8.991442 -9.019142 -8.985122 -8.988832 -9.000404 -8.9991255
-8.996961 -8.99453 -9.009766 -8.987329 -9.0060835 -8.994202 -8.990453 -9.0121355
-8.995717 -8.993179 -8.998672 -9.00107 -8.997677 -8.997065 -9.014889 -9.013545
-9.014965 -8.992246 -8.996099 -9.0164995 -9.012455 -9.003458 -9.000473 -8.9993515
-9.009365 -8.99807 -9.000388 -8.996191 -8.988887 -9.013819 -9.012633 -9.001672
-9.009616 -9.011075 -8.995457 -8.992194 -9.01028 -8.997173 -8.995816 -9.000105
-9.008294 -8.995096 -9.013936 -9.002495 -8.985996 -8.9905205 -8.99275 -9.016787
-9.010588 -8.988429 -8.993978 -8.993227 -9.011026 -8.993443 -9.008469 -9.014366
-8.9932575 -8.993455 -8.991848 -9.002818 -8.994984 -8.98678 -9.021985 -8.988542
-9.000739 -8.995915 -9.006295 -9.001174 -8.999231 -9.002105 -8.99711 -8.986404
-8.993482 -9.005402 -9.004564 -9.009261
00000000: a22c 10c1 d342 10c1 46db 0fc1 abfe 0fc1
00000010: a948 10c1 d1fa 0fc1 4718 10c1 0e16 10c1
00000020: b21e 10c1 370f 10c1 1338 10c1 302e 10c1
00000030: 911d 10c1 5512 10c1 aae6 0fc1 3be3 0fc1
00000040: dc2a 10c1 a5f3 0fc1 f2dc 0fc1 684e 10c1
00000050: 0fc3 0fc1 42d2 0fc1 a801 10c1 6bfc 0fc1
00000060: 8df3 0fc1 98e9 0fc1 0028 10c1 19cc 0fc1
00000070: eb18 10c1 40e8 0fc1 e5d8 0fc1 b531 10c1
00000080: 75ee 0fc1 10e4 0fc1 8ffa 0fc1 6204 10c1
00000090: 7cf6 0fc1 faf3 0fc1 fc3c 10c1 7b37 10c1
000000a0: 4c3d 10c1 3de0 0fc1 06f0 0fc1 9543 10c1
000000b0: 0433 10c1 2a0e 10c1 f001 10c1 58fd 0fc1
000000c0: 5c26 10c1 18f8 0fc1 9701 10c1 66f0 0fc1
000000d0: 7bd2 0fc1 9a38 10c1 bf33 10c1 d906 10c1
000000e0: 6327 10c1 5d2d 10c1 64ed 0fc1 07e0 0fc1
000000f0: 1b2a 10c1 6cf4 0fc1 ddee 0fc1 6e00 10c1
00000100: f921 10c1 eaeb 0fc1 1539 10c1 380a 10c1
00000110: a4c6 0fc1 2cd9 0fc1 4ee2 0fc1 c244 10c1
00000120: 5e2b 10c1 9bd0 0fc1 55e7 0fc1 42e4 0fc1
00000130: 2a2d 10c1 24e5 0fc1 b022 10c1 d83a 10c1
00000140: 62e4 0fc1 31e5 0fc1 9cde 0fc1 8b0b 10c1
00000150: 74eb 0fc1 dac9 0fc1 0d5a 10c1 11d1 0fc1
00000160: 0703 10c1 45ef 0fc1 c919 10c1 cf04 10c1
00000170: dafc 0fc1 9f08 10c1 2af4 0fc1 50c8 0fc1
00000180: 4de5 0fc1 2016 10c1 b212 10c1 ef25 10c1

bias_mu f4 [5]
-0.12573393 0.12460742 0.17735937 0.023335613 -0.2146292
00000000: 65c0 00be 2d32 ff3d b29d 353e 542a bf3c
00000010: c2c7 5bbe

bias_logvar f4 [5]
-9.014529 -8.985533 -8.99404 -9.0112505 -8.993328
00000000: 833b 10c1 bec4 0fc1 96e7 0fc1 152e 10c1
00000010: ace4 0fc1

posterior_weight_variance f4 [5, 20]
0.00017703771 0.00010759736 0.00020658215 0.00017059743 9.671405e-05 0.0002071386 0.00015987598 0.00010945612
0.00012753055 0.00019594208 0.00014442338 0.00022633841 0.00016995151 0.00010755848 0.00018927788 0.00014578903
0.000111983834 0.00021049411 0.00013970639 0.00024681416 0.00018165911 0.000110595254 0.000204656 0.00017069122
9.874685e-05 0.00020800899 0.00015926357 0.000111450274 0.00012770928 0.0001978189 0.00014781851 0.00022614184
0.00017191612 0.00010878106 0.00018835832 0.0001446135 0.00011342549 0.00021047003 0.00013646875 0.00024820026
0.00017631767 0.000110219706 0.00020553923 0.0001677497 9.722639e-05 0.00020615975 0.0001607512 0.00011011955
0.00012728991 0.0001970502 0.00014635909 0.00022977433 0.00017309483 0.00010655818 0.0001857476 0.00014452355
0.000112080925 0.00020754253 0.00013914838 0.000253555 0.00017714626 0.00010967664 0.00020559643 0.00017052263
9.763205e-05 0.00020788943 0.00015860054 0.000109773326 0.00013029977 0.00019854303 0.00014748596 0.00022509115
0.000169379 0.000109300905 0.0001892447 0.00014574965 0.00011192089 0.00021123454 0.00013734851 0.00024799778
0.00018018874 0.000110087 0.00020641541 0.00017006042 9.8941666e-05 0.00020962732 0.00015732973 0.00011131551
0.00012839274 0.00019747973 0.00014549513 0.00022863109 0.00017131363 0.00010781368 0.00018865407 0.00014674726
0.00011390215 0.00020872428 0.00013788509 0.00024927015
00000000: 33a3 3939 e5a5 e138 f99d 5839 66e2 3239
00000010: f6d2 ca38 5833 5939 62a4 2739 cf8b e538
00000020: b9b9 0539 cd75 4d39 5b70 1739 4155 6d39
00000030: 0335 3239 0591 e138 e578 4639 f2de 1839
00000040: ddd8 ea38 15b8 5c39 267e 1239 d666 8139
00000050: bf7b 3e39 60ef e738 ed98 5639 93fb 3239
00000060: 5016 cf38 fd1c 5a39 fdff 2639 69ba e938
00000070: b3e9 0539 9b6d 4f39 bbff 1a39 7d20 6d39
00000080: 6244 3439 6321 e438 0d82 4539 64a3 1739
00000090: d9de ed38 9eb1 5c39 0d19 0f39 e020 8239
000000a0: eae1 3839 c125 e738 0486 5739 f8e5 2f39
000000b0: 05e6 cb38 962c 5839 528f 2839 fcef e638
000000c0: 2079 0539 439f 4e39 f877 1939 94ef 7039
000000d0: ca80 3539 fd77 df38 3ec5 4239 3f8b 1739
000000e0: fd0c eb38 c69f 5939 5ce8 1139 93ef 8439
000000f0: 56c0 3939 3302 e638 5f95 5739 52ce 3239
00000100: cfbf cc38 e5fc 5939 024e 2639 1b36 e638
00000110: 14a1 0839 fd2f 5039 76a6 1a39 7206 6c39
00000120: 549b 3139 7a38 e538 fd6f 4639 60d4 1839
00000130: 12b7 ea38 d77e 5d39 3605 1039 b305 8239
00000140: 0cf1 3c39 82de e638 3771 5839 3f52 3239
00000150: e77e cf38 68cf 5b39 e1f8 2439 0f72 e938
00000160: 2aa1 0639 9012 4f39 0d90 1839 b1bc 6f39
00000170: a7a2 3339 071a e238 71d1 4539 2be0 1939
00000180: c0de ee38 ffdc 5a39 3f95 1039 79b0 8239

posterior_weight_mean f4 [5, 20]
-0.36825433 0.102519155 -0.18970756 -0.38334793 -0.06602179 -0.68549657 -0.14344984 -0.1448661
-0.3941868 -0.40589282 -0.1304881 -0.82105225 -0.34718952 -0.07620032 -0.50620747 -0.5060553
0.006106509 0.9255892 -0.0717826 0.3809052 -0.19338498 0.0625613 0.3228159 0.39003727
0.34366357 0.44867226 -0.16847949 -0.11693273 0.25933427 0.76530945 0.069477476 -0.6355911
0.022544408 0.20983082 0.07761401 -0.4812615 -0.18017283 0.26159063 -0.037526723 0.5022035
0.1273401 -0.28003842 0.37138617 0.11003224 -0.008551912 0.4027847 0.30558988 0.2902014
-0.0003652202 0.23076935 0.39476797 0.379803 0.2029523 -0.05794776 0.30442065 0.0339701
0.35723415 0.38757473 0.36929527 0.20912357 -0.26155856 0.06818616 0.1616372 0.12941347
-0.11900028 0.07362913 -0.0927938 0.21766828 -0.12132877 -0.10222867 -0.7224174 0.48752207
-0.20282799 -0.38829935 0.14831708 -0.1907385 0.054105677 -0.39554027 -0.24739446 -0.6523654
-0.43095952 -0.32689998 -0.43605602 -0.052264094 0.29513055 -0.460148 -0.25872087 0.18237016
-0.07868501 -0.73352766 -0.04855369 -0.042435065 -0.2355477 -0.001946724 -0.39225927 -0.15022172
0.14513762 -0.5061612 -0.08330114 -0.91748285
00000000: d58b bcbe 90f5 d13d b342 42be 2e46 c4be
00000010: 6f36 87bd b47c 2fbf 84e4 12be c757 14be
00000020: dad2 c9be 2fd1 cfbe ac9e 05be 7b30 52bf
00000030: d3c2 b1be ea0e 9cbd d096 01bf d78c 01bf
00000040: 1c19 c83b 6af3 6c3f c102 93bd 0206 c33e
00000050: b606 46be 2420 803d 2048 a53e f7b2 c73e
00000060: acf4 af3e 5fb8 e53e e385 2cbe 6d7a efbd
00000070: 76c7 843e 52eb 433f 354a 8e3d 19b6 22bf
00000080: 0daf b83c e4dd 563e 18f4 9e3d e867 f6be
00000090: 3a7f 38be 35ef 853e 9fb5 19bd 6990 003f
000000a0: 7165 023e 3261 8fbe 5426 be3e 9558 e13d
000000b0: 521d 0cbc cc39 ce3e 4776 9c3e 4795 943e
000000c0: 077b bfb9 cd4e 6c3e 071f ca3e 8a75 c23e
000000d0: bad2 4f3e a15a 6dbd 06dd 9b3e 3b24 0b3d
000000e0: 65e7 b63e 3270 c63e 4514 bd3e 7d24 563e
000000f0: 01eb 85be 2fa5 8b3d 3984 253e f784 043e
00000100: 6bb6 f3bd dfca 963d ad0a bebd 6fe4 5e3e
00000110: 387b f8bd 445d d1bd 59f0 38bf 7e9c f93e
00000120: 24b2 4fbe 2ccf c6be 6fe0 173e f450 43be
00000130: ea9d 5d3d 4184 cabe f954 7dbe 6b01 27bf
00000140: baa6 dcbe 6f5f a7be bc42 dfbe e012 56bd
00000150: 5a1b 973e 8598 ebbe 1077 84be 3ebf 3a3e
00000160: 9b25 a1bd 78c8 3bbf 3ce0 46bd 64d0 2dbd
00000170: 6b33 71be 3829 ffba 35d6 c8be b9d3 19be
00000180: f59e 143e c893 01bf ca99 aabd 28e0 6abf
