trainedModels/dense_BBB_model.pth (torch, 387087 bytes, 25 tensors)

fc1.weight_mu f4 [300, 4]
-0.0002487627 -0.05114643 0.19081691 0.055428196 -0.032931022 -0.022128602 -0.06413445 -2.508186e-05
-0.02212348 -0.0002585369 -0.01702989 0.03407716 0.00017326957 7.3896284e-05 0.00010876721 0.00025516193
0.030408692 0.043234743 -0.15793875 -0.05660345 0.00039721484 -9.858537e-05 -0.08324366 -0.054014668
0.020692786 -6.823284e-05 -0.028506935 0.00023948905 -0.061085712 0.1120944 -0.040046092 0.10166477
-0.03939763 0.06392451 -0.037949227 -0.020800604 -0.049015254 -0.019764602 -0.04318304 0.018021584
0.03801645 -0.03489658 -0.087708704 0.00012414945 -0.1097302 -0.053016722 0.09051055 0.017430367
-0.00024632056 -0.09028145 0.030249754 0.09759234 -0.017746098 0.05105206 0.07351033 0.039397836
0.031379998 0.047721382 0.05264847 0.04863873 -0.00035801975 -0.121391475 0.01618522 -1.4752406e-05
0.14291738 -0.044841096 -0.1525201 -0.08745257 -0.02710017 -0.044805814 -0.033849142 0.15299061
-0.00016566936 4.4893855e-05 0.017361874 -5.7153073e-05 -0.022764534 0.026694663 0.02632098 0.00012156554
0.19102474 0.049754508 -0.07399965 0.00018363877 -0.09227569 -0.13320725 0.012492818 0.093060665
0.00022584642 -3.4955524e-06 4.607835e-06 5.6199817e-05 -0.060536478 9.512411e-05 -3.9936527e-05 -0.039120372
-0.13062407 -0.04501508 -0.036936816 -0.035423756 0.043088138 -0.02979166 0.049101204 0.11475929
0.00017845596 -0.07655502 0.07034184 0.03904938 0.039082196 -0.10155231 0.13383359 -0.00016070416
-5.992403e-05 -9.8882294e-05 0.05937187 0.00011094218 -0.00015130549 0.0001995126 0.000109587396 0.107758686
-0.061158177 -0.0876066 9.778394e-06 -0.019813156 -0.00013960284 0.0001651015 0.075127475 -0.10999101
-0.16504455 0.032571275 -0.05670936 -0.025205003 -0.2667059 0.051793694 0.0001541058 0.01587308
0.06619976 0.00019277737 0.11957115 -0.036682352 -0.1257092 -0.030894725 -0.07939472 0.054832794
-0.10359853 -0.037274092 0.03169617 -0.07196822 -0.081012994 0.035348363 4.11953e-05 -0.0710991
-0.02514164 0.030261613 -0.028979138 0.030554175 0.16920434 -7.18516e-05 -0.02252516 0.1213073
-0.00012358457 0.018406535 -0.033310402 -0.0044805286 -0.061615035 0.10213382 -0.00011431739 -0.00016910897
0.030034253 0.01828358 -0.021433605 -0.019359041 0.08737026 -1.5274487e-05 -0.00017637918 -8.950956e-05
0.00035874403 0.030695647 -0.03770864 -9.7406744e-05 -0.016122092 -0.052320987 -6.6537235e-05 0.00010320663
0.044087093 0.026720075 2.1257905e-05 5.0058567e-05 0.08378031 -0.03809839 0.04606465 -0.000233078
-0.11166935 -0.05701388 -0.045872387 0.00012432445 -0.055385947 -0.037726656 0.049334228 -1.1045316e-06
0.00038901676 0.00023867292 8.599172e-05 0.000116633724 0.04041713 -0.0302392 -0.1664363 -0.082297444
0.06185022 -0.038748287 0.00011263796 0.06974538 -0.046994694 -0.060903624 -0.036595806 0.020105843
0.01083947 0.083585344 -0.021353098 0.055897944 0.044940997 0.11444896 0.2008562 -0.055004995
0.00015547192 0.04311059 4.258086e-05 0.0435288 0.14530578 3.0147396e-05 -0.00018496662 -0.074469484
-0.021411205 0.039428778 9.302364e-05 0.069825485 0.046554305 0.00014483921 -0.00024229949 -8.6198e-05
0.09425819 0.075324625 -0.03201896 0.00021961542 0.032289352 -0.026452143 -0.020801509 4.7130197e-05
-0.16743597 -0.016634893 -0.07017444 -0.10103124 0.04298072 0.03590437 6.664715e-05 0.018300276
00000000: 5d6c 82b9 eb7e 51bd 8265 433e ad08 633d
00000010: aee2 06bd 0b47 b5bc ec58 83bd e266 d2b7
00000020: 4d3c b5bc 3c8c 87b9 4582 8bbc 7e94 0b3d
00000030: b2af 3539 c4f8 9a38 f419 e438 41c7 8539
00000040: a61b f93c ea16 313d b2ba 21be 05d9 67bd
00000050: 4641 d039 9ebf ceb8 a77b aabd 7c3e 5dbd
00000060: eb83 a93c 3a18 8fb8 6087 e9bc 5a1f 7b39
00000070: 0335 7abd c091 e53d 5f07 24bd 9e35 d03d
00000080: 695f 21bd daea 823d a670 1bbd 0766 aabc
00000090: 38c4 48bd 60e9 a1bc b3e0 30bd 00a2 933c
000000a0: 23b7 1b3d b7ef 0ebd 9fa0 b3bd 1d2e 0239
000000b0: 3aba e0bd 1028 59bd 985d b93d 21ca 8e3c
000000c0: 9624 81b9 7be5 b8bd 55ce f73c 7ede c73d
000000d0: 4460 91bc f71b 513d 958c 963d a05f 213d
000000e0: 5088 003d 7f77 433d eca5 573d 6839 473d
000000f0: 99b4 bbb9 189c f8bd de96 843c 1a81 77b7
00000100: ef58 123e 4cab 37bd 3b2e 1cbe 551a b3bd
00000110: 2d01 debc 4d86 37bd 66a5 0abd 92a9 1c3e
00000120: 88b7 2db9 694c 3c38 7d3a 8e3c a5b7 6fb8
00000130: b07c babc c4ae da3c 199f d73c 01f1 fe38
00000140: fd9b 433e 62cb 4b3d 218d 97bd 288f 4039
00000150: 09fb bcbd 7b67 08be adae 4c3c 9796 be3d
00000160: 30d1 6c39 2295 6ab6 009d 9a36 18b8 6b38
00000170: 19f5 77bd 5e7d c738 8581 27b8 af3c 20bd
00000180: 51c2 05be bc61 38bd 0f4b 17bd 8018 11bd
00000190: 307d 303d a40d f4bc 581e 493d eb06 eb3d
000001a0: e81f 3b39 e1c8 9cbd 620f 903d 3ef2 1f3d
000001b0: a714 203d a8fa cfbd ac0b 093e b282 28b9
000001c0: f056 7bb8 075f cfb8 eb2f 733d a1a9 e838
000001d0: c2a7 1eb9 4134 5139 49d2 e538 96b0 dc3d
000001e0: ff80 7abd 176b b3bd e20d 2437 334f a2bc
000001f0: 5a62 12b9 191f 2d39 6fdc 993d f742 e1bd
00000200: 7001 29be 7569 053d 1348 68bd b97a cebc
00000210: ad8d 88be a025 543d 7697 2139 4308 823c
00000220: bd93 873d 4824 4a39 b8e1 f43d 3c40 16bd
00000230: eab9 00be ef16 fdbc b399 a2bd 5a98 603d
00000240: 772b d4bd b8ac 18bd d8d3 013d 1364 93bd
00000250: 24ea a5bd 72c9 103d 1ec9 2c38 689c 91bd
00000260: d7f5 cdbc 34e7 f73c a865 edbc c04c fa3c
00000270: e743 2d3e 09af 96b8 af86 b8bc f66f f83d
00000280: 7b96 01b9 4dc9 963c 7d70 08bd 66d1 92bb
00000290: 0c60 7cbd 892b d13d aebd efb8 d852 31b9
000002a0: 650a f63c 72c7 953c 8795 afbc da96 9ebc
000002b0: 2eef b23d b621 80b7 6df2 38b9 14b7 bbb8
000002c0: cf15 bc39 7075 fb3c 6074 1abd d946 ccb8
000002d0: 7a12 84bc 884e 56bd e889 8bb8 a370 d838
000002e0: ab94 343d 0fe4 da3c 0153 b237 faf5 5138
000002f0: 0395 ab3d 0f0d 1cbd 49ae 3c3d 6666 74b9
00000300: e6b2 e4bd 6387 69bd afe4 3bbd 175d 0239
00000310: 60dc 62bd 4487 1abd b012 4a3d 6b3f 94b5
00000320: f2f4 cb39 4644 7a39 7456 b438 4199 f438
00000330: 6f8c 253d 33b8 f7bc 476e 2abe 908b a8bd
00000340: a856 7d3d 86b6 1ebd 0b38 ec38 aad6 8e3d
00000350: 827d 40bd 1476 79bd 7ce5 15bd 02b5 a43c
00000360: 0898 313c cb2e ab3d b1ec aebc 3ef5 643d
00000370: 0d14 383d 3764 ea3d 3fad 4d3e eb4c 61bd
00000380: 2d06 2339 bb94 303d da98 3238 414b 323d
00000390: 0acb 143e 0ae5 fc37 99f3 41b9 7583 98bd
000003a0: 8d66 afbc 1280 213d b015 c338 aa00 8f3d
000003b0: baaf 3e3d fbdf 1739 c611 7eb9 33c5 b4b8
000003c0: 700a c13d cc43 9a3d 5026 03bd 9148 6639
000003d0: d741 043d 2ab2 d8bc ed67 aabc aaad 4538
000003e0: 5674 2bbe e645 88bc 9eb7 8fbd 77e9 cebd
000003f0: 8d0c 303d 7610 133d ebc4 8b38 76ea 953c

fc1.weight_rho f4 [300, 4]
-7.0546007 -6.935254 -6.9335027 -6.7943044 -6.958161 -6.9356885 -6.9413805 -6.955987
-6.8471193 -6.840255 -6.962732 -6.9994335 -6.889086 -6.905521 -6.886651 -6.985606
-7.138525 -6.7496314 -6.8044276 -6.9657664 -7.0016656 -6.870029 -7.027786 -7.0199146
-6.81733 -6.920314 -6.879492 -6.993898 -6.9591265 -6.8873024 -7.030986 -7.0064697
-6.9388056 -6.9200788 -6.975737 -6.912013 -6.7731833 -6.7743783 -6.9674387 -6.70669
-6.986529 -6.74222 -6.78052 -6.9111414 -6.946191 -6.647525 -6.961897 -7.005865
-6.9500613 -6.8828626 -6.956184 -7.1878343 -7.067536 -6.9257364 -6.8725467 -6.8568416
-6.9572535 -7.017586 -6.9311237 -6.943584 -7.0075054 -6.984369 -7.0601225 -6.8215346
-6.878593 -6.9623704 -6.785726 -7.032737 -6.867452 -6.910296 -7.0381455 -6.8727245
-6.9680924 -7.0149426 -6.9469852 -7.0258875 -6.914927 -7.0072637 -7.0343747 -6.977118
-6.876208 -6.8522534 -6.9284096 -7.013865 -7.002987 -6.868869 -6.8880577 -6.8146725
-6.9803576 -6.8962064 -6.7967334 -7.06053 -6.8362327 -6.8802085 -6.979559 -7.1597533
-6.93954 -6.933597 -6.982715 -7.0009217 -6.8629594 -6.902364 -6.713665 -6.880975
-7.075248 -6.8855824 -7.005767 -6.968906 -6.855231 -6.7835517 -6.9799395 -6.838028
-6.957973 -6.945176 -7.012735 -6.986087 -7.181539 -6.859231 -7.0513854 -6.9789777
-6.8065596 -7.0269647 -7.0756254 -6.7813296 -6.827954 -7.033169 -6.8068843 -6.795786
-6.83315 -6.8886714 -6.92994 -6.9810967 -6.941649 -6.8178554 -6.942146 -6.9372888
-7.0672717 -7.067003 -6.84204 -6.982196 -7.0921097 -7.0335517 -6.9968724 -6.9803267
-7.115459 -6.9377418 -6.890348 -6.8803573 -7.011287 -6.872793 -6.7871985 -6.859504
-6.617548 -7.144395 -6.941058 -7.0081244 -6.6734047 -6.791039 -6.8606296 -6.9303617
-7.0782304 -7.0086255 -6.9212413 -6.7608027 -6.866811 -7.0131335 -6.9278793 -6.9788666
-6.8382697 -6.902206 -6.89203 -7.029169 -6.823677 -6.998675 -7.03135 -6.9776964
-7.0237656 -6.813667 -6.8634257 -6.812158 -6.9031806 -6.964621 -7.0508447 -7.076853
-6.972807 -7.032596 -7.0508924 -6.8742914 -6.834187 -6.917635 -7.0541754 -6.9018936
-6.741901 -6.866084 -7.0517244 -6.8879843 -6.885439 -7.0082517 -6.945399 -6.992864
-6.9789734 -6.898149 -6.801522 -7.055391 -6.9247594 -6.9031315 -6.905014 -7.0819864
-6.8182178 -6.872222 -6.886861 -6.9416986 -6.8652096 -7.0452085 -6.7211175 -6.9265776
-6.9716916 -6.928867 -6.8829017 -6.8382783 -6.891224 -6.754818 -7.0267467 -6.88577
-6.784573 -6.966892 -6.8120713 -6.848388 -6.9519386 -6.9479227 -6.8988786 -6.778612
-6.8061404 -6.973117 -7.000333 -6.9930315 -6.8558254 -6.880467 -6.9292116 -6.9026937
-6.8145723 -6.720803 -7.065648 -7.0065384 -7.0486693 -6.910963 -6.797264 -6.968064
-6.7828984 -7.0352745 -6.971062 -6.8834968 -6.859396 -6.9634905 -6.976339 -6.991755
00000000: 4abf e1c0 9aed ddc0 41df ddc0 f16a d9c0
00000010: 41a9 dec0 29f1 ddc0 ca1f dec0 7297 dec0
00000020: 9a1b dbc0 5ee3 dac0 b3ce dec0 5cfb dfc0
00000030: 6473 dcc0 07fa dcc0 725f dcc0 168a dfc0
00000040: cc6e e4c0 fbfc d7c0 dfbd d9c0 8fe7 dec0
00000050: a50d e0c0 47d7 dbc0 9fe3 e0c0 24a3 e0c0
00000060: 9127 dac0 3673 ddc0 cc24 dcc0 03ce dfc0
00000070: 2ab1 dec0 c864 dcc0 d6fd e0c0 0035 e0c0
00000080: b20a dec0 4971 ddc0 3d39 dfc0 362f ddc0
00000090: ebbd d8c0 b5c7 d8c0 42f5 dec0 349d d6c0
000000a0: a591 dfc0 44c0 d7c0 05fa d8c0 1228 ddc0
000000b0: 3247 dec0 86b8 d4c0 dcc7 dec0 0c30 e0c0
000000c0: e766 dec0 6940 dcc0 0f99 dec0 bd02 e6c0
000000d0: 4129 e2c0 a29f ddc0 e7eb dbc0 3f6b dbc0
000000e0: d2a1 dec0 1190 e0c0 c4cb ddc0 d731 dec0
000000f0: 7c3d e0c0 f37f dfc0 86ec e1c0 034a dac0
00000100: 6f1d dcc0 bdcb dec0 ab24 d9c0 2e0c e1c0
00000110: 2bc2 dbc0 2521 ddc0 7d38 e1c0 5ced dbc0
00000120: 9dfa dec0 697a e0c0 b44d dec0 12d4 e0c0
00000130: 1547 ddc0 813b e0c0 9919 e1c0 8d44 dfc0
00000140: e509 dcc0 a945 dbc0 88b5 ddc0 9571 e0c0
00000150: 7818 e0c0 c6cd dbc0 f86a dcc0 cc11 dac0
00000160: 175f dfc0 b9ad dcc0 d77e d9c0 ddef e1c0
00000170: 6bc2 dac0 ab2a dcc0 8c58 dfc0 b31c e5c0
00000180: b610 dec0 07e0 ddc0 6772 dfc0 8d07 e0c0
00000190: 5d9d dbc0 2ae0 dcc0 58d6 d6c0 f230 dcc0
000001a0: 6e68 e2c0 b156 dcc0 3e2f e0c0 4701 dfc0
000001b0: 0d5e dbc0 db12 d9c0 aa5b dfc0 20d1 dac0
000001c0: b7a7 dec0 e23e dec0 5368 e0c0 068e dfc0
000001d0: 2bcf e5c0 d27e dbc0 f3a4 e1c0 c953 dfc0
000001e0: 56cf d9c0 e5dc e0c0 866b e2c0 a700 d9c0
000001f0: 997e dac0 b80f e1c0 ffd1 d9c0 1477 d9c0
00000200: 2aa9 dac0 ff6f dcc0 12c2 ddc0 2565 dfc0
00000210: fd21 dec0 df2b dac0 0f26 dec0 45fe ddc0
00000220: 1727 e2c0 e324 e2c0 fef1 dac0 266e dfc0
00000230: 90f2 e2c0 db12 e1c0 61e6 dfc0 d65e dfc0
00000240: d7b1 e3c0 fb01 dec0 bb7d dcc0 e32b dcc0
00000250: 775c e0c0 eced dbc0 bb30 d9c0 0f81 dbc0
00000260: f4c2 d3c0 e29e e4c0 261d dec0 8e42 e0c0
00000270: 888c d5c0 3150 d9c0 478a dbc0 86c5 ddc0
00000280: dd80 e2c0 a946 e0c0 cf7a ddc0 7f58 d8c0
00000290: eabc dbc0 976b e0c0 30b1 ddc0 e052 dfc0
000002a0: 1bd3 dac0 dfde dcc0 828b dcc0 f4ee e0c0
000002b0: 905b dac0 25f5 dfc0 d200 e1c0 4a49 dfc0
000002c0: b0c2 e0c0 8f09 dac0 2fa1 dbc0 33fd d9c0
000002d0: dbe6 dcc0 2dde dec0 85a0 e1c0 9475 e2c0
000002e0: 3c21 dfc0 070b e1c0 e9a0 e1c0 32fa dbc0
000002f0: a9b1 dac0 445d ddc0 cebb e1c0 50dc dcc0
00000300: a7bd d7c0 f6b6 dbc0 baa7 e1c0 5e6a dcc0
00000310: 8455 dcc0 9943 e0c0 b540 dec0 8bc5 dfc0
00000320: c053 dfc0 a3bd dcc0 11a6 d9c0 c3c5 e1c0
00000330: a197 ddc0 74e6 dcc0 e0f5 dcc0 a29f e2c0
00000340: d72e dac0 3ee9 dbc0 2a61 dcc0 6522 dec0
00000350: ccaf dbc0 5972 e1c0 6513 d7c0 86a6 ddc0
00000360: 1918 dfc0 47b9 ddc0 bb40 dcc0 2dd3 dac0
00000370: e884 dcc0 7827 d8c0 1cdb e0c0 3a58 dcc0
00000380: 391b d9c0 c7f0 dec0 7dfc d9c0 ff25 dbc0
00000390: 4876 dec0 6255 dec0 9dc3 dcc0 64ea d8c0
000003a0: e7cb d9c0 c623 dfc0 ba02 e0c0 eac6 dfc0
000003b0: ec62 dbc0 c92c dcc0 1abc ddc0 dee2 dcc0
000003c0: fa10 dac0 d110 d7c0 ca19 e2c0 9035 e0c0
000003d0: b38e e1c0 9c26 ddc0 3083 d9c0 61fa dec0
000003e0: 810d d9c0 f820 e1c0 f112 dfc0 9b45 dcc0
000003f0: 2c80 dbc0 ead4 dec0 2b3e dfc0 75bc dfc0

fc1.bias_mu f4 [300]
0.00030100576 0.00029239373 -0.00018339862 0.018657565 0.040943626 -0.00011190721 -0.00015919648 0.038940463
-9.7701224e-05 -0.055895176 -0.00015311663 0.028162664 0.08635261 0.09196302 0.027014544 -0.068215
0.06714965 0.044872835 -0.00015042584 -0.047288325 -0.00024610892 0.08244103 -0.021514595 0.09820762
0.050775107 0.04102801 0.038569108 -0.07396784 0.04391015 -0.021459384 -0.024455462 0.036280148
0.10886665 -0.059093945 -0.04770899 -3.6485373e-05 0.0007588219 0.00017835601 0.028979111 -0.042013887
0.06832301 0.09219434 0.028669704 0.12740788 8.5835e-05 4.1589014e-05 -0.016665528 -0.03905988
0.045003995 0.077177346 -4.2075144e-06 0.054432437 0.11842623 -0.031030715 -0.030081043 0.11363763
3.4379056e-05 0.047580462 -0.05501586 -0.023218848 -0.015072289 -0.00012270786 -0.028587565 0.025119087
-0.035382867 -6.352205e-05 0.0447009 0.038943473 -0.05004511 -0.0333314 0.08998674 -0.021231761
0.11141107 0.04530421 -0.09916168 -0.022377772 0.10073177 0.0002177221 0.023215754 0.09688942
0.021270204 0.032170996 4.267485e-05 -0.00016901239 0.019515812 0.059820104 -0.026785655 -0.034576427
0.11301864 -0.01663986 -0.020433372 0.03502102 0.07208208 -0.023351783 -0.027663592 -0.09294606
0.00041735204 -0.021941835 5.5200086e-05 0.10826533 0.00016737291 0.11225869 0.09088217 -0.05128654
-0.00011949818 0.032474186 0.031897217 -0.016094552 -0.00015982716 -0.00014289422 0.10944707 0.0002955315
1.2869611e-05 -0.052559797 -0.15690821 0.099699214 -6.488196e-05 -0.060061302 -7.207967e-05 -0.00032119438
-0.01675997 0.13485013 8.479578e-05 -0.03743444 -0.00012779213 -0.00021586516 7.7848155e-05 0.036506712
0.00017335537 -0.04630262 -0.16557994 -0.0639516 -0.058209736 -0.00017564379 0.10098775 0.0955517
-0.00020702378 0.047608364 0.13041295 0.047259748 -0.028879158 0.029595573 -0.03526796 0.051484272
0.00012716731 -0.060824115 0.07158867 -0.00015615768 0.061183006 0.05953358 -0.053068396 -0.019075107
-4.439642e-05 -0.04714805 -8.378482e-05 0.09809451 -0.08420591 -0.046965696 0.09335832 0.06786649
0.023248702 0.068281576 0.04424256 0.07968248 0.042709094 0.07620625 0.15897898 -0.026816322
-1.777603e-05 -0.039685953 0.14454463 0.06288371 -0.054634847 -0.111611694 -0.00015338512 0.13172299
0.00027309006 -0.11034317 0.02328753 -0.05502102 -0.050261673 0.07197811 5.3873446e-05 -0.00010642376
-0.043892443 -0.023330811 0.047256082 0.08831466 -0.06447323 -0.000111798574 0.14596687 0.00019064585
-5.976335e-05 0.00017162962 0.16673012 -0.053471383 0.15578 5.3755444e-05 -1.02947524e-07 0.016313067
0.06788915 -0.028934272 0.06257286 4.253696e-05 -0.01753787 -0.00014367318 4.1353e-05 0.029227862
0.06526642 -0.021236908 -0.035452604 0.1446618 -0.025894012 0.047677495 0.15042752 0.0833142
-5.7158417e-05 -0.065181755 -0.029887632 -0.04023248 -0.04208963 0.12708317 -0.00028321167 0.27386782
0.02625397 0.124223754 0.08579606 -0.017941069 0.032697435 4.4214437e-05 0.05759607 -0.049205996
0.035642594 -0.038595524 -0.00019810763 0.00017001356 -0.051136643 -0.00023649904 -0.11672805 -0.03158463
0.04361743 0.02037697 -0.020891577 -0.056532767 0.097476475 -5.254007e-05 -0.031606354 -0.0331846
0.04675392 0.24337077 6.488033e-05 -1.623793e-05 0.00020531547 6.356571e-05 -0.000101279256 0.09661239
00000000: 4fd0 9d39 6c4c 9939 b14e 40b9 c0d7 983c
00000010: 81b4 273d baaf eab8 fbed 26b9 0980 1f3d
00000020: f2e4 ccb8 57f2 64bd ef8d 20b9 63b5 e63c
00000030: a3d9 b03d 1c57 bc3d 9b4d dd3c 4eb4 8bbd
00000040: c185 893d 94cc 373d a1bb 1db9 67b1 41bd
00000050: 2e08 81b9 d8d6 a83d 603f b0bc 1421 c93d
00000060: 8ff9 4f3d fd0c 283d a4fa 1d3d 737c 97bd
00000070: 21db 333d 97cb afbc d256 c8bc 7e9a 143d
00000080: 7af5 de3d 7e0c 72bd 806a 43bd df07 19b8
00000090: adeb 463a 1405 3b39 9a65 ed3c c116 2cbd
000000a0: efec 8b3d 63d0 bc3d badc ea3c 3677 023e
000000b0: 5102 b438 dd6f 2e38 2586 88bc 41fd 1fbd
000000c0: 1c56 383d 280f 9e3d 462e 8db6 8cf4 5e3d
000000d0: 7489 f23d 2034 febc 856c f6bc d9ba e83d
000000e0: 3b32 1038 bbe3 423d 4f58 61bd 7435 bebc
000000f0: c3f1 76bc 24ab 00b9 7830 eabc 8bc6 cd3c
00000100: a0ed 10bd 2437 85b8 4a18 373d 3183 1f3d
00000110: 1afc 4cbd 8286 08bd f84a b83d 3bee adbc
00000120: 7d2b e43d e890 393d 4715 cbbd 9751 b7bc
00000130: 754c ce3d 554c 6439 f72e be3c f66d c63d
00000140: da3e ae3c bcc5 033d c5fd 3238 eb38 31b9
00000150: a0df 9f3c ed05 753d 976d dbbc 03a0 0dbd
00000160: 5176 e73d 5150 88bc e363 a7bc 3372 0f3d
00000170: c59f 933d 3d4c bfbc c29e e2bc 815a bebd
00000180: 0bd0 da39 5dbf b3bc a486 6738 37ba dd3d
00000190: d380 2f39 e2e7 e53d 6e20 ba3d d611 52bd
000001a0: 199b fab8 a703 053d a8a6 023d b9d8 83bc
000001b0: 4797 27b9 e0d5 15b9 c925 e03d 91f1 9a39
000001c0: 8fea 5737 f148 57bd 8cac 20be 1a2f cc3d
000001d0: 3d11 88b8 d702 76bd 7a29 97b8 fb65 a8b9
000001e0: 344c 89bc 2716 0a3e 63d4 b138 db54 19bd
000001f0: f0ff 05b9 dd59 62b9 6942 a338 1088 153d
00000200: bac6 3539 d1a7 3dbd ca8d 29be 0ef9 82bd
00000210: 556d 6ebd 052d 38b9 aad2 ce3d 9cb0 c33d
00000220: 8614 59b9 fd00 433d f98a 053e 7093 413d
00000230: fc93 ecbc 6a72 f23c 2375 10bd 2ce1 523d
00000240: 3758 0539 b522 79bd 159d 923d 42be 23b9
00000250: 089b 7a3d 7cd9 733d 3f5e 59bd 6643 9cbc
00000260: 4b36 3ab8 501e 41bd a2b5 afb8 c6e5 c83d
00000270: 2674 acbd 1a5f 40bd a632 bf3d 96fd 8a3d
00000280: 1074 be3c 36d7 8b3d b037 353d 9130 a33d
00000290: bbef 2e3d 0612 9c3d 63cb 223e e7ad dbbc
000002a0: bc1d 95b7 bd8d 22bd 8203 143e 2dc9 803d
000002b0: cac8 5fbd ac94 e4bd 01d6 20b9 64e2 063e
000002c0: 872d 8f39 9afb e1bd 7dc5 be3c b95d 61bd
000002d0: 2fdf 4dbd 4269 933d 2cf6 6138 d22f dfb8
000002e0: 90c8 33bd 4220 bfbc 988f 413d 51de b43d
000002f0: 8a0a 84bd 6775 eab8 5778 153e 1be8 4739
00000300: 69aa 7ab8 7af7 3339 4dbb 2a3e cf04 5bbd
00000310: cb84 1f3e 7877 6138 0014 ddb3 fba2 853c
00000320: 7709 8b3d 9107 edbc 3326 803d b769 3238
00000330: 94ab 8fbc faa6 16b9 7272 2d38 456f ef3c
00000340: 67aa 853d 06f9 adbc c036 11bd 3922 143e
00000350: ae1f d4bc 7a49 433d ac09 1a3e a3a0 aa3d
00000360: 62bd 6fb8 037e 85bd e8d6 f4bc d0ca 24bd
00000370: 2d66 2cbd 1722 023e 077c 94b9 6738 8c3e
00000380: 9112 d73c 0669 fe3d d8b5 af3d 26f9 92bc
00000390: bfed 053d e472 3938 dbe9 6b3d 3a8c 49bd
000003a0: f8fd 113d 5716 1ebd 1dbb 4fb9 ab45 3239
000003b0: a874 51bd bafc 77b9 1e0f efbd e35e 01bd
000003c0: 31a8 323d 9aed a63c d024 abbc e78e 67bd
000003d0: bfa1 c73d 785e 5cb8 aa75 01bd 93ec 07bd
000003e0: 0a81 3f3d 3036 793e 5d10 8838 b036 88b7
000003f0: f449 5739 954e 8538 e365 d4b8 b7dc c53d

fc1.bias_rho f4 [300]
-6.9266977 -6.9853253 -6.9536705 -6.9366384 -7.093988 -7.0401773 -6.7356377 -6.794503
-6.9610605 -6.9253473 -6.8665123 -6.917858 -6.972199 -7.1326666 -7.0068617 -7.0007133
-6.9192743 -6.8905444 -6.870479 -6.9477906 -6.8868165 -6.8277397 -7.087663 -7.046173
-6.826118 -6.891624 -6.901495 -6.9640646 -7.0077972 -7.057274 -6.9067926 -6.990795
-6.897878 -6.9151444 -6.9915257 -6.9277244 -6.8461437 -6.9527893 -6.876971 -6.842564
-6.909045 -7.0861874 -6.965357 -6.846826 -6.854655 -6.991388 -6.959403 -6.964035
-6.816198 -6.9871106 -6.86396 -6.951147 -7.039552 -7.04156 -6.9835005 -6.851174
-6.8067126 -6.947072 -6.78661 -6.8618655 -7.177603 -6.944252 -6.9978685 -7.009599
-6.797339 -7.0003114 -7.047242 -6.8315496 -6.9240317 -7.012519 -6.854771 -6.9268713
-6.9616337 -7.051326 -7.1152043 -7.134631 -6.892003 -6.9459186 -6.963321 -6.80299
-6.9121275 -7.043896 -6.8968005 -6.9694138 -6.8007336 -6.8078227 -6.9377785 -6.8517447
-6.8455563 -6.9224524 -7.0914817 -6.8520465 -7.094362 -6.980897 -6.9671035 -6.8007317
-6.714935 -6.7594924 -6.8811245 -7.032863 -7.005549 -6.7096343 -7.0443444 -6.8896785
-7.0806813 -6.794791 -7.0480165 -6.8851666 -7.061579 -6.9108872 -6.8718634 -6.9462423
-7.0311074 -6.9078903 -6.9095664 -6.969773 -6.982399 -7.079289 -6.964089 -6.975493
-6.9331923 -6.666039 -7.1039143 -6.8494277 -6.9364305 -6.81657 -6.939079 -6.962999
-7.0109763 -6.871231 -6.975226 -6.8043094 -7.0653696 -6.9576764 -6.911425 -6.9607487
-7.115167 -6.827599 -6.966039 -7.0923424 -7.0101314 -6.8355503 -6.995075 -6.896535
-7.0070558 -6.954383 -6.8734336 -6.968731 -7.077241 -6.834066 -6.89437 -6.9609685
-6.8619027 -6.857484 -7.037622 -6.794191 -6.9620223 -7.011361 -6.8518085 -6.8590612
-6.7691092 -6.783983 -6.9968934 -6.958416 -7.0740123 -7.011565 -6.8638463 -6.9060683
-6.965794 -7.032327 -7.0735226 -6.9119415 -6.896869 -6.883499 -6.9082003 -6.8927927
-6.758312 -6.8568525 -6.9180603 -6.9077077 -6.9122066 -6.8653097 -7.1170883 -6.8572803
-6.949986 -7.0124645 -7.1858945 -6.9722304 -6.8193674 -6.831248 -7.0569596 -7.0774407
-6.9602947 -6.872771 -7.044777 -6.9232416 -6.862656 -7.015459 -7.073636 -7.019759
-6.96426 -7.0520425 -6.9559846 -6.938927 -6.935283 -6.850918 -6.8659854 -6.958745
-7.1587334 -6.999639 -6.887947 -7.008684 -6.84059 -6.9511695 -6.81863 -6.8109126
-7.084754 -6.8987513 -6.9352045 -7.053054 -6.866364 -6.982976 -6.674328 -6.8402095
-7.0230703 -7.1704373 -6.957862 -7.06982 -7.035254 -6.898488 -6.9449186 -6.9404583
-6.9714446 -6.892093 -6.933055 -7.0631886 -6.814024 -6.96799 -6.877912 -6.948003
-6.7573366 -6.9653473 -6.8274674 -6.9760346 -6.905742 -6.847009 -6.7986717 -6.955042
-6.8507023 -6.997074 -6.923327 -6.824941 -6.7499647 -6.8056107 -7.059321 -7.0396323
00000000: 82a7 ddc0 c987 dfc0 7884 dec0 f1f8 ddc0
00000010: f301 e3c0 2249 e1c0 588a d7c0 926c d9c0
00000020: 02c1 dec0 729c ddc0 78ba dbc0 185f ddc0
00000030: 411c dfc0 ce3e e4c0 3638 e0c0 d805 e0c0
00000040: b26a ddc0 577f dcc0 f7da dbc0 4d54 dec0
00000050: cd60 dcc0 d87c dac0 23ce e2c0 407a e1c0
00000060: 8f6f dac0 2f88 dcc0 0cd9 dcc0 9ed9 dec0
00000070: e03f e0c0 30d5 e1c0 7204 ddc0 98b4 dfc0
00000080: 6bbb dcc0 dd48 ddc0 94ba dfc0 ebaf ddc0
00000090: 9c13 dbc0 407d dec0 2510 dcc0 49f6 dac0
000000a0: e616 ddc0 0cc2 e2c0 34e4 dec0 3319 dbc0
000000b0: 5559 dbc0 73b9 dfc0 6eb3 dec0 60d9 dec0
000000c0: 4b1e dac0 6996 dfc0 8fa5 dbc0 cc6f dec0
000000d0: 0344 e1c0 7654 e1c0 d678 dfc0 d13c dbc0
000000e0: 97d0 d9c0 6a4e dec0 e92b d9c0 6794 dbc0
000000f0: ecae e5c0 5037 dec0 8aee dfc0 a34e e0c0
00000100: cd83 d9c0 8d02 e0c0 0283 e1c0 0e9c dac0
00000110: ab91 ddc0 8e66 e0c0 495a dbc0 eea8 ddc0
00000120: b4c5 dec0 76a4 e1c0 c1af e3c0 e64e e4c0
00000130: 4a8b dcc0 f744 dec0 87d3 dec0 18b2 d9c0
00000140: 2630 ddc0 9967 e1c0 97b2 dcc0 7005 dfc0
00000150: 9c9f d9c0 afd9 d9c0 4802 dec0 7e41 dbc0
00000160: cc0e dbc0 bb84 ddc0 6bed e2c0 f743 dbc0
00000170: 0305 e3c0 8263 dfc0 83f2 dec0 989f d9c0
00000180: bfe0 d6c0 c34d d8c0 2c32 dcc0 370d e1c0
00000190: 752d e0c0 53b5 d6c0 456b e1c0 3f78 dcc0
000001a0: f194 e2c0 ee6e d9c0 5a89 e1c0 4953 dcc0
000001b0: 75f8 e1c0 fd25 ddc0 4ee6 dbc0 9e47 dec0
000001c0: d5fe e0c0 700d ddc0 2b1b ddc0 6108 dfc0
000001d0: d06f dfc0 8989 e2c0 d1d9 dec0 3d37 dfc0
000001e0: b6dc ddc0 3150 d5c0 4453 e3c0 832e dbc0
000001f0: 3df7 ddc0 5721 dac0 ef0c dec0 e3d0 dec0
00000200: eb59 e0c0 20e1 dbc0 0d35 dfc0 e7bc d9c0
00000210: 8217 e2c0 49a5 dec0 652a ddc0 74be dec0
00000220: 73af e3c0 b17b dac0 cbe9 dec0 78f4 e2c0
00000230: ff52 e0c0 d4bc dac0 a8d7 dfc0 6ab0 dcc0
00000240: cd39 e0c0 4e8a dec0 2bf3 dbc0 d8ff dec0
00000250: c278 e2c0 abb0 dac0 ae9e dcc0 41c0 dec0
00000260: b594 dbc0 8270 dbc0 3334 e1c0 036a d9c0
00000270: e3c8 dec0 125d e0c0 0442 dbc0 6e7d dbc0
00000280: 8b9c d8c0 6416 d9c0 8de6 dfc0 58ab dec0
00000290: 4f5e e2c0 be5e e0c0 a1a4 dbc0 83fe dcc0
000002a0: c9e7 dec0 d308 e1c0 4c5a e2c0 a02e ddc0
000002b0: 27b3 dcc0 a045 dcc0 fa0f ddc0 c291 dcc0
000002c0: 1844 d8c0 566b dbc0 c060 ddc0 f10b ddc0
000002d0: cc30 ddc0 9eb0 dbc0 30bf e3c0 d76e dbc0
000002e0: 4966 dec0 1c66 e0c0 d9f2 e5c0 831c dfc0
000002f0: 4238 dac0 9599 dac0 9dd2 e1c0 657a e2c0
00000300: bcba dec0 bded dbc0 d06e e1c0 328b ddc0
00000310: e19a dbc0 a47e e0c0 3a5b e2c0 dea1 e0c0
00000320: 38db dec0 55aa e1c0 6d97 dec0 b10b dec0
00000330: d7ed ddc0 b83a dbc0 27b6 dbc0 0aae dec0
00000340: 5814 e5c0 0bfd dfc0 106a dcc0 2447 e0c0
00000350: 1de6 dac0 fb6f dec0 3832 dac0 fff2 d9c0
00000360: 4eb6 e2c0 92c2 dcc0 32ed ddc0 9eb2 e1c0
00000370: 41b9 dbc0 8a74 dfc0 1894 d5c0 ffe2 dac0
00000380: febc e0c0 3974 e5c0 cea6 dec0 f73b e2c0
00000390: cd20 e1c0 6ac0 dcc0 c63c dec0 3c18 dec0
000003a0: 1316 dfc0 078c dcc0 96db ddc0 a405 e2c0
000003b0: 7c0c dac0 c6f9 dec0 db17 dcc0 0a56 dec0
000003c0: 1a3c d8c0 20e4 dec0 9d7a dac0 ad3b dfc0
000003d0: d7fb dcc0 b31a dbc0 b88e d9c0 b48f dec0
000003e0: f438 dbc0 08e8 dfc0 e58b ddc0 eb65 dac0
000003f0: b6ff d7c0 90c7 d9c0 f5e5 e1c0 ab44 e1c0

fc1.weight_sampler.mu f4 [300, 4]
-0.0002487627 -0.05114643 0.19081691 0.055428196 -0.032931022 -0.022128602 -0.06413445 -2.508186e-05
-0.02212348 -0.0002585369 -0.01702989 0.03407716 0.00017326957 7.3896284e-05 0.00010876721 0.00025516193
0.030408692 0.043234743 -0.15793875 -0.05660345 0.00039721484 -9.858537e-05 -0.08324366 -0.054014668
0.020692786 -6.823284e-05 -0.028506935 0.00023948905 -0.061085712 0.1120944 -0.040046092 0.10166477
-0.03939763 0.06392451 -0.037949227 -0.020800604 -0.049015254 -0.019764602 -0.04318304 0.018021584
0.03801645 -0.03489658 -0.087708704 0.00012414945 -0.1097302 -0.053016722 0.09051055 0.017430367
-0.00024632056 -0.09028145 0.030249754 0.09759234 -0.017746098 0.05105206 0.07351033 0.039397836
0.031379998 0.047721382 0.05264847 0.04863873 -0.00035801975 -0.121391475 0.01618522 -1.4752406e-05
0.14291738 -0.044841096 -0.1525201 -0.08745257 -0.02710017 -0.044805814 -0.033849142 0.15299061
-0.00016566936 4.4893855e-05 0.017361874 -5.7153073e-05 -0.022764534 0.026694663 0.02632098 0.00012156554
0.19102474 0.049754508 -0.07399965 0.00018363877 -0.09227569 -0.13320725 0.012492818 0.093060665
0.00022584642 -3.4955524e-06 4.607835e-06 5.6199817e-05 -0.060536478 9.512411e-05 -3.9936527e-05 -0.039120372
-0.13062407 -0.04501508 -0.036936816 -0.035423756 0.043088138 -0.02979166 0.049101204 0.11475929
0.00017845596 -0.07655502 0.07034184 0.03904938 0.039082196 -0.10155231 0.13383359 -0.00016070416
-5.992403e-05 -9.8882294e-05 0.05937187 0.00011094218 -0.00015130549 0.0001995126 0.000109587396 0.107758686
-0.061158177 -0.0876066 9.778394e-06 -0.019813156 -0.00013960284 0.0001651015 0.075127475 -0.10999101
-0.16504455 0.032571275 -0.05670936 -0.025205003 -0.2667059 0.051793694 0.0001541058 0.01587308
0.06619976 0.00019277737 0.11957115 -0.036682352 -0.1257092 -0.030894725 -0.07939472 0.054832794
-0.10359853 -0.037274092 0.03169617 -0.07196822 -0.081012994 0.035348363 4.11953e-05 -0.0710991
-0.02514164 0.030261613 -0.028979138 0.030554175 0.16920434 -7.18516e-05 -0.02252516 0.1213073
-0.00012358457 0.018406535 -0.033310402 -0.0044805286 -0.061615035 0.10213382 -0.00011431739 -0.00016910897
0.030034253 0.01828358 -0.021433605 -0.019359041 0.08737026 -1.5274487e-05 -0.00017637918 -8.950956e-05
0.00035874403 0.030695647 -0.03770864 -9.7406744e-05 -0.016122092 -0.052320987 -6.6537235e-05 0.00010320663
0.044087093 0.026720075 2.1257905e-05 5.0058567e-05 0.08378031 -0.03809839 0.04606465 -0.000233078
-0.11166935 -0.05701388 -0.045872387 0.00012432445 -0.055385947 -0.037726656 0.049334228 -1.1045316e-06
0.00038901676 0.00023867292 8.599172e-05 0.000116633724 0.04041713 -0.0302392 -0.1664363 -0.082297444
0.06185022 -0.038748287 0.00011263796 0.06974538 -0.046994694 -0.060903624 -0.036595806 0.020105843
0.01083947 0.083585344 -0.021353098 0.055897944 0.044940997 0.11444896 0.2008562 -0.055004995
0.00015547192 0.04311059 4.258086e-05 0.0435288 0.14530578 3.0147396e-05 -0.00018496662 -0.074469484
-0.021411205 0.039428778 9.302364e-05 0.069825485 0.046554305 0.00014483921 -0.00024229949 -8.6198e-05
0.09425819 0.075324625 -0.03201896 0.00021961542 0.032289352 -0.026452143 -0.020801509 4.7130197e-05
-0.16743597 -0.016634893 -0.07017444 -0.10103124 0.04298072 0.03590437 6.664715e-05 0.018300276
00000000: 5d6c 82b9 eb7e 51bd 8265 433e ad08 633d
00000010: aee2 06bd 0b47 b5bc ec58 83bd e266 d2b7
00000020: 4d3c b5bc 3c8c 87b9 4582 8bbc 7e94 0b3d
00000030: b2af 3539 c4f8 9a38 f419 e438 41c7 8539
00000040: a61b f93c ea16 313d b2ba 21be 05d9 67bd
00000050: 4641 d039 9ebf ceb8 a77b aabd 7c3e 5dbd
00000060: eb83 a93c 3a18 8fb8 6087 e9bc 5a1f 7b39
00000070: 0335 7abd c091 e53d 5f07 24bd 9e35 d03d
00000080: 695f 21bd daea 823d a670 1bbd 0766 aabc
00000090: 38c4 48bd 60e9 a1bc b3e0 30bd 00a2 933c
000000a0: 23b7 1b3d b7ef 0ebd 9fa0 b3bd 1d2e 0239
000000b0: 3aba e0bd 1028 59bd 985d b93d 21ca 8e3c
000000c0: 9624 81b9 7be5 b8bd 55ce f73c 7ede c73d
000000d0: 4460 91bc f71b 513d 958c 963d a05f 213d
000000e0: 5088 003d 7f77 433d eca5 573d 6839 473d
000000f0: 99b4 bbb9 189c f8bd de96 843c 1a81 77b7
00000100: ef58 123e 4cab 37bd 3b2e 1cbe 551a b3bd
00000110: 2d01 debc 4d86 37bd 66a5 0abd 92a9 1c3e
00000120: 88b7 2db9 694c 3c38 7d3a 8e3c a5b7 6fb8
00000130: b07c babc c4ae da3c 199f d73c 01f1 fe38
00000140: fd9b 433e 62cb 4b3d 218d 97bd 288f 4039
00000150: 09fb bcbd 7b67 08be adae 4c3c 9796 be3d
00000160: 30d1 6c39 2295 6ab6 009d 9a36 18b8 6b38
00000170: 19f5 77bd 5e7d c738 8581 27b8 af3c 20bd
00000180: 51c2 05be bc61 38bd 0f4b 17bd 8018 11bd
00000190: 307d 303d a40d f4bc 581e 493d eb06 eb3d
000001a0: e81f 3b39 e1c8 9cbd 620f 903d 3ef2 1f3d
000001b0: a714 203d a8fa cfbd ac0b 093e b282 28b9
000001c0: f056 7bb8 075f cfb8 eb2f 733d a1a9 e838
000001d0: c2a7 1eb9 4134 5139 49d2 e538 96b0 dc3d
000001e0: ff80 7abd 176b b3bd e20d 2437 334f a2bc
000001f0: 5a62 12b9 191f 2d39 6fdc 993d f742 e1bd
00000200: 7001 29be 7569 053d 1348 68bd b97a cebc
00000210: ad8d 88be a025 543d 7697 2139 4308 823c
00000220: bd93 873d 4824 4a39 b8e1 f43d 3c40 16bd
00000230: eab9 00be ef16 fdbc b399 a2bd 5a98 603d
00000240: 772b d4bd b8ac 18bd d8d3 013d 1364 93bd
00000250: 24ea a5bd 72c9 103d 1ec9 2c38 689c 91bd
00000260: d7f5 cdbc 34e7 f73c a865 edbc c04c fa3c
00000270: e743 2d3e 09af 96b8 af86 b8bc f66f f83d
00000280: 7b96 01b9 4dc9 963c 7d70 08bd 66d1 92bb
00000290: 0c60 7cbd 892b d13d aebd efb8 d852 31b9
000002a0: 650a f63c 72c7 953c 8795 afbc da96 9ebc
000002b0: 2eef b23d b621 80b7 6df2 38b9 14b7 bbb8
000002c0: cf15 bc39 7075 fb3c 6074 1abd d946 ccb8
000002d0: 7a12 84bc 884e 56bd e889 8bb8 a370 d838
000002e0: ab94 343d 0fe4 da3c 0153 b237 faf5 5138
000002f0: 0395 ab3d 0f0d 1cbd 49ae 3c3d 6666 74b9
00000300: e6b2 e4bd 6387 69bd afe4 3bbd 175d 0239
00000310: 60dc 62bd 4487 1abd b012 4a3d 6b3f 94b5
00000320: f2f4 cb39 4644 7a39 7456 b438 4199 f438
00000330: 6f8c 253d 33b8 f7bc 476e 2abe 908b a8bd
00000340: a856 7d3d 86b6 1ebd 0b38 ec38 aad6 8e3d
00000350: 827d 40bd 1476 79bd 7ce5 15bd 02b5 a43c
00000360: 0898 313c cb2e ab3d b1ec aebc 3ef5 643d
00000370: 0d14 383d 3764 ea3d 3fad 4d3e eb4c 61bd
00000380: 2d06 2339 bb94 303d da98 3238 414b 323d
00000390: 0acb 143e 0ae5 fc37 99f3 41b9 7583 98bd
000003a0: 8d66 afbc 1280 213d b015 c338 aa00 8f3d
000003b0: baaf 3e3d fbdf 1739 c611 7eb9 33c5 b4b8
000003c0: 700a c13d cc43 9a3d 5026 03bd 9148 6639
000003d0: d741 043d 2ab2 d8bc ed67 aabc aaad 4538
000003e0: 5674 2bbe e645 88bc 9eb7 8fbd 77e9 cebd
000003f0: 8d0c 303d 7610 133d ebc4 8b38 76ea 953c

fc1.weight_sampler.rho f4 [300, 4]
-7.0546007 -6.935254 -6.9335027 -6.7943044 -6.958161 -6.9356885 -6.9413805 -6.955987
-6.8471193 -6.840255 -6.962732 -6.9994335 -6.889086 -6.905521 -6.886651 -6.985606
-7.138525 -6.7496314 -6.8044276 -6.9657664 -7.0016656 -6.870029 -7.027786 -7.0199146
-6.81733 -6.920314 -6.879492 -6.993898 -6.9591265 -6.8873024 -7.030986 -7.0064697
-6.9388056 -6.9200788 -6.975737 -6.912013 -6.7731833 -6.7743783 -6.9674387 -6.70669
-6.986529 -6.74222 -6.78052 -6.9111414 -6.946191 -6.647525 -6.961897 -7.005865
-6.9500613 -6.8828626 -6.956184 -7.1878343 -7.067536 -6.9257364 -6.8725467 -6.8568416
-6.9572535 -7.017586 -6.9311237 -6.943584 -7.0075054 -6.984369 -7.0601225 -6.8215346
-6.878593 -6.9623704 -6.785726 -7.032737 -6.867452 -6.910296 -7.0381455 -6.8727245
-6.9680924 -7.0149426 -6.9469852 -7.0258875 -6.914927 -7.0072637 -7.0343747 -6.977118
-6.876208 -6.8522534 -6.9284096 -7.013865 -7.002987 -6.868869 -6.8880577 -6.8146725
-6.9803576 -6.8962064 -6.7967334 -7.06053 -6.8362327 -6.8802085 -6.979559 -7.1597533
-6.93954 -6.933597 -6.982715 -7.0009217 -6.8629594 -6.902364 -6.713665 -6.880975
-7.075248 -6.8855824 -7.005767 -6.968906 -6.855231 -6.7835517 -6.9799395 -6.838028
-6.957973 -6.945176 -7.012735 -6.986087 -7.181539 -6.859231 -7.0513854 -6.9789777
-6.8065596 -7.0269647 -7.0756254 -6.7813296 -6.827954 -7.033169 -6.8068843 -6.795786
-6.83315 -6.8886714 -6.92994 -6.9810967 -6.941649 -6.8178554 -6.942146 -6.9372888
-7.0672717 -7.067003 -6.84204 -6.982196 -7.0921097 -7.0335517 -6.9968724 -6.9803267
-7.115459 -6.9377418 -6.890348 -6.8803573 -7.011287 -6.872793 -6.7871985 -6.859504
-6.617548 -7.144395 -6.941058 -7.0081244 -6.6734047 -6.791039 -6.8606296 -6.9303617
-7.0782304 -7.0086255 -6.9212413 -6.7608027 -6.866811 -7.0131335 -6.9278793 -6.9788666
-6.8382697 -6.902206 -6.89203 -7.029169 -6.823677 -6.998675 -7.03135 -6.9776964
-7.0237656 -6.813667 -6.8634257 -6.812158 -6.9031806 -6.964621 -7.0508447 -7.076853
-6.972807 -7.032596 -7.0508924 -6.8742914 -6.834187 -6.917635 -7.0541754 -6.9018936
-6.741901 -6.866084 -7.0517244 -6.8879843 -6.885439 -7.0082517 -6.945399 -6.992864
-6.9789734 -6.898149 -6.801522 -7.055391 -6.9247594 -6.9031315 -6.905014 -7.0819864
-6.8182178 -6.872222 -6.886861 -6.9416986 -6.8652096 -7.0452085 -6.7211175 -6.9265776
-6.9716916 -6.928867 -6.8829017 -6.8382783 -6.891224 -6.754818 -7.0267467 -6.88577
-6.784573 -6.966892 -6.8120713 -6.848388 -6.9519386 -6.9479227 -6.8988786 -6.778612
-6.8061404 -6.973117 -7.000333 -6.9930315 -6.8558254 -6.880467 -6.9292116 -6.9026937
-6.8145723 -6.720803 -7.065648 -7.0065384 -7.0486693 -6.910963 -6.797264 -6.968064
-6.7828984 -7.0352745 -6.971062 -6.8834968 -6.859396 -6.9634905 -6.976339 -6.991755
00000000: 4abf e1c0 9aed ddc0 41df ddc0 f16a d9c0
00000010: 41a9 dec0 29f1 ddc0 ca1f dec0 7297 dec0
00000020: 9a1b dbc0 5ee3 dac0 b3ce dec0 5cfb dfc0
00000030: 6473 dcc0 07fa dcc0 725f dcc0 168a dfc0
00000040: cc6e e4c0 fbfc d7c0 dfbd d9c0 8fe7 dec0
00000050: a50d e0c0 47d7 dbc0 9fe3 e0c0 24a3 e0c0
00000060: 9127 dac0 3673 ddc0 cc24 dcc0 03ce dfc0
00000070: 2ab1 dec0 c864 dcc0 d6fd e0c0 0035 e0c0
00000080: b20a dec0 4971 ddc0 3d39 dfc0 362f ddc0
00000090: ebbd d8c0 b5c7 d8c0 42f5 dec0 349d d6c0
000000a0: a591 dfc0 44c0 d7c0 05fa d8c0 1228 ddc0
000000b0: 3247 dec0 86b8 d4c0 dcc7 dec0 0c30 e0c0
000000c0: e766 dec0 6940 dcc0 0f99 dec0 bd02 e6c0
000000d0: 4129 e2c0 a29f ddc0 e7eb dbc0 3f6b dbc0
000000e0: d2a1 dec0 1190 e0c0 c4cb ddc0 d731 dec0
000000f0: 7c3d e0c0 f37f dfc0 86ec e1c0 034a dac0
00000100: 6f1d dcc0 bdcb dec0 ab24 d9c0 2e0c e1c0
00000110: 2bc2 dbc0 2521 ddc0 7d38 e1c0 5ced dbc0
00000120: 9dfa dec0 697a e0c0 b44d dec0 12d4 e0c0
00000130: 1547 ddc0 813b e0c0 9919 e1c0 8d44 dfc0
00000140: e509 dcc0 a945 dbc0 88b5 ddc0 9571 e0c0
00000150: 7818 e0c0 c6cd dbc0 f86a dcc0 cc11 dac0
00000160: 175f dfc0 b9ad dcc0 d77e d9c0 ddef e1c0
00000170: 6bc2 dac0 ab2a dcc0 8c58 dfc0 b31c e5c0
00000180: b610 dec0 07e0 ddc0 6772 dfc0 8d07 e0c0
00000190: 5d9d dbc0 2ae0 dcc0 58d6 d6c0 f230 dcc0
000001a0: 6e68 e2c0 b156 dcc0 3e2f e0c0 4701 dfc0
000001b0: 0d5e dbc0 db12 d9c0 aa5b dfc0 20d1 dac0
000001c0: b7a7 dec0 e23e dec0 5368 e0c0 068e dfc0
000001d0: 2bcf e5c0 d27e dbc0 f3a4 e1c0 c953 dfc0
000001e0: 56cf d9c0 e5dc e0c0 866b e2c0 a700 d9c0
000001f0: 997e dac0 b80f e1c0 ffd1 d9c0 1477 d9c0
00000200: 2aa9 dac0 ff6f dcc0 12c2 ddc0 2565 dfc0
00000210: fd21 dec0 df2b dac0 0f26 dec0 45fe ddc0
00000220: 1727 e2c0 e324 e2c0 fef1 dac0 266e dfc0
00000230: 90f2 e2c0 db12 e1c0 61e6 dfc0 d65e dfc0
00000240: d7b1 e3c0 fb01 dec0 bb7d dcc0 e32b dcc0
00000250: 775c e0c0 eced dbc0 bb30 d9c0 0f81 dbc0
00000260: f4c2 d3c0 e29e e4c0 261d dec0 8e42 e0c0
00000270: 888c d5c0 3150 d9c0 478a dbc0 86c5 ddc0
00000280: dd80 e2c0 a946 e0c0 cf7a ddc0 7f58 d8c0
00000290: eabc dbc0 976b e0c0 30b1 ddc0 e052 dfc0
000002a0: 1bd3 dac0 dfde dcc0 828b dcc0 f4ee e0c0
000002b0: 905b dac0 25f5 dfc0 d200 e1c0 4a49 dfc0
000002c0: b0c2 e0c0 8f09 dac0 2fa1 dbc0 33fd d9c0
000002d0: dbe6 dcc0 2dde dec0 85a0 e1c0 9475 e2c0
000002e0: 3c21 dfc0 070b e1c0 e9a0 e1c0 32fa dbc0
000002f0: a9b1 dac0 445d ddc0 cebb e1c0 50dc dcc0
00000300: a7bd d7c0 f6b6 dbc0 baa7 e1c0 5e6a dcc0
00000310: 8455 dcc0 9943 e0c0 b540 dec0 8bc5 dfc0
00000320: c053 dfc0 a3bd dcc0 11a6 d9c0 c3c5 e1c0
00000330: a197 ddc0 74e6 dcc0 e0f5 dcc0 a29f e2c0
00000340: d72e dac0 3ee9 dbc0 2a61 dcc0 6522 dec0
00000350: ccaf dbc0 5972 e1c0 6513 d7c0 86a6 ddc0
00000360: 1918 dfc0 47b9 ddc0 bb40 dcc0 2dd3 dac0
00000370: e884 dcc0 7827 d8c0 1cdb e0c0 3a58 dcc0
00000380: 391b d9c0 c7f0 dec0 7dfc d9c0 ff25 dbc0
00000390: 4876 dec0 6255 dec0 9dc3 dcc0 64ea d8c0
000003a0: e7cb d9c0 c623 dfc0 ba02 e0c0 eac6 dfc0
000003b0: ec62 dbc0 c92c dcc0 1abc ddc0 dee2 dcc0
000003c0: fa10 dac0 d110 d7c0 ca19 e2c0 9035 e0c0
000003d0: b38e e1c0 9c26 ddc0 3083 d9c0 61fa dec0
000003e0: 810d d9c0 f820 e1c0 f112 dfc0 9b45 dcc0
000003f0: 2c80 dbc0 ead4 dec0 2b3e dfc0 75bc dfc0

fc1.weight_sampler.eps_w f4 [300, 4]
2.8827698 1.2834184 1.5633408 0.3734642 -1.4417385 1.5435108 -0.9357495 -1.8317401
-0.40870228 -0.64714366 -1.1871884 -1.2032824 -1.9073613 0.065722406 0.14791474 0.039566793
-0.25906965 0.29640386 0.25721687 -0.4792931 -0.55669016 0.90163946 -0.57091856 -0.58146423
-0.88523924 -0.69463557 0.31467816 -0.48015633 0.38654688 -1.5664518 -0.08491706 -0.6293193
-0.98674566 1.1778615 -0.2785006 -0.39221576 0.028543252 0.16552602 -1.4077201 0.87012625
1.6647401 1.7116812 -0.11691055 -0.11135448 -1.4249 0.90587944 -0.93911797 0.18056884
-0.23622546 1.0332012 -1.6485248 -2.0831628 1.2293129 -1.0362989 0.35781538 -0.39762038
-1.6109647 0.2214227 -0.40212557 0.9764109 0.3285006 1.0173483 -0.68606544 -0.28053048
-0.45316336 -0.33151817 1.580625 -0.08020104 -0.44704 -0.11978343 -0.3220816 1.2344537
-0.91057295 -2.0104797 1.1190976 -1.3973774 -0.03635817 -0.9202246 -0.49739918 -1.458022
0.89346355 0.25114122 0.4469608 -0.034633774 0.29771855 0.32638234 -0.31678692 1.0462316
2.095975 -0.8606654 0.96404123 -0.57518566 -0.641988 -0.052677203 0.1472033 0.50091356
2.4855895 -0.9082649 1.2803533 0.00046861434 -2.2014027 1.9774528 -0.6835188 0.28543392
-0.6672396 0.92394847 -0.40809664 -1.697259 -0.46149904 -2.2934492 1.0870563 -0.6744303
-0.93066794 0.022468684 -1.2402203 0.7885631 -0.7991103 -0.416171 -0.8974842 -0.60435414
1.0044549 1.6819154 0.7757293 -0.11784803 0.8166402 0.3619533 -0.21158941 -2.080559
-0.8268191 0.6680547 0.88020843 1.1322953 -0.23208763 0.2625536 0.02473828 -0.51857364
1.7265596 0.1742369 -0.8669561 -0.0025439116 -1.6515819 0.9747274 -0.37647668 -1.9869511
0.8269288 1.1531442 -0.21422607 1.6679718 -0.82694155 -0.72334296 -0.30063617 -0.5204948
-1.4108223 -0.9108736 0.42865765 0.37992808 0.63337326 -0.52096087 -1.2121563 1.4298718
0.89954716 -1.0581007 0.888607 -0.9181871 -1.4555062 0.15275127 -1.0630827 -0.5830677
-0.70560354 -1.5008354 1.1709603 1.8523118 0.6808202 0.54861677 -1.0597749 0.3482671
-0.008539977 -1.4431313 -2.6164665 -0.023394294 -1.1920358 2.1242461 -0.6977278 0.1185906
-1.2919781 2.403979 -0.012801623 -0.55253685 -1.2169691 -2.9674282 -0.8094852 -0.45502126
-1.2539532 0.1679024 0.0230923 0.04412263 -0.7760108 -1.3802799 -0.16282827 -0.5092853
0.98691595 -0.82285297 0.06739495 1.0834595 1.4448197 -1.7145154 -0.37447494 0.71108866
-0.75899833 -0.673801 1.3449137 2.3937666 -1.9613189 -0.8707835 -0.960634 1.3573672
0.11742852 0.16659994 1.6562048 1.7804127 0.60918075 1.9294249 -0.2509671 -1.3410263
0.0072667217 0.7501217 0.12526779 0.019064648 -0.7296551 0.39462054 -0.14592984 -0.3723943
0.36312857 -0.24441676 -2.8962471 -1.8005731 -0.5393464 -0.7792447 -1.3995558 -0.4857729
-1.0054698 0.19621229 -1.277895 0.21780366 0.037811536 1.1562588 0.15394118 -0.13480239
-0.8275778 -0.024995549 0.8104631 -0.6117055 0.9615212 -1.2513165 1.3061903 0.7201503
00000000: 4d7f 3840 0e47 a43f 8d1b c83f b336 bf3e
00000010: e38a b8bf c391 c53f 478d 6fbf 7676 eabf
00000020: 6d41 d1be 35ab 25bf caf5 97bf 2805 9abf
00000030: 6a24 f4bf 7899 863d f676 173e ca10 223d
00000040: c7a4 84be 3fc2 973e eeb1 833e e865 f5be
00000050: 3f83 0ebf d8d1 663f b827 12bf d7da 14bf
00000060: 0a9f 62bf a3d3 31bf 7f1d a13e 0dd7 f5be
00000070: 79e9 c53e 7e81 c8bf ffe8 adbd 121b 21bf
00000080: 5d9b 7cbf 2ac4 963f a197 8ebe 81d0 c8be
00000090: 8ad3 e93c a77f 293e 2c30 b4bf 98c0 5e3f
000000a0: 3416 d53f 5f18 db3f cc6e efbd d10d e4bd
000000b0: 2063 b6bf b7e7 673f 096a 70bf 0ae7 383e
000000c0: 16e5 71be f03f 843f dc02 d3bf 8a52 05c0
000000d0: 205a 9d3f 71a5 84bf 9433 b73e e694 cbbe
000000e0: 1734 cebf a2bc 623e 67e3 cdbe 11f6 793f
000000f0: 3b31 a83e 7838 823f fca1 2fbf b1a1 8fbe
00000100: 0705 e8be c0bc a9be ec51 ca3f 7140 a4bd
00000110: 6de2 e4be 0451 f5bd e1e7 a4be 9402 9e3f
00000120: 4f1b 69bf b3ab 00c0 973e 8f3f 43dd b2bf
00000130: 4eec 14bd d793 6bbf 1bab febe 77a0 babf
00000140: 07ba 643f 9595 803e 0cd8 e43e 25dc 0dbd
00000150: 916e 983e 961b a73e e531 a2be ebea 853f
00000160: 7424 0640 9154 5cbf 68cb 763f 5e3f 13bf
00000170: 5359 24bf 0dc4 57bd 76bc 163e df3b 003f
00000180: e613 1f40 0c84 68bf 9ee2 a33f 5ab0 f539
00000190: c8e3 0cc0 2c1d fd3f 17fb 2ebf 6524 923e
000001a0: 37d0 2abf e387 6c3f 0bf2 d0be c83f d9bf
000001b0: 9a49 ecbe dfc7 12c0 a924 8b3f 77a7 2cbf
000001c0: 4140 6ebf 3f10 b83c 8abf 9ebf 45df 493f
000001d0: 7e92 4cbf 5e14 d5be 86c1 65bf f4b6 1abf
000001e0: fa91 803f 0149 d73f 3296 463f 4f5a f1bd
000001f0: 550f 513f f151 b93e e5aa 58be e127 05c0
00000200: 6baa 53bf a205 2b3f 5755 613f 0def 903f
00000210: 61a8 6dbe 6d6d 863e efa7 ca3c 3ec1 04bf
00000220: e8ff dc3f 286b 323e d6f0 5dbf c1b7 26bb
00000230: 0967 d3bf bc87 793f 8dc1 c0be 6a54 febf
00000240: 9bb1 533f 3b9a 933f 145e 5bbe 1a80 d53f
00000250: 71b2 53bf 012d 39bf fcec 99be 263f 05bf
00000260: d395 b4bf 032f 69bf 0479 db3e ef85 c23e
00000270: c024 223f b15d 05bf f027 9bbf 0a06 b73f
00000280: b948 663f d86f 87bf c07b 633f 4f0e 6bbf
00000290: 074e babf d46a 1c3e 1813 88bf ed43 15bf
000002a0: 6fa2 34bf 601b c0bf 07e2 953f 8e18 ed3f
000002b0: 3c4a 2e3f 2672 0c3f b4a6 87bf 1150 b23e
000002c0: 42eb 0bbc 87b8 b8bf 3074 27c0 64a5 bfbc
000002d0: a194 98bf a6f3 0740 4a9e 32bf a1df f23d
000002e0: 8a5f a5bf cbda 1940 e6bd 51bc 0e73 0dbf
000002f0: a5c5 9bbf 58ea 3dc0 6c3a 4fbf 8cf8 e8be
00000300: 8a81 a0bf 9bee 2b3e 102c bd3c eeb9 343d
00000310: a5a8 46bf 03ad b0bf 74bc 26be 8560 02bf
00000320: 86a6 7c3f 7ea6 52bf 5d06 8a3d cdae 8a3f
00000330: daef b83f 3e75 dbbf 2ebb bfbe e809 363f
00000340: b74d 42bf 397e 2cbf 2226 ac3f 7933 1940
00000350: 7f0c fbbf abeb 5ebf 1cec 75bf 35be ad3f
00000360: 5d7e f03d 2d99 2a3e 85fe d33f 90e4 e33f
00000370: 45f3 1b3f 65f7 f63f c27e 80be c0a6 abbf
00000380: ae1d ee3b fa07 403f 3346 003e 772d 9c3c
00000390: adca 3abf b40b ca3e a26e 15be 77aa bebe
000003a0: fdeb b93e 6348 7abe 1d5c 39c0 2e79 e6bf
000003b0: 9b12 0abf 957c 47bf a524 b3bf 3ab7 f8be
000003c0: 3cb3 80bf e0eb 483e 1092 a3bf ec07 5f3e
000003d0: 45e0 1a3d 4a00 943f c2a2 1d3e a309 0abe
000003e0: 24dc 53bf 77c3 ccbc 827a 4f3f bb98 1cbf
000003f0: 4126 763f 242b a0bf 3e31 a73f c55b 383f

fc1.bias_sampler.mu f4 [300]
0.00030100576 0.00029239373 -0.00018339862 0.018657565 0.040943626 -0.00011190721 -0.00015919648 0.038940463
-9.7701224e-05 -0.055895176 -0.00015311663 0.028162664 0.08635261 0.09196302 0.027014544 -0.068215
0.06714965 0.044872835 -0.00015042584 -0.047288325 -0.00024610892 0.08244103 -0.021514595 0.09820762
0.050775107 0.04102801 0.038569108 -0.07396784 0.04391015 -0.021459384 -0.024455462 0.036280148
0.10886665 -0.059093945 -0.04770899 -3.6485373e-05 0.0007588219 0.00017835601 0.028979111 -0.042013887
0.06832301 0.09219434 0.028669704 0.12740788 8.5835e-05 4.1589014e-05 -0.016665528 -0.03905988
0.045003995 0.077177346 -4.2075144e-06 0.054432437 0.11842623 -0.031030715 -0.030081043 0.11363763
3.4379056e-05 0.047580462 -0.05501586 -0.023218848 -0.015072289 -0.00012270786 -0.028587565 0.025119087
-0.035382867 -6.352205e-05 0.0447009 0.038943473 -0.05004511 -0.0333314 0.08998674 -0.021231761
0.11141107 0.04530421 -0.09916168 -0.022377772 0.10073177 0.0002177221 0.023215754 0.09688942
0.021270204 0.032170996 4.267485e-05 -0.00016901239 0.019515812 0.059820104 -0.026785655 -0.034576427
0.11301864 -0.01663986 -0.020433372 0.03502102 0.07208208 -0.023351783 -0.027663592 -0.09294606
0.00041735204 -0.021941835 5.5200086e-05 0.10826533 0.00016737291 0.11225869 0.09088217 -0.05128654
-0.00011949818 0.032474186 0.031897217 -0.016094552 -0.00015982716 -0.00014289422 0.10944707 0.0002955315
1.2869611e-05 -0.052559797 -0.15690821 0.099699214 -6.488196e-05 -0.060061302 -7.207967e-05 -0.00032119438
-0.01675997 0.13485013 8.479578e-05 -0.03743444 -0.00012779213 -0.00021586516 7.7848155e-05 0.036506712
0.00017335537 -0.04630262 -0.16557994 -0.0639516 -0.058209736 -0.00017564379 0.10098775 0.0955517
-0.00020702378 0.047608364 0.13041295 0.047259748 -0.028879158 0.029595573 -0.03526796 0.051484272
0.00012716731 -0.060824115 0.07158867 -0.00015615768 0.061183006 0.05953358 -0.053068396 -0.019075107
-4.439642e-05 -0.04714805 -8.378482e-05 0.09809451 -0.08420591 -0.046965696 0.09335832 0.06786649
0.023248702 0.068281576 0.04424256 0.07968248 0.042709094 0.07620625 0.15897898 -0.026816322
-1.777603e-05 -0.039685953 0.14454463 0.06288371 -0.054634847 -0.111611694 -0.00015338512 0.13172299
0.00027309006 -0.11034317 0.02328753 -0.05502102 -0.050261673 0.07197811 5.3873446e-05 -0.00010642376
-0.043892443 -0.023330811 0.047256082 0.08831466 -0.06447323 -0.000111798574 0.14596687 0.00019064585
-5.976335e-05 0.00017162962 0.16673012 -0.053471383 0.15578 5.3755444e-05 -1.02947524e-07 0.016313067
0.06788915 -0.028934272 0.06257286 4.253696e-05 -0.01753787 -0.00014367318 4.1353e-05 0.029227862
0.06526642 -0.021236908 -0.035452604 0.1446618 -0.025894012 0.047677495 0.15042752 0.0833142
-5.7158417e-05 -0.065181755 -0.029887632 -0.04023248 -0.04208963 0.12708317 -0.00028321167 0.27386782
0.02625397 0.124223754 0.08579606 -0.017941069 0.032697435 4.4214437e-05 0.05759607 -0.049205996
0.035642594 -0.038595524 -0.00019810763 0.00017001356 -0.051136643 -0.00023649904 -0.11672805 -0.03158463
0.04361743 0.02037697 -0.020891577 -0.056532767 0.097476475 -5.254007e-05 -0.031606354 -0.0331846
0.04675392 0.24337077 6.488033e-05 -1.623793e-05 0.00020531547 6.356571e-05 -0.000101279256 0.09661239
00000000: 4fd0 9d39 6c4c 9939 b14e 40b9 c0d7 983c
00000010: 81b4 273d baaf eab8 fbed 26b9 0980 1f3d
00000020: f2e4 ccb8 57f2 64bd ef8d 20b9 63b5 e63c
00000030: a3d9 b03d 1c57 bc3d 9b4d dd3c 4eb4 8bbd
00000040: c185 893d 94cc 373d a1bb 1db9 67b1 41bd
00000050: 2e08 81b9 d8d6 a83d 603f b0bc 1421 c93d
00000060: 8ff9 4f3d fd0c 283d a4fa 1d3d 737c 97bd
00000070: 21db 333d 97cb afbc d256 c8bc 7e9a 143d
00000080: 7af5 de3d 7e0c 72bd 806a 43bd df07 19b8
00000090: adeb 463a 1405 3b39 9a65 ed3c c116 2cbd
000000a0: efec 8b3d 63d0 bc3d badc ea3c 3677 023e
000000b0: 5102 b438 dd6f 2e38 2586 88bc 41fd 1fbd
000000c0: 1c56 383d 280f 9e3d 462e 8db6 8cf4 5e3d
000000d0: 7489 f23d 2034 febc 856c f6bc d9ba e83d
000000e0: 3b32 1038 bbe3 423d 4f58 61bd 7435 bebc
000000f0: c3f1 76bc 24ab 00b9 7830 eabc 8bc6 cd3c
00000100: a0ed 10bd 2437 85b8 4a18 373d 3183 1f3d
00000110: 1afc 4cbd 8286 08bd f84a b83d 3bee adbc
00000120: 7d2b e43d e890 393d 4715 cbbd 9751 b7bc
00000130: 754c ce3d 554c 6439 f72e be3c f66d c63d
00000140: da3e ae3c bcc5 033d c5fd 3238 eb38 31b9
00000150: a0df 9f3c ed05 753d 976d dbbc 03a0 0dbd
00000160: 5176 e73d 5150 88bc e363 a7bc 3372 0f3d
00000170: c59f 933d 3d4c bfbc c29e e2bc 815a bebd
00000180: 0bd0 da39 5dbf b3bc a486 6738 37ba dd3d
00000190: d380 2f39 e2e7 e53d 6e20 ba3d d611 52bd
000001a0: 199b fab8 a703 053d a8a6 023d b9d8 83bc
000001b0: 4797 27b9 e0d5 15b9 c925 e03d 91f1 9a39
000001c0: 8fea 5737 f148 57bd 8cac 20be 1a2f cc3d
000001d0: 3d11 88b8 d702 76bd 7a29 97b8 fb65 a8b9
000001e0: 344c 89bc 2716 0a3e 63d4 b138 db54 19bd
000001f0: f0ff 05b9 dd59 62b9 6942 a338 1088 153d
00000200: bac6 3539 d1a7 3dbd ca8d 29be 0ef9 82bd
00000210: 556d 6ebd 052d 38b9 aad2 ce3d 9cb0 c33d
00000220: 8614 59b9 fd00 433d f98a 053e 7093 413d
00000230: fc93 ecbc 6a72 f23c 2375 10bd 2ce1 523d
00000240: 3758 0539 b522 79bd 159d 923d 42be 23b9
00000250: 089b 7a3d 7cd9 733d 3f5e 59bd 6643 9cbc
00000260: 4b36 3ab8 501e 41bd a2b5 afb8 c6e5 c83d
00000270: 2674 acbd 1a5f 40bd a632 bf3d 96fd 8a3d
00000280: 1074 be3c 36d7 8b3d b037 353d 9130 a33d
00000290: bbef 2e3d 0612 9c3d 63cb 223e e7ad dbbc
000002a0: bc1d 95b7 bd8d 22bd 8203 143e 2dc9 803d
000002b0: cac8 5fbd ac94 e4bd 01d6 20b9 64e2 063e
000002c0: 872d 8f39 9afb e1bd 7dc5 be3c b95d 61bd
000002d0: 2fdf 4dbd 4269 933d 2cf6 6138 d22f dfb8
000002e0: 90c8 33bd 4220 bfbc 988f 413d 51de b43d
000002f0: 8a0a 84bd 6775 eab8 5778 153e 1be8 4739
00000300: 69aa 7ab8 7af7 3339 4dbb 2a3e cf04 5bbd
00000310: cb84 1f3e 7877 6138 0014 ddb3 fba2 853c
00000320: 7709 8b3d 9107 edbc 3326 803d b769 3238
00000330: 94ab 8fbc faa6 16b9 7272 2d38 456f ef3c
00000340: 67aa 853d 06f9 adbc c036 11bd 3922 143e
00000350: ae1f d4bc 7a49 433d ac09 1a3e a3a0 aa3d
00000360: 62bd 6fb8 037e 85bd e8d6 f4bc d0ca 24bd
00000370: 2d66 2cbd 1722 023e 077c 94b9 6738 8c3e
00000380: 9112 d73c 0669 fe3d d8b5 af3d 26f9 92bc
00000390: bfed 053d e472 3938 dbe9 6b3d 3a8c 49bd
000003a0: f8fd 113d 5716 1ebd 1dbb 4fb9 ab45 3239
000003b0: a874 51bd bafc 77b9 1e0f efbd e35e 01bd
000003c0: 31a8 323d 9aed a63c d024 abbc e78e 67bd
000003d0: bfa1 c73d 785e 5cb8 aa75 01bd 93ec 07bd
000003e0: 0a81 3f3d 3036 793e 5d10 8838 b036 88b7
000003f0: f449 5739 954e 8538 e365 d4b8 b7dc c53d
