trainedModels/dense_BBB_model.pth (torch, 387087 bytes, 25 tensors)

fc1.weight_mu f4 [300, 4]
00000000: d5ce 8937 c006 64bd c410 623e c95e 833d
00000010: bf96 71bd 5f1b 36bd 86dc febd 04aa 3eb8
00000020: 60bf c9bd 1677 53bd 7dad 96bd 8658 933d
00000030: 0c35 2db9 2ee3 75b8 1aec abbc 7301 eabc
00000040: afd9 6c3d 961f 4a3d 07c0 42be 1920 65bd
00000050: 9689 a63c 6f32 a8bc 3656 b1bd 5de0 d5bd
00000060: 3c6b a53d ac3a 8ebd ff97 85bd e679 e53c
00000070: 0c29 43bd 2404 293e c6a5 66bd 0509 333e
00000080: fd29 7abd 4371 cf3d 5715 89bd 0b7b 27bd
00000090: 8a0a b3bd 7061 29bd 54aa febd a1ea 303d
000000a0: 77bf f83d cd56 f0bd dfe5 54be a4d4 4d3d
000000b0: eaed fcbd 5a6a c0bd 4839 1e3e fa56 da3c
000000c0: e3b6 97b8 28a8 12be ee8d 663d 6d30 153e
000000d0: 59ee f2bc 53d0 a93d 3b31 ff3d 86b0 913d
000000e0: 9c0b 543d 0a26 ba3d 4f4e b93d 0f42 913d
000000f0: d55b 1b3d 9625 5ebe fa25 373d 4791 91bd
00000100: 7702 353e a22c 36bd 1219 51be 1b2f 04be
00000110: 062a 7cbd 5f41 83bd f9bd 37bd 9169 443e
00000120: ce98 dfb8 e3b8 1bbd 03ab 253d 11c5 15bd
00000130: bf21 88bd b13a d23d 8261 f43d 7394 bf3c
00000140: c338 863e 5960 a83d f062 e3bd e2f6 e3ba
00000150: bee8 ddbd 579f 53be f181 ec3c cb25 143e
00000160: dd0b 80bd a915 9e37 5194 22bd ce5b 12bd
00000170: 10de 60bd b70b 37ba 8d2f 1eb8 1bcb 3fbd
00000180: 5e55 07be a620 97bd b88a fdbc d585 8cbd
00000190: 6fed 873d e6c6 5fbd 65a6 9e3d 0b94 3f3e
000001a0: fdf5 e9bb d3a6 07be 580f cd3d ddad 473d
000001b0: a784 6f3d 4b79 30be e5dc 583e 29e8 b4bc
000001c0: afec b8b7 711b 023d 196c c13d 33ef 29b8
000001d0: 7c87 91b8 5a8b 90bc 77e6 1fbd fad3 313e
000001e0: 8a15 f7bd da7d 2dbe 66f2 00b9 93cd 02be
000001f0: b5af 9bbc b2af ed3c 4fa2 9f3d 788f 5dbe
00000200: 05a8 50be 0e90 493d 3c74 83bd a303 f4bc
00000210: 35a9 90be e6a7 a73d 53c4 c03c 2e86 343d
00000220: bbd0 d13d a6d7 e8bc a118 1f3e e434 ccbd
00000230: 80da e1bd 2f24 53bd 2c45 dabd fffc b43d
00000240: 425b d7bd c56b 7bbd 5fd0 423d a91a 33be
00000250: c21c f8bd 35ae 3a3d bdb5 063d 501d 3fbe
00000260: 48d1 23bd 5222 ab3d 3e51 8abd 2fc4 9d3d
00000270: ad4e 863e 99a1 0fb8 05b4 82bd 3126 3b3e
00000280: d941 3f3c 832f bf3c 63d8 24bd e201 77bd
00000290: 909f 8abd 71a6 0a3e e1b2 8f3c 3879 c0b5
000002a0: 3a2c 893d 3d62 2f3d 26eb 09bd a237 01be
000002b0: e95e 143e 1d4e d93c fe8f 37bd 8ae4 b4bc
000002c0: 91fe eebc 8597 933d 01eb c2bd c1c1 6bbd
000002d0: dac9 f5bc bb1a 02be 6cc6 67b8 003f e938
000002e0: fcb4 953d 797a 693d a05d 743d d127 313d
000002f0: abe1 303e 019a 71bd 0050 9e3d 3bff 1bbd
00000300: 888b 25be 72ac c6bd 4f1c 95bd 3294 053d
00000310: 6c04 cbbd 5192 3dbd f0d2 433d 2eb8 2c39
00000320: e7e3 1d3d ddcf 0d3d 6d98 78b8 cab1 cd37
00000330: 4d62 483d 0f3b 08bd e293 62be 9885 20be
00000340: 67f5 be3d c4a8 5cbd 5215 05bd 9f4f b63d
00000350: 6d83 f1bc 587c b3bd 2ac6 67bd 1e1e 173d
00000360: 2d66 813d 1c24 473e c1ca 7abd 82dd d03d
00000370: c6a8 f73c 3714 173e b76f 583e 01b4 b6bd
00000380: e3fd fb38 2a19 b53d 4381 c9ba 5707 883d
00000390: 7086 3d3e 061a e7b8 9f51 973c 2242 25be
000003a0: c03c 87bd e136 e63d 9aaa 86bd 3882 cc3d
000003b0: 76b7 cf3d 7066 023d f8f8 3dbd 8d03 3abd
000003c0: 6072 363e 0bda 123e 5583 78bd fd4c 82bc
000003d0: 331f dd3d d2d2 e3bd 0548 b8bc 82dc 44b7
000003e0: 3d6f 45be 840c 35bd 8b8f adbd 5aea 5dbe
000003f0: c37f f03d 708a c23d 01fc 8739 7a72 4d3d
1.6427986e-05 -0.0556705 0.22076708 0.06414563 -0.058981653 -0.044459697 -0.12444405 -4.545787e-05
-0.09850955 -0.05162724 -0.07357309 0.07194619 -0.00016518327 -5.862413e-05 -0.020986605 -0.028565144
0.057824787 0.04934653 -0.19018565 -0.055938814 0.020329278 -0.020531861 -0.086590216 -0.104431845
0.08077094 -0.069447845 -0.065231316 0.028012227 -0.047646567 0.16505486 -0.056310438 0.1748391
-0.0610752 0.10129025 -0.066935234 -0.040888827 -0.087422445 -0.04135269 -0.12434831 0.04319251
0.12145894 -0.11735306 -0.20790814 0.050251618 -0.12350066 -0.09395285 0.15451539 0.026652802
-7.2343064e-05 -0.14321959 0.0562877 0.14569254 -0.029654669 0.08291688 0.12460562 0.07113747
0.051768884 0.090892866 0.09048139 0.07092678 0.037929375 -0.21694025 0.04471395 -0.071077876
0.17676722 -0.04447616 -0.2041972 -0.12908594 -0.061563514 -0.06408953 -0.044858906 0.19180895
-0.00010661931 -0.03801812 0.040446293 -0.03656489 -0.066470616 0.10265101 0.11932661 0.023386216
0.2621518 0.08221502 -0.11102855 -0.0017392302 -0.10835408 -0.20666252 0.028870555 0.14467542
-0.06252263 1.8845154e-05 -0.039692227 -0.035732083 -0.054899275 -0.00069826416 -3.771442e-05 -0.046824556
-0.13216159 -0.07379274 -0.030949935 -0.06861464 0.06637084 -0.054633044 0.07746581 0.18708818
-0.00713992 -0.13247232 0.10012692 0.048749793 0.058476117 -0.1723377 0.21178015 -0.022083359
-2.2044724e-05 0.03176445 0.09444446 -4.051551e-05 -6.939375e-05 -0.017644573 -0.039038148 0.17366019
-0.12064655 -0.1694254 -0.00012297332 -0.12773733 -0.019004682 0.029014442 0.0779463 -0.2163676
-0.20376594 0.049209647 -0.06418654 -0.02978689 -0.28254095 0.08186321 0.023531115 0.044073276
0.1024489 -0.028423142 0.15536739 -0.099710256 -0.11028004 -0.05154818 -0.10657725 0.08837318
-0.10515453 -0.061382074 0.047562 -0.17490639 -0.1211486 0.045576293 0.032888163 -0.18663526
-0.039994508 0.083561555 -0.06753777 0.07703435 0.262319 -3.4244356e-05 -0.06381992 0.18276288
0.011673414 0.023338085 -0.040245425 -0.06030453 -0.067687154 0.13540055 0.01754135 -1.4340394e-06
0.06697889 0.042818297 -0.03367152 -0.12618878 0.1448933 0.026526505 -0.044815056 -0.022081632
-0.029174121 0.072066344 -0.0951748 -0.057557825 -0.030003477 -0.1270551 -5.5259487e-05 0.000111220405
0.07309911 0.057001565 0.0596596 0.043250863 0.17273585 -0.05898476 0.077301025 -0.038085204
-0.16166508 -0.0970086 -0.0728079 0.032612033 -0.09912953 -0.046282116 0.047808588 0.0001647181
0.038547423 0.034622062 -5.9269765e-05 2.4520694e-05 0.048921872 -0.033259448 -0.22126725 -0.15675962
0.093241505 -0.053871885 -0.032491036 0.08901905 -0.029481614 -0.08763951 -0.05658547 0.036893956
0.063183166 0.19447368 -0.061228517 0.10198499 0.030231845 0.14753805 0.21136366 -0.08921052
0.00012015903 0.0884269 -0.0015373606 0.06642025 0.18508315 -0.000110197856 0.018471537 -0.16138509
-0.06603384 0.11240936 -0.065755084 0.09985775 0.10142414 0.031835973 -0.046380013 -0.045413543
0.17817068 0.1434099 -0.060672123 -0.015905851 0.107969664 -0.11124195 -0.02249528 -1.1733851e-05
-0.19280715 -0.04420139 -0.08474644 -0.2167143 0.117431186 0.09499061 0.00025936964 0.050158

fc1.weight_rho f4 [300, 4]
00000000: 768d e3c0 2972 e0c0 e22a e0c0 69b7 dbc0
00000010: ccda e0c0 7661 e0c0 8283 e0c0 180a e1c0
00000020: 4c5f ddc0 4909 ddc0 a319 e1c0 1e11 e2c0
00000030: 0255 dec0 d9e6 dec0 5563 dec0 b4b9 e1c0
00000040: c599 e6c0 252f dac0 011c dcc0 4210 e1c0
00000050: df01 e2c0 fafe ddc0 8f1f e3c0 57f1 e2c0
00000060: fd57 dcc0 dfbd dfc0 1293 dec0 50d4 e1c0
00000070: ace7 e0c0 f869 dec0 f556 e3c0 bab0 e2c0
00000080: 425e e0c0 31b2 dfc0 317f e1c0 e49f dfc0
00000090: b7c7 dac0 2f04 dbc0 fd0e e1c0 d8c8 d8c0
000000a0: 44b7 e1c0 cb39 dac0 947f dbc0 7264 dfc0
000000b0: 728d e0c0 06f2 d6c0 2d42 e1c0 dfa7 e2c0
000000c0: 9060 e0c0 d5ed dec0 86bc e0c0 244c e8c0
000000d0: a06d e4c0 0c33 e0c0 96ef ddc0 0423 dec0
000000e0: 9f12 e1c0 d685 e2c0 fe1e e0c0 217a e0c0
000000f0: 659e e2c0 b7f2 e1c0 736d e4c0 b88f dcc0
00000100: b63b dec0 8eea e0c0 c559 dbc0 d733 e3c0
00000110: a4fb ddc0 e94f dfc0 4bb7 e3c0 1928 dec0
00000120: 7f11 e1c0 10d2 e2c0 4467 e0c0 0336 e3c0
00000130: e6cd dfc0 f640 e2c0 5264 e3c0 9997 e1c0
00000140: 8022 dec0 1799 ddc0 17ea dfc0 e949 e2c0
00000150: 554c e2c0 30f5 ddc0 a1ed dec0 7e75 dcc0
00000160: ba7f e1c0 3dcd dec0 d57b dbc0 c119 e4c0
00000170: b007 ddc0 021a dec0 6a93 e1c0 ae9b e7c0
00000180: 217b e0c0 3d00 e0c0 cceb e1c0 7612 e2c0
00000190: aeaf ddc0 5370 dfc0 813d d9c0 40b0 dec0
000001a0: 4f9f e4c0 d9bd dec0 ad64 e2c0 1f66 e1c0
000001b0: 1c88 ddc0 1c73 dbc0 623b e1c0 ce01 ddc0
000001c0: ac74 e0c0 df80 e0c0 219a e2c0 37cd e1c0
000001d0: d0f4 e7c0 c0df ddc0 36dc e3c0 55a2 e1c0
000001e0: 084a dcc0 7923 e3c0 6875 e4c0 8c85 dbc0
000001f0: 436e dcc0 d13d e3c0 8e1b dcc0 b6c1 dbc0
00000200: 7fe2 dcc0 cbcb dec0 86ef dfc0 dedb e1c0
00000210: 9e6d e0c0 a66e dcc0 f55f e0c0 cd67 e0c0
00000220: b18c e4c0 240f e4c0 f319 ddc0 51b3 e1c0
00000230: 9f2e e5c0 4730 e3c0 4ee3 e1c0 2f9a e1c0
00000240: a6e5 e5c0 b73d e0c0 9b98 dec0 484a dec0
00000250: d78c e2c0 d80f dec0 970e dbc0 c587 ddc0
00000260: d94a d6c0 8ae3 e6c0 c38e e0c0 8979 e2c0
00000270: 21ee d7c0 7683 dbc0 15f4 ddc0 74ca dfc0
00000280: 09a7 e4c0 cab5 e2c0 8ab2 dfc0 a0aa dac0
00000290: 7fe9 ddc0 d554 e2c0 0ce1 dfc0 fa51 e1c0
000002a0: d052 ddc0 08dc dec0 1db3 dec0 3128 e3c0
000002b0: 936f dcc0 60da e1c0 25ed e2c0 6b1d e1c0
000002c0: beb5 e2c0 5c58 dcc0 f1c8 ddc0 0903 dcc0
000002d0: 0d3d dfc0 5a29 e1c0 097b e3c0 738f e4c0
000002e0: f845 e1c0 b630 e3c0 30e7 e3c0 c259 dec0
000002f0: 920d ddc0 1670 dfc0 22fe e3c0 e1f6 dec0
00000300: 25e5 d9c0 25a3 ddc0 9909 e4c0 dd70 dec0
00000310: a85c dec0 3d9c e2c0 a31a e0c0 180a e2c0
00000320: 9a50 e1c0 3f85 dec0 3084 dbc0 ba1f e4c0
00000330: 35f8 dfc0 8049 dfc0 4d2b dfc0 8c8c e4c0
00000340: 2e8d dcc0 4c6a dec0 f774 dec0 ad2e e0c0
00000350: 22cf ddc0 deb4 e3c0 bd51 d9c0 c5f9 dfc0
00000360: 61a3 e1c0 a8b7 dfc0 46c3 dec0 0401 ddc0
00000370: f7cb dec0 ca7a dac0 5818 e3c0 1088 dec0
00000380: 0b0b dbc0 1c51 e1c0 4ff2 dbc0 479d ddc0
00000390: c6d7 e0c0 b47e e0c0 04e8 dec0 3443 dbc0
000003a0: ee51 dcc0 1751 e1c0 6d30 e2c0 29e0 e1c0
000003b0: 02b6 ddc0 5e40 dec0 b9e0 dfc0 e842 dfc0
000003c0: e9ca dcc0 cb9a d9c0 7b66 e4c0 3068 e2c0
000003d0: cee2 e3c0 1f6b dfc0 adb9 dbc0 b0da e0c0
000003e0: 4d7a dbc0 9184 e3c0 6759 e1c0 f8b8 dec0
000003f0: 36d1 ddc0 fbf8 e0c0 1d1b e1c0 52da e1c0
-7.111018 -7.0139356 -7.0052347 -6.866139 -7.0267086 -7.011897 -7.016053 -7.032482
-6.917883 -6.9073834 -7.0343795 -7.0645895 -6.947877 -6.9656796 -6.9496255 -7.053919
-7.2062707 -6.818255 -6.8784184 -7.0332346 -7.0627284 -6.937375 -7.0976024 -7.0919604
-6.8857408 -6.9919276 -6.955453 -7.057167 -7.0282803 -6.9504356 -7.104365 -7.084073
-7.011506 -6.990502 -7.0467763 -6.988268 -6.8368793 -6.8442607 -7.0330796 -6.774517
-7.0536213 -6.819555 -6.8593235 -6.9810114 -7.0172663 -6.717044 -7.039328 -7.082992
-7.0117874 -6.966532 -7.023013 -7.2592945 -7.138382 -7.0062313 -6.9354963 -6.9417744
-7.033523 -7.0788374 -7.003783 -7.0149083 -7.0818353 -7.0608783 -7.1383605 -6.892544
-6.944789 -7.028632 -6.854708 -7.100078 -6.936968 -6.9785047 -7.1161246 -6.9423947
-7.0333858 -7.0881424 -7.0126057 -7.100343 -6.993884 -7.07043 -7.105996 -7.0497556
-6.9417114 -6.9249377 -6.9973254 -7.071522 -7.071818 -6.93618 -6.9665074 -6.8893423
-7.0468416 -6.9625535 -6.858866 -7.128144 -6.9071884 -6.940675 -7.049245 -7.237754
-7.0150304 -7.000029 -7.060034 -7.0647535 -6.9276953 -6.9824615 -6.788758 -6.959015
-7.144447 -6.960675 -7.0747895 -7.043716 -6.922865 -6.8578014 -7.038499 -6.9064703
-7.014242 -7.0157313 -7.0813146 -7.0563006 -7.2486343 -6.933563 -7.120631 -7.051066
-6.884037 -7.09808 -7.139332 -6.860052 -6.8884597 -7.101296 -6.8783636 -6.8673964
-6.9026484 -6.962377 -6.9979887 -7.0580893 -7.013381 -6.888507 -7.0117135 -7.012671
-7.1421742 -7.126848 -6.9094176 -7.053139 -7.161941 -7.099643 -7.058997 -7.0500712
-7.1842833 -7.0075336 -6.9561286 -6.9465675 -7.0796924 -6.939434 -6.845531 -6.9228234
-6.6966367 -7.215276 -7.017427 -7.077336 -6.7478185 -6.8597975 -6.936045 -6.9934635
-7.14539 -7.084691 -6.9905443 -6.8333282 -6.934753 -7.0728555 -6.9962215 -7.041257
-6.916359 -6.9643593 -6.9593644 -7.098656 -6.88862 -7.057907 -7.0914483 -7.034841
-7.0846853 -6.885786 -6.930779 -6.8753705 -6.9762025 -7.036298 -7.108769 -7.142511
-7.039791 -7.099696 -7.121971 -6.948457 -6.9079065 -6.9824324 -7.124772 -6.9676366
-6.8092217 -6.926165 -7.1261716 -6.9512773 -6.9488106 -7.081572 -7.0032516 -7.063732
-7.041089 -6.9537654 -6.859886 -7.128873 -6.9990487 -6.977722 -6.9740357 -7.1421566
-6.892234 -6.9504757 -6.951778 -7.0056977 -6.931535 -7.1158285 -6.791228 -6.9992394
-7.0511937 -6.991169 -6.961337 -6.906374 -6.962398 -6.827489 -7.0967216 -6.954109
-6.845098 -7.041151 -6.8733287 -6.925449 -7.0263395 -7.0154667 -6.965822 -6.8519535
-6.885001 -7.0411487 -7.0684114 -7.0586133 -6.9284678 -6.9453573 -6.996182 -6.9769173
-6.8997693 -6.8001456 -7.13751 -7.075218 -7.121436 -6.9818263 -6.8664155 -7.0266953
-6.8586793 -7.1099324 -7.0421634 -6.960079 -6.9317884 -7.030393 -7.0345597 -7.0579004

fc1.bias_mu f4 [300]
00000000: 4d42 4337 126e ed38 72a6 61bd 4625 ef3c
00000010: 0dfa 033d d408 eb38 a3fe b8b8 bb0a 163d
00000020: 7c88 ea3c 8f66 efbd 6ac6 e1bc 555c 243d
00000030: 7424 f63d 4e73 1d3e 8885 883d b12a 20be
00000040: 8e90 b03d 8667 473d c9fc 2abd 1fe6 25be
00000050: 9146 e03c 8250 063e b84c ecbd 86d0 043e
00000060: d4f7 973d e46b 6e3d eee8 c03c a0aa 26be
00000070: 5526 653d b2a8 84bd f03d 98bd 37b1 f23c
00000080: a458 1b3e f7ee 93bd 5e8b ddbd 895a a3b8
00000090: 2793 5a3d 8327 913c 7456 893d 493b cbbd
000000a0: 635f 063e 3d07 ec3d ff7e 4f3d 2844 2e3e
000000b0: c93b 0abd 0d61 f8bc 9418 28bd 7759 99bd
000000c0: 6ce6 b23d 3b06 a43d ba76 5338 7c31 953d
000000d0: a49b 363e 0f12 3abd 43f1 a9bd 7ba8 ed3d
000000e0: 5e94 dabc 181a a43d c1f0 11be 7e26 88bd
000000f0: f8ff 2ebd 2416 15bd e03c 56bd e561 733d
00000100: 72e1 7fbd 788e 70b9 ca47 cb3d 0760 2c3d
00000110: 6b14 f2bd 2b4a a3bd 0140 e33d c317 55bd
00000120: 1896 e43d 06ad 4c3d 424e 56be e87a 64bd
00000130: e8dc 173e 0ea0 fdb8 3c4e ed3c 200d 0b3e
00000140: a751 ea3c 5d54 353d 4dea 3f39 b927 3739
00000150: 153a af3c c82c 853d cd32 4ebd eb9d 27be
00000160: 182b 0c3e f396 9dbd 6756 9abd 81ec 913d
00000170: 20cf db3d 9383 12bd 2f6b 85bd 9ea7 00be
00000180: a7d6 8d39 790f a2bd f65d 2fbd ee3f 003e
00000190: b4ee cf36 91f7 0e3e f85c f63d e561 2abe
000001a0: b4c0 e637 16c1 133d 41d0 0d3d d788 dbbd
000001b0: a42d 853a 6bb6 e03c 6cbf d83d ee84 89bd
000001c0: c378 593c 6a8b d6bd 8a16 9fbe 5dd5 073e
000001d0: 3d85 933c 8bcf ddbd 050d f7b7 8ef2 5238
000001e0: 8c65 b0bd dca7 1a3e 78a5 e4b7 e552 c2bd
000001f0: 8f22 13bd de8e 9bbc 9b16 d8b8 f065 413d
00000200: b454 72b8 077c 9ebd 8452 61be 5205 f8bd
00000210: e751 b3bd 312c 073d 203f 193e 7233 2a3e
00000220: 7a26 9438 e86e 8c3d 9ee4 643e a761 913d
00000230: 8e96 80bd 8c5f 353d 5211 adbd 7b38 343d
00000240: 9140 7c3c b84d d3bd cd9f e63d 3dc4 c2bc
00000250: 018c b43d 11a1 e83d 977f a7bd 4a73 cbbc
00000260: 5397 e338 9d7c 65bd 197c 60b8 1d3b 3e3e
00000270: ce7f 1bbe 6b87 3abe aef6 e43d 9d4a d63d
00000280: bbb9 853d 96bd ea3d ffbe 7c3d 56c7 763d
00000290: 0934 ea3c 171f b23d 161f 4f3e 7c05 73bd
000002a0: 35a0 0ab9 de4f 21be 159d 283e 4a93 a23d
000002b0: 8a84 f5bd 64ea 10be a238 2bbd 75b0 2d3e
000002c0: e21b c23c d284 3bbe 09b5 513d 6855 22be
000002d0: ca36 b5bd 43e2 a33d c543 beb8 f4b4 3a39
000002e0: 9a5e bebd a3d7 01be 1a83 713d 4a31 183e
000002f0: 7058 34be 92e3 c3bb babf 173e 9fad c1b8
00000300: f712 e4bc aa79 4d39 1374 2c3e 97c5 afbd
00000310: 2ba8 2c3e 3ccd 85bd c633 e2b8 b034 083d
00000320: af42 f23d bdcf a5bd e7c1 b63d efa3 e237
00000330: e3a9 e3bc 7e38 e2b8 f54e 93b8 d2da 9d3d
00000340: 726d 983d 3bfa cbbc a72f 22be b565 373e
00000350: e179 6cbd 0437 383d e57d 433e f6a8 f03d
00000360: a667 1db9 ea16 eebd 3c20 18bd 6b47 b5bd
00000370: 3edb b7bd e1b6 2a3e 22cc e5bc 9ed8 9b3e
00000380: 7d04 8c3d ac86 3b3e 9a87 083e 8f53 8fbd
00000390: 5270 1d3d 6ade 2f3d a7ab ba3d 05ac 06be
000003a0: 6d02 0f3d 73b4 2abd 50a2 8038 9633 27b9
000003b0: 3a15 d9bd f95f 1d39 b7ac 5ebe 5b79 0abe
000003c0: 4ffc 353d aa1e 153d 8be1 d5bc 06c2 f7bd
000003d0: f63a 013e b5e4 12bd 166a 6ebd f4d3 abbd
000003e0: 58a4 e73c 1f71 803e 9d29 17bd f0bb 3937
000003f0: 499f 36b7 3aa5 10bd 032d c838 2554 da3d
1.1638343e-05 0.00011321543 -0.055090375 0.029192578 0.03222089 0.000112073176 -8.8212335e-05 0.036631327
0.028629534 -0.116894834 -0.027560432 0.040127117 0.12018672 0.15376016 0.06666094 -0.15641285
0.086213216 0.048682712 -0.04174498 -0.16201065 0.027377399 0.13116649 -0.115380704 0.1297017
0.07420316 0.05820836 0.02354857 -0.16276026 0.05594476 -0.064774886 -0.07433689 0.029625518
0.15170532 -0.07223313 -0.10817598 -7.789309e-05 0.05336299 0.017719036 0.06705943 -0.09923417
0.13122325 0.11524818 0.050658222 0.17018187 -0.03374842 -0.030319715 -0.041039065 -0.07487767
0.08735356 0.08009001 5.0416893e-05 0.07284829 0.1783281 -0.04542738 -0.0829797 0.11604401
-0.026682075 0.080127895 -0.14251997 -0.06647967 -0.04272458 -0.036398068 -0.05230415 0.05941953
-0.06247086 -0.00022941257 0.09925802 0.042083766 -0.11820301 -0.07973131 0.11096192 -0.052024614
0.111614406 0.049969696 -0.2092829 -0.055781275 0.14830363 -0.000120937926 0.02896797 0.13579226
0.028603388 0.04426991 0.00018302463 0.00017467038 0.02139 0.06502682 -0.050341416 -0.16368835
0.13688314 -0.07694807 -0.07536011 0.07125188 0.10732865 -0.03577001 -0.06514584 -0.12563941
0.00027053544 -0.079131074 -0.042814218 0.12524387 6.1968694e-06 0.13961627 0.12029451 -0.16638906
2.7507871e-05 0.036072813 0.034622435 -0.107194595 0.0010160697 0.027430734 0.10583386 -0.067148075
0.013273421 -0.1047581 -0.31071883 0.13264985 0.018007869 -0.10830601 -2.9450757e-05 5.02938e-05
-0.086131185 0.15103096 -2.725677e-05 -0.09488467 -0.03592163 -0.018989023 -0.00010303893 0.047216356
-5.7776182e-05 -0.077385 -0.22004133 -0.1211039 -0.08755856 0.03300113 0.14965487 0.16621187
7.064357e-05 0.06857091 0.22352836 0.07098704 -0.06278716 0.044280574 -0.08450569 0.043999176
0.015396253 -0.10317558 0.11260948 -0.023775214 0.08815766 0.11358846 -0.08178633 -0.024835248
0.0001085239 -0.056027044 -5.3521337e-05 0.18577237 -0.15185472 -0.1821572 0.11179863 0.1046345
0.06529566 0.11461942 0.061705586 0.060248695 0.028589265 0.08697336 0.20226702 -0.059331402
-0.00013220387 -0.15753123 0.16466172 0.079382494 -0.119881704 -0.14151913 -0.041802056 0.16961844
0.023694936 -0.18312386 0.05119804 -0.15852892 -0.08848341 0.080021404 -9.072529e-05 0.00017805753
-0.092953876 -0.12679915 0.05896292 0.14862552 -0.17611861 -0.005978056 0.14819232 -9.2352966e-05
-0.027841074 0.00019595647 0.16841154 -0.08582609 0.16861026 -0.06533286 -0.00010786163 0.03325337
0.11829125 -0.080962636 0.08923703 2.7017637e-05 -0.02779097 -0.00010787042 -7.024213e-05 0.07707752
0.0744275 -0.024899593 -0.1583849 0.17909892 -0.05773342 0.044974342 0.19090994 0.11750977
-0.00015011299 -0.11625464 -0.037140116 -0.088515125 -0.08977364 0.16671325 -0.02805144 0.30438703
0.068367936 0.18313092 0.13332978 -0.069983594 0.038437195 0.04293672 0.09114771 -0.13151558
0.034914423 -0.041675996 6.133749e-05 -0.00015945578 -0.10599752 0.0001500844 -0.21745573 -0.13522856
0.044430073 0.036406197 -0.026108524 -0.12097554 0.12620148 -0.035862643 -0.05820664 -0.08390036
0.028276607 0.25086305 -0.03690492 1.1070617e-05 -1.0885132e-05 -0.035313822 9.545127e-05 0.106605805

fc1.bias_rho f4 [300]
00000000: c74f dfc0 0bb9 e1c0 4276 e0c0 d128 e0c0
00000010: 864b e5c0 7c7a e3c0 256a d9c0 93ae dbc0
00000020: a5f1 e0c0 16fe dfc0 30ec ddc0 afb8 dfc0
00000030: 8945 e1c0 dfaf e6c0 e75a e2c0 b553 e2c0
00000040: 377e dfc0 d0f7 dec0 7ff4 ddc0 1182 e0c0
00000050: 5b72 dec0 4fb5 dcc0 362b e5c0 8195 e3c0
00000060: ab8b dcc0 19d9 dec0 0dff dec0 001f e1c0
00000070: f4b5 e2c0 2518 e4c0 fe2d dfc0 a810 e2c0
00000080: 2820 dfc0 9a60 dfc0 f8e2 e1c0 9603 e0c0
00000090: d842 ddc0 1168 e0c0 1e43 dec0 454a ddc0
000000a0: 6c70 dfc0 5748 e5c0 b626 e1c0 89af ddc0
000000b0: 0393 ddc0 0da1 e1c0 6ede e0c0 f71b e1c0
000000c0: e89a dcc0 2ce6 e1c0 cce8 ddc0 d6aa e0c0
000000d0: c759 e3c0 5d78 e3c0 8b53 e1c0 5085 ddc0
000000e0: e6f8 dbc0 5b9c e0c0 bb93 dbc0 1d0e dec0
000000f0: a123 e8c0 0359 e0c0 9534 e2c0 3366 e2c0
00000100: 400a dcc0 fe0f e2c0 12b7 e3c0 7c8f dcc0
00000110: 54b5 dfc0 40b2 e2c0 b091 ddc0 a417 e0c0
00000120: 6f13 e1c0 341b e4c0 0ae8 e5c0 84ac e6c0
00000130: 540d dfc0 0145 e0c0 9315 e1c0 6c0e dcc0
00000140: e66a dfc0 0fe4 e3c0 52b6 dec0 e70f e1c0
00000150: d5f7 dbc0 b004 dcc0 727b e0c0 d181 ddc0
00000160: 386f ddc0 d600 e0c0 7a5d e5c0 aa80 ddc0
00000170: a957 e5c0 a6a5 e1c0 6227 e1c0 b3e3 dbc0
00000180: 2eb6 d8c0 4e58 dac0 5a30 dec0 6950 e3c0
00000190: bb10 e2c0 7560 d9c0 98af e3c0 04b7 dec0
000001a0: 57a4 e4c0 09ac dbc0 1f9b e3c0 3d87 dec0
000001b0: fcb6 e3c0 4845 dfc0 01fd ddc0 cfa0 e0c0
000001c0: 31dd e2c0 002d dfc0 e24a dfc0 7d40 e1c0
000001d0: 413b e1c0 44b9 e4c0 66f3 e0c0 1f33 e1c0
000001e0: e32c e0c0 47d5 d7c0 5e5f e5c0 aa4e ddc0
000001f0: 6e09 e0c0 aae2 dbc0 873e e0c0 b846 e1c0
00000200: c38a e2c0 2a1a dec0 3f64 e1c0 d0cb dbc0
00000210: 3d42 e4c0 25cb e0c0 947d dfc0 fdee e0c0
00000220: e5b0 e5c0 f0c4 dcc0 cc43 e1c0 e55b e5c0
00000230: 1b2c e2c0 5017 ddc0 451c e2c0 95ea dec0
00000240: d256 e2c0 1cc7 e0c0 d14b dec0 483e e1c0
00000250: 2aba e4c0 4cec dcc0 43b5 dec0 96b1 e0c0
00000260: fb36 ddc0 d2e5 ddc0 321d e3c0 7881 dbc0
00000270: 0af0 e0c0 f9ba e2c0 e69c ddc0 abcd ddc0
00000280: 59ca dac0 f582 dbc0 de0c e2c0 4efe e0c0
00000290: 0255 e4c0 7edd e2c0 02df ddc0 0d1b dfc0
000002a0: 66f4 e0c0 9840 e3c0 e86c e4c0 0d9a dfc0
000002b0: 59f9 dec0 4862 dec0 f05f dfc0 d909 dfc0
000002c0: 3733 dac0 46ff ddc0 8499 dfc0 1c7d dfc0
000002d0: e06b dfc0 57f1 ddc0 57a7 e5c0 b08e ddc0
000002e0: 72bb e0c0 3b9f e2c0 5c32 e8c0 c652 e1c0
000002f0: e770 dcc0 14b4 dcc0 4c10 e4c0 1466 e4c0
00000300: 1bbc e0c0 83e9 ddc0 87ad e3c0 88ad dfc0
00000310: 08cd ddc0 dbbb e2c0 be58 e4c0 08fb e2c0
00000320: ba1f e1c0 26bc e3c0 c7ae e0c0 33f9 dfc0
00000330: 0301 e0c0 1c11 ddc0 0ab5 ddc0 3e00 e1c0
00000340: 0ff6 e6c0 d73a e2c0 19ca dec0 698e e2c0
00000350: f801 ddc0 88d1 e0c0 7c53 dcc0 f547 dcc0
00000360: f6ba e4c0 65da dec0 023e e0c0 da02 e4c0
00000370: f6d8 ddc0 0ab5 e1c0 0994 d7c0 32c4 dcc0
00000380: 500e e3c0 509f e7c0 36dd e0c0 5069 e4c0
00000390: 9435 e3c0 05fc dec0 8940 e0c0 0929 e0c0
000003a0: 524c e1c0 c805 dfc0 9afc dfc0 98ec e3c0
000003b0: eb76 dcc0 4a14 e1c0 fd53 dec0 35ae e0c0
000003c0: 246d dac0 8916 e1c0 0ad3 dcc0 3666 e1c0
000003d0: fb2e dfc0 4d4c ddc0 a4e8 dbc0 d8db e0c0
000003e0: 9f67 ddc0 5863 e2c0 da00 e0c0 4883 dcc0
000003f0: 2570 dac0 badf dbc0 f6f5 e3c0 6eb3 e3c0
-6.9784884 -7.0538383 -7.014436 -7.0049825 -7.165469 -7.1087017 -6.794207 -6.8650603
-7.0294976 -6.9997663 -6.9350815 -6.9912944 -7.039738 -7.2089686 -7.0735965 -7.072718
-6.984157 -6.9677505 -6.9360957 -7.0158772 -6.9514594 -6.8971324 -7.161525 -7.112
-6.8920493 -6.964001 -6.968634 -7.035034 -7.084711 -7.1279473 -6.9743643 -7.064533
-6.9726753 -6.980542 -7.058956 -7.0004377 -6.9144096 -7.0127034 -6.945693 -6.915316
-6.9824734 -7.1650805 -7.0359755 -6.9276776 -6.924196 -7.0509095 -7.027152 -7.0346637
-6.8939095 -7.059347 -6.9346676 -7.020854 -7.104709 -7.108443 -7.041448 -6.9225235
-6.874133 -7.0190864 -6.8617835 -6.939223 -7.254349 -7.0108657 -7.0689187 -7.0749755
-6.876251 -7.064452 -7.1160975 -6.892515 -6.990885 -7.084259 -6.924034 -7.002886
-7.0336223 -7.1283207 -7.184575 -7.208559 -6.970377 -7.0084233 -7.0338836 -6.8767605
-6.981799 -7.121589 -6.959756 -7.033191 -6.874003 -6.875572 -7.015069 -6.9220967
-6.9198265 -7.000102 -7.1676607 -6.921956 -7.1669507 -7.0514708 -7.0360575 -6.8715453
-6.7722387 -6.8232794 -6.9434023 -7.1035657 -7.0645423 -6.7930245 -7.115185 -6.959841
-7.145061 -6.8647504 -7.1126857 -6.9540086 -7.116087 -6.977207 -6.9371343 -7.01963
-7.089501 -6.974243 -6.977891 -7.039122 -7.038483 -7.1476154 -7.0297117 -7.0374904
-7.0054793 -6.744785 -7.1678915 -6.9158525 -7.001151 -6.871419 -7.0076327 -7.0398827
-7.0794387 -6.940694 -7.043487 -6.8686295 -7.1330857 -7.024798 -6.9840794 -7.0291734
-7.1778436 -6.89904 -7.039526 -7.1674676 -7.067884 -6.909096 -7.065951 -6.9661355
-7.073098 -7.0243053 -6.946755 -7.0388527 -7.147725 -6.903845 -6.9596267 -7.021678
-6.9129615 -6.934304 -7.097314 -6.8595543 -7.0293016 -7.085324 -6.9254026 -6.931356
-6.8372006 -6.859736 -7.0640707 -7.031043 -7.135377 -7.0895376 -6.9334726 -6.972052
-7.029834 -7.101635 -7.138294 -6.987555 -6.967938 -6.949497 -6.980461 -6.969952
-6.818752 -6.9374113 -6.9874897 -6.984022 -6.9819183 -6.9357104 -7.176677 -6.923668
-7.0228815 -7.0819373 -7.2561474 -7.041354 -6.888782 -6.896982 -7.1269894 -7.1374607
-7.022962 -6.934755 -7.1149325 -6.989933 -6.931278 -7.0854316 -7.135833 -7.0931435
-7.035123 -7.1167173 -7.021335 -6.99917 -7.0001235 -6.9083385 -6.9283495 -7.0312796
-7.2175364 -7.0696826 -6.96217 -7.079884 -6.9064903 -7.0255775 -6.885191 -6.883784
-7.1478224 -6.9641595 -7.0075693 -7.125348 -6.9327345 -7.0533495 -6.7368207 -6.8989496
-7.095497 -7.2381973 -7.0270033 -7.1378555 -7.1002903 -6.968264 -7.007878 -7.005009
-7.0405664 -6.9694557 -6.999585 -7.122631 -6.8895164 -7.0337267 -6.9477525 -7.0212655
-6.825823 -7.034001 -6.9007616 -7.043727 -6.974485 -6.915564 -6.8721485 -7.0268364
-6.918899 -7.074627 -7.000104 -6.8910255 -6.8261895 -6.8710604 -7.1237745 -7.115653

fc1.weight_sampler.mu f4 [300, 4]
00000000: d5ce 8937 c006 64bd c410 623e c95e 833d
00000010: bf96 71bd 5f1b 36bd 86dc febd 04aa 3eb8
00000020: 60bf c9bd 1677 53bd 7dad 96bd 8658 933d
00000030: 0c35 2db9 2ee3 75b8 1aec abbc 7301 eabc
00000040: afd9 6c3d 961f 4a3d 07c0 42be 1920 65bd
00000050: 9689 a63c 6f32 a8bc 3656 b1bd 5de0 d5bd
00000060: 3c6b a53d ac3a 8ebd ff97 85bd e679 e53c
00000070: 0c29 43bd 2404 293e c6a5 66bd 0509 333e
00000080: fd29 7abd 4371 cf3d 5715 89bd 0b7b 27bd
00000090: 8a0a b3bd 7061 29bd 54aa febd a1ea 303d
000000a0: 77bf f83d cd56 f0bd dfe5 54be a4d4 4d3d
000000b0: eaed fcbd 5a6a c0bd 4839 1e3e fa56 da3c
000000c0: e3b6 97b8 28a8 12be ee8d 663d 6d30 153e
000000d0: 59ee f2bc 53d0 a93d 3b31 ff3d 86b0 913d
000000e0: 9c0b 543d 0a26 ba3d 4f4e b93d 0f42 913d
000000f0: d55b 1b3d 9625 5ebe fa25 373d 4791 91bd
00000100: 7702 353e a22c 36bd 1219 51be 1b2f 04be
00000110: 062a 7cbd 5f41 83bd f9bd 37bd 9169 443e
00000120: ce98 dfb8 e3b8 1bbd 03ab 253d 11c5 15bd
00000130: bf21 88bd b13a d23d 8261 f43d 7394 bf3c
00000140: c338 863e 5960 a83d f062 e3bd e2f6 e3ba
00000150: bee8 ddbd 579f 53be f181 ec3c cb25 143e
00000160: dd0b 80bd a915 9e37 5194 22bd ce5b 12bd
00000170: 10de 60bd b70b 37ba 8d2f 1eb8 1bcb 3fbd
00000180: 5e55 07be a620 97bd b88a fdbc d585 8cbd
00000190: 6fed 873d e6c6 5fbd 65a6 9e3d 0b94 3f3e
000001a0: fdf5 e9bb d3a6 07be 580f cd3d ddad 473d
000001b0: a784 6f3d 4b79 30be e5dc 583e 29e8 b4bc
000001c0: afec b8b7 711b 023d 196c c13d 33ef 29b8
000001d0: 7c87 91b8 5a8b 90bc 77e6 1fbd fad3 313e
000001e0: 8a15 f7bd da7d 2dbe 66f2 00b9 93cd 02be
000001f0: b5af 9bbc b2af ed3c 4fa2 9f3d 788f 5dbe
00000200: 05a8 50be 0e90 493d 3c74 83bd a303 f4bc
00000210: 35a9 90be e6a7 a73d 53c4 c03c 2e86 343d
00000220: bbd0 d13d a6d7 e8bc a118 1f3e e434 ccbd
00000230: 80da e1bd 2f24 53bd 2c45 dabd fffc b43d
00000240: 425b d7bd c56b 7bbd 5fd0 423d a91a 33be
00000250: c21c f8bd 35ae 3a3d bdb5 063d 501d 3fbe
00000260: 48d1 23bd 5222 ab3d 3e51 8abd 2fc4 9d3d
00000270: ad4e 863e 99a1 0fb8 05b4 82bd 3126 3b3e
00000280: d941 3f3c 832f bf3c 63d8 24bd e201 77bd
00000290: 909f 8abd 71a6 0a3e e1b2 8f3c 3879 c0b5
000002a0: 3a2c 893d 3d62 2f3d 26eb 09bd a237 01be
000002b0: e95e 143e 1d4e d93c fe8f 37bd 8ae4 b4bc
000002c0: 91fe eebc 8597 933d 01eb c2bd c1c1 6bbd
000002d0: dac9 f5bc bb1a 02be 6cc6 67b8 003f e938
000002e0: fcb4 953d 797a 693d a05d 743d d127 313d
000002f0: abe1 303e 019a 71bd 0050 9e3d 3bff 1bbd
00000300: 888b 25be 72ac c6bd 4f1c 95bd 3294 053d
00000310: 6c04 cbbd 5192 3dbd f0d2 433d 2eb8 2c39
00000320: e7e3 1d3d ddcf 0d3d 6d98 78b8 cab1 cd37
00000330: 4d62 483d 0f3b 08bd e293 62be 9885 20be
00000340: 67f5 be3d c4a8 5cbd 5215 05bd 9f4f b63d
00000350: 6d83 f1bc 587c b3bd 2ac6 67bd 1e1e 173d
00000360: 2d66 813d 1c24 473e c1ca 7abd 82dd d03d
00000370: c6a8 f73c 3714 173e b76f 583e 01b4 b6bd
00000380: e3fd fb38 2a19 b53d 4381 c9ba 5707 883d
00000390: 7086 3d3e 061a e7b8 9f51 973c 2242 25be
000003a0: c03c 87bd e136 e63d 9aaa 86bd 3882 cc3d
000003b0: 76b7 cf3d 7066 023d f8f8 3dbd 8d03 3abd
000003c0: 6072 363e 0bda 123e 5583 78bd fd4c 82bc
000003d0: 331f dd3d d2d2 e3bd 0548 b8bc 82dc 44b7
000003e0: 3d6f 45be 840c 35bd 8b8f adbd 5aea 5dbe
000003f0: c37f f03d 708a c23d 01fc 8739 7a72 4d3d
1.6427986e-05 -0.0556705 0.22076708 0.06414563 -0.058981653 -0.044459697 -0.12444405 -4.545787e-05
-0.09850955 -0.05162724 -0.07357309 0.07194619 -0.00016518327 -5.862413e-05 -0.020986605 -0.028565144
0.057824787 0.04934653 -0.19018565 -0.055938814 0.020329278 -0.020531861 -0.086590216 -0.104431845
0.08077094 -0.069447845 -0.065231316 0.028012227 -0.047646567 0.16505486 -0.056310438 0.1748391
-0.0610752 0.10129025 -0.066935234 -0.040888827 -0.087422445 -0.04135269 -0.12434831 0.04319251
0.12145894 -0.11735306 -0.20790814 0.050251618 -0.12350066 -0.09395285 0.15451539 0.026652802
-7.2343064e-05 -0.14321959 0.0562877 0.14569254 -0.029654669 0.08291688 0.12460562 0.07113747
0.051768884 0.090892866 0.09048139 0.07092678 0.037929375 -0.21694025 0.04471395 -0.071077876
0.17676722 -0.04447616 -0.2041972 -0.12908594 -0.061563514 -0.06408953 -0.044858906 0.19180895
-0.00010661931 -0.03801812 0.040446293 -0.03656489 -0.066470616 0.10265101 0.11932661 0.023386216
0.2621518 0.08221502 -0.11102855 -0.0017392302 -0.10835408 -0.20666252 0.028870555 0.14467542
-0.06252263 1.8845154e-05 -0.039692227 -0.035732083 -0.054899275 -0.00069826416 -3.771442e-05 -0.046824556
-0.13216159 -0.07379274 -0.030949935 -0.06861464 0.06637084 -0.054633044 0.07746581 0.18708818
-0.00713992 -0.13247232 0.10012692 0.048749793 0.058476117 -0.1723377 0.21178015 -0.022083359
-2.2044724e-05 0.03176445 0.09444446 -4.051551e-05 -6.939375e-05 -0.017644573 -0.039038148 0.17366019
-0.12064655 -0.1694254 -0.00012297332 -0.12773733 -0.019004682 0.029014442 0.0779463 -0.2163676
-0.20376594 0.049209647 -0.06418654 -0.02978689 -0.28254095 0.08186321 0.023531115 0.044073276
0.1024489 -0.028423142 0.15536739 -0.099710256 -0.11028004 -0.05154818 -0.10657725 0.08837318
-0.10515453 -0.061382074 0.047562 -0.17490639 -0.1211486 0.045576293 0.032888163 -0.18663526
-0.039994508 0.083561555 -0.06753777 0.07703435 0.262319 -3.4244356e-05 -0.06381992 0.18276288
0.011673414 0.023338085 -0.040245425 -0.06030453 -0.067687154 0.13540055 0.01754135 -1.4340394e-06
0.06697889 0.042818297 -0.03367152 -0.12618878 0.1448933 0.026526505 -0.044815056 -0.022081632
-0.029174121 0.072066344 -0.0951748 -0.057557825 -0.030003477 -0.1270551 -5.5259487e-05 0.000111220405
0.07309911 0.057001565 0.0596596 0.043250863 0.17273585 -0.05898476 0.077301025 -0.038085204
-0.16166508 -0.0970086 -0.0728079 0.032612033 -0.09912953 -0.046282116 0.047808588 0.0001647181
0.038547423 0.034622062 -5.9269765e-05 2.4520694e-05 0.048921872 -0.033259448 -0.22126725 -0.15675962
0.093241505 -0.053871885 -0.032491036 0.08901905 -0.029481614 -0.08763951 -0.05658547 0.036893956
0.063183166 0.19447368 -0.061228517 0.10198499 0.030231845 0.14753805 0.21136366 -0.08921052
0.00012015903 0.0884269 -0.0015373606 0.06642025 0.18508315 -0.000110197856 0.018471537 -0.16138509
-0.06603384 0.11240936 -0.065755084 0.09985775 0.10142414 0.031835973 -0.046380013 -0.045413543
0.17817068 0.1434099 -0.060672123 -0.015905851 0.107969664 -0.11124195 -0.02249528 -1.1733851e-05
-0.19280715 -0.04420139 -0.08474644 -0.2167143 0.117431186 0.09499061 0.00025936964 0.050158

fc1.weight_sampler.rho f4 [300, 4]
00000000: 768d e3c0 2972 e0c0 e22a e0c0 69b7 dbc0
00000010: ccda e0c0 7661 e0c0 8283 e0c0 180a e1c0
00000020: 4c5f ddc0 4909 ddc0 a319 e1c0 1e11 e2c0
00000030: 0255 dec0 d9e6 dec0 5563 dec0 b4b9 e1c0
00000040: c599 e6c0 252f dac0 011c dcc0 4210 e1c0
00000050: df01 e2c0 fafe ddc0 8f1f e3c0 57f1 e2c0
00000060: fd57 dcc0 dfbd dfc0 1293 dec0 50d4 e1c0
00000070: ace7 e0c0 f869 dec0 f556 e3c0 bab0 e2c0
00000080: 425e e0c0 31b2 dfc0 317f e1c0 e49f dfc0
00000090: b7c7 dac0 2f04 dbc0 fd0e e1c0 d8c8 d8c0
000000a0: 44b7 e1c0 cb39 dac0 947f dbc0 7264 dfc0
000000b0: 728d e0c0 06f2 d6c0 2d42 e1c0 dfa7 e2c0
000000c0: 9060 e0c0 d5ed dec0 86bc e0c0 244c e8c0
000000d0: a06d e4c0 0c33 e0c0 96ef ddc0 0423 dec0
000000e0: 9f12 e1c0 d685 e2c0 fe1e e0c0 217a e0c0
000000f0: 659e e2c0 b7f2 e1c0 736d e4c0 b88f dcc0
00000100: b63b dec0 8eea e0c0 c559 dbc0 d733 e3c0
00000110: a4fb ddc0 e94f dfc0 4bb7 e3c0 1928 dec0
00000120: 7f11 e1c0 10d2 e2c0 4467 e0c0 0336 e3c0
00000130: e6cd dfc0 f640 e2c0 5264 e3c0 9997 e1c0
00000140: 8022 dec0 1799 ddc0 17ea dfc0 e949 e2c0
00000150: 554c e2c0 30f5 ddc0 a1ed dec0 7e75 dcc0
00000160: ba7f e1c0 3dcd dec0 d57b dbc0 c119 e4c0
00000170: b007 ddc0 021a dec0 6a93 e1c0 ae9b e7c0
00000180: 217b e0c0 3d00 e0c0 cceb e1c0 7612 e2c0
00000190: aeaf ddc0 5370 dfc0 813d d9c0 40b0 dec0
000001a0: 4f9f e4c0 d9bd dec0 ad64 e2c0 1f66 e1c0
000001b0: 1c88 ddc0 1c73 dbc0 623b e1c0 ce01 ddc0
000001c0: ac74 e0c0 df80 e0c0 219a e2c0 37cd e1c0
000001d0: d0f4 e7c0 c0df ddc0 36dc e3c0 55a2 e1c0
000001e0: 084a dcc0 7923 e3c0 6875 e4c0 8c85 dbc0
000001f0: 436e dcc0 d13d e3c0 8e1b dcc0 b6c1 dbc0
00000200: 7fe2 dcc0 cbcb dec0 86ef dfc0 dedb e1c0
00000210: 9e6d e0c0 a66e dcc0 f55f e0c0 cd67 e0c0
00000220: b18c e4c0 240f e4c0 f319 ddc0 51b3 e1c0
00000230: 9f2e e5c0 4730 e3c0 4ee3 e1c0 2f9a e1c0
00000240: a6e5 e5c0 b73d e0c0 9b98 dec0 484a dec0
00000250: d78c e2c0 d80f dec0 970e dbc0 c587 ddc0
00000260: d94a d6c0 8ae3 e6c0 c38e e0c0 8979 e2c0
00000270: 21ee d7c0 7683 dbc0 15f4 ddc0 74ca dfc0
00000280: 09a7 e4c0 cab5 e2c0 8ab2 dfc0 a0aa dac0
00000290: 7fe9 ddc0 d554 e2c0 0ce1 dfc0 fa51 e1c0
000002a0: d052 ddc0 08dc dec0 1db3 dec0 3128 e3c0
000002b0: 936f dcc0 60da e1c0 25ed e2c0 6b1d e1c0
000002c0: beb5 e2c0 5c58 dcc0 f1c8 ddc0 0903 dcc0
000002d0: 0d3d dfc0 5a29 e1c0 097b e3c0 738f e4c0
000002e0: f845 e1c0 b630 e3c0 30e7 e3c0 c259 dec0
000002f0: 920d ddc0 1670 dfc0 22fe e3c0 e1f6 dec0
00000300: 25e5 d9c0 25a3 ddc0 9909 e4c0 dd70 dec0
00000310: a85c dec0 3d9c e2c0 a31a e0c0 180a e2c0
00000320: 9a50 e1c0 3f85 dec0 3084 dbc0 ba1f e4c0
00000330: 35f8 dfc0 8049 dfc0 4d2b dfc0 8c8c e4c0
00000340: 2e8d dcc0 4c6a dec0 f774 dec0 ad2e e0c0
00000350: 22cf ddc0 deb4 e3c0 bd51 d9c0 c5f9 dfc0
00000360: 61a3 e1c0 a8b7 dfc0 46c3 dec0 0401 ddc0
00000370: f7cb dec0 ca7a dac0 5818 e3c0 1088 dec0
00000380: 0b0b dbc0 1c51 e1c0 4ff2 dbc0 479d ddc0
00000390: c6d7 e0c0 b47e e0c0 04e8 dec0 3443 dbc0
000003a0: ee51 dcc0 1751 e1c0 6d30 e2c0 29e0 e1c0
000003b0: 02b6 ddc0 5e40 dec0 b9e0 dfc0 e842 dfc0
000003c0: e9ca dcc0 cb9a d9c0 7b66 e4c0 3068 e2c0
000003d0: cee2 e3c0 1f6b dfc0 adb9 dbc0 b0da e0c0
000003e0: 4d7a dbc0 9184 e3c0 6759 e1c0 f8b8 dec0
000003f0: 36d1 ddc0 fbf8 e0c0 1d1b e1c0 52da e1c0
-7.111018 -7.0139356 -7.0052347 -6.866139 -7.0267086 -7.011897 -7.016053 -7.032482
-6.917883 -6.9073834 -7.0343795 -7.0645895 -6.947877 -6.9656796 -6.9496255 -7.053919
-7.2062707 -6.818255 -6.8784184 -7.0332346 -7.0627284 -6.937375 -7.0976024 -7.0919604
-6.8857408 -6.9919276 -6.955453 -7.057167 -7.0282803 -6.9504356 -7.104365 -7.084073
-7.011506 -6.990502 -7.0467763 -6.988268 -6.8368793 -6.8442607 -7.0330796 -6.774517
-7.0536213 -6.819555 -6.8593235 -6.9810114 -7.0172663 -6.717044 -7.039328 -7.082992
-7.0117874 -6.966532 -7.023013 -7.2592945 -7.138382 -7.0062313 -6.9354963 -6.9417744
-7.033523 -7.0788374 -7.003783 -7.0149083 -7.0818353 -7.0608783 -7.1383605 -6.892544
-6.944789 -7.028632 -6.854708 -7.100078 -6.936968 -6.9785047 -7.1161246 -6.9423947
-7.0333858 -7.0881424 -7.0126057 -7.100343 -6.993884 -7.07043 -7.105996 -7.0497556
-6.9417114 -6.9249377 -6.9973254 -7.071522 -7.071818 -6.93618 -6.9665074 -6.8893423
-7.0468416 -6.9625535 -6.858866 -7.128144 -6.9071884 -6.940675 -7.049245 -7.237754
-7.0150304 -7.000029 -7.060034 -7.0647535 -6.9276953 -6.9824615 -6.788758 -6.959015
-7.144447 -6.960675 -7.0747895 -7.043716 -6.922865 -6.8578014 -7.038499 -6.9064703
-7.014242 -7.0157313 -7.0813146 -7.0563006 -7.2486343 -6.933563 -7.120631 -7.051066
-6.884037 -7.09808 -7.139332 -6.860052 -6.8884597 -7.101296 -6.8783636 -6.8673964
-6.9026484 -6.962377 -6.9979887 -7.0580893 -7.013381 -6.888507 -7.0117135 -7.012671
-7.1421742 -7.126848 -6.9094176 -7.053139 -7.161941 -7.099643 -7.058997 -7.0500712
-7.1842833 -7.0075336 -6.9561286 -6.9465675 -7.0796924 -6.939434 -6.845531 -6.9228234
-6.6966367 -7.215276 -7.017427 -7.077336 -6.7478185 -6.8597975 -6.936045 -6.9934635
-7.14539 -7.084691 -6.9905443 -6.8333282 -6.934753 -7.0728555 -6.9962215 -7.041257
-6.916359 -6.9643593 -6.9593644 -7.098656 -6.88862 -7.057907 -7.0914483 -7.034841
-7.0846853 -6.885786 -6.930779 -6.8753705 -6.9762025 -7.036298 -7.108769 -7.142511
-7.039791 -7.099696 -7.121971 -6.948457 -6.9079065 -6.9824324 -7.124772 -6.9676366
-6.8092217 -6.926165 -7.1261716 -6.9512773 -6.9488106 -7.081572 -7.0032516 -7.063732
-7.041089 -6.9537654 -6.859886 -7.128873 -6.9990487 -6.977722 -6.9740357 -7.1421566
-6.892234 -6.9504757 -6.951778 -7.0056977 -6.931535 -7.1158285 -6.791228 -6.9992394
-7.0511937 -6.991169 -6.961337 -6.906374 -6.962398 -6.827489 -7.0967216 -6.954109
-6.845098 -7.041151 -6.8733287 -6.925449 -7.0263395 -7.0154667 -6.965822 -6.8519535
-6.885001 -7.0411487 -7.0684114 -7.0586133 -6.9284678 -6.9453573 -6.996182 -6.9769173
-6.8997693 -6.8001456 -7.13751 -7.075218 -7.121436 -6.9818263 -6.8664155 -7.0266953
-6.8586793 -7.1099324 -7.0421634 -6.960079 -6.9317884 -7.030393 -7.0345597 -7.0579004

fc1.weight_sampler.eps_w f4 [300, 4]
00000000: 18e5 9ebf 2cb1 803f 07dd 6ebf 5edc b7bf
00000010: 487d 04bf 3273 9f3f c847 883f 2b51 b83f
00000020: 8c07 83be 551f 27bf 7837 a1bf ea53 c5bf
00000030: 47f8 dfbf c6d0 383d 3599 483e 73d5 bcbf
00000040: 6aeb c2bf 9e76 35bf d65b 0840 5c0b 973e
00000050: f00e 38bf ad68 8cbf e2d1 063e 9216 abbf
00000060: 405f 113f 3159 a23e 668b 553e 90a1 f93f
00000070: 916d 87bf 9f66 b93f 6c2d fdbe df3f 993f
00000080: 1033 fa3e ebac 493e 9982 fcbe cf64 28bf
00000090: c705 c63f e995 10c0 7d32 6fbf 554d fcbe
000000a0: 5817 e1be d79e 333e e610 8bbf 10ae 15bf
000000b0: 265c 20c0 77f6 3840 3a8e 4f3f 35be 9dbe
000000c0: 4ec5 3bbf 9c11 553e 6ef1 12bf e29f 033f
000000d0: 24ee 003f 682c ac3e 7a2c 09c0 8ee4 993e
000000e0: 7cef f23f 7978 a03f 3be5 c6bc b855 5bbf
000000f0: 914c 57bf ba8d efbf 12fa bbbe 0984 82bf
00000100: d23e 87bf 024c d5bf 97ee 3cbf 99c7 fdbe
00000110: c91e 09c0 db3e ad3e 1ad1 9a3f a3a8 7b3f
00000120: 4b66 973f f954 153f 6f64 273d b098 d23e
00000130: 6a02 9dbf 04a0 cebd 803f 5bbf 0c2e 923f
00000140: f7c6 773c 34a1 14c0 067f 3e40 1199 693f
00000150: c1d7 fe3f c72c 353f 4c82 a6bf 35c7 cabf
00000160: 5603 933f b612 443f b69d 113c f7f0 403f
00000170: 8fda 7a3d c4fb 733f 8bd8 5f3f 3dcf 97be
00000180: 41e9 09bf 73d9 0cc0 b82a b33f cbb8 b9be
00000190: 80a9 d5bf 5974 323f 5cc8 a73f c3ef b43f
000001a0: 6a66 773e c2f2 b13e 5c1f 1cbf 5172 46bf
000001b0: dac4 b6be 9432 703f da79 30bf 7539 c23d
000001c0: ef62 633f 3d1d 6abf a4e0 2abf ffb7 343e
000001d0: 1f75 be3e 241a 91bf 4367 1c3e 9631 a73f
000001e0: 9642 4a3e b6b7 073c 2196 b33f 7f26 703f
000001f0: b471 84bf 3697 e9be 4fb7 6c3f e666 1140
00000200: 624f edbe c260 e63f 4e63 9bbf a269 46bf
00000210: 55cd 7cbd 7507 663f b9c8 b83e 7bfc d83e
00000220: 6fdb d8bd 0ee8 d33e 70e7 b93e 9e06 b8bf
00000230: f280 90bf ca64 14bf c342 86be 3164 b03e
00000240: d136 413e bdf7 08be b468 bc3f 5166 ea3f
00000250: 009c fcbe bafb d1bf 42ec 923f 3618 2e3f
00000260: baa1 a03e bbfc d2be 1695 723e 5275 773f
00000270: 8d00 eb3e 3b0e 0cc0 f8a7 083e 7157 debe
00000280: 58d8 1240 29e3 d73f 5985 0ac0 68cc 883f
00000290: 5fe3 0940 bd7d f63e f78a 8d3f cbe0 37bf
000002a0: e5d8 df3f 25da 35be f671 553f 5afb 40bf
000002b0: 1836 71bd 8890 45bc 5d5c 2dbf c83d 9ebf
000002c0: ebf9 e93e ce8f 2abf 62be 30be 79e5 4cbe
000002d0: 06ea 8cbc 2bc3 203e b9bb ff3e 754c 4ac0
000002e0: d449 783d af19 cf3f 6dd7 51bf 3979 b5be
000002f0: 16f1 083f ec31 17bf 46aa 89bd 138b a03f
00000300: e4a5 15bf 9d91 e63e fd70 a53e 0da0 d73e
00000310: 2a50 89bf 11a6 2f3f 8d44 343f c4c5 4b3e
00000320: 9f78 bbbe 81b2 97bf 2792 2fbd b155 9dbe
00000330: 463c 8ebe e551 20bf 9013 91bd eee1 3cbf
00000340: b27a b3bf b13b dfbf 26c1 c9bf a89c 373e
00000350: ca7b 093e 9fc0 5fbc 30a3 a33e 1311 103f
00000360: f0cf b4be 31df 1f3e 6f1b c2bd 9a49 ac3f
00000370: f496 23c0 8c05 90bf 8880 56bf 4623 6ebf
00000380: af95 863c b8c6 8a3f 048e b2be 206d 96be
00000390: b894 9dbe e703 813f 07bc 6fbf 92cc b3bf
000003a0: b186 e1bf 8905 1bbf 472f 9ebf 4027 e4bd
000003b0: 8960 febe f97f 333e 3b9e e23d 1c01 373e
000003c0: 207a 24bf 9a6c 30bf 47b3 e73e 219b 613e
000003d0: 0982 a43d ef03 e9bf fd06 8f3e 8240 cfbf
000003e0: 99a8 293f fb77 b13f 88b8 bc3f f603 6b3f
000003f0: 245a 17bf 5754 8f3e 9f98 673f 3521 c13e
-1.2413664 1.0054069 -0.9330601 -1.4364126 -0.51753664 1.245703 1.0646906 1.439977
-0.25591695 -0.65282184 -1.2595053 -1.5416234 -1.7497643 0.045120977 0.19589694 -1.475264
-1.5228093 -0.7088412 2.1306052 0.29500854 -0.7189779 -1.0969445 0.13166001 -1.3366263
0.56785965 0.31708673 0.20853958 1.950243 -1.0580312 1.4484442 -0.49448717 1.1972617
0.48867083 0.19694869 -0.49318388 -0.6577882 1.5470513 -2.2591498 -0.93436414 -0.4927775
-0.43963122 0.17541061 -1.0864532 -0.58468723 -2.5056243 2.890043 0.81076396 -0.3080918
-0.7334794 0.20807499 -0.5739964 0.51415837 0.50363374 0.3362763 -2.1433396 0.30057186
1.8979335 1.2536765 -0.024279227 -0.8567767 -0.84101206 -1.8715127 -0.36714226 -1.0196544
-1.0566046 -1.6663821 -0.7380156 -0.49566343 -2.142504 0.33837017 1.2095063 0.98304194
1.1828092 0.58332783 0.040867265 0.41132116 -1.2266362 -0.10089114 -0.8564377 1.1420302
0.0151231205 -2.322339 2.976503 0.91249186 1.9909593 0.7077145 -1.3008513 -1.5842043
1.1485393 0.7659105 0.008887699 0.75367683 0.06124359 0.9530604 0.87439793 -0.29650298
-0.5387154 -2.200772 1.3997412 -0.36273798 -1.6692352 0.6970878 1.310802 1.413567
0.24160162 0.34755522 -0.6098535 -0.77518183 -0.3569706 0.93827176 -0.6893593 0.09483615
0.88822836 -0.91450864 -0.66749024 0.17648314 0.3719873 -1.1336102 0.15273766 1.3062007
0.19751963 0.008283546 1.4030191 0.9380874 -1.03472 -0.45623177 0.92467207 2.2719054
-0.46349627 1.7998278 -1.213968 -0.7750493 -0.061719257 0.8985513 0.3609064 0.42380127
-0.10588729 0.4138798 0.36309385 -1.437702 -1.1289351 -0.5796629 -0.2622281 0.3445144
0.18868567 -0.13375755 1.4719453 1.8312474 -0.4933777 -1.6404946 1.147835 0.6800569
0.31373388 -0.41208443 0.23689684 0.9666339 0.45898858 -2.1883686 0.13345325 -0.43426087
2.2944546 1.6866199 -2.164389 1.068738 2.1545026 0.48142806 1.1058034 -0.7182738
1.7488066 -0.17758997 0.83377016 -0.7538353 -0.05888948 -0.012058385 -0.6771906 -1.2362604
0.45698485 -0.6662568 -0.17260125 -0.20009412 -0.017201435 0.1569945 0.4994791 -3.1609166
0.060617283 1.6179713 -0.8196934 -0.35444048 0.5349287 -0.5906055 -0.0672193 1.2542442
-0.58456254 0.4503297 0.32312766 0.42114297 -1.0727589 0.6861277 0.704171 0.1989966
-0.36615464 -1.185135 -0.04286399 -0.3072944 -0.2778036 -0.6262496 -0.070838094 -0.7378224
-1.4021819 -1.7440091 -1.5762069 0.17930853 0.13426128 -0.013656764 0.3196044 0.56276053
-0.35314894 0.15612485 -0.09477889 1.3459961 -2.5560884 -1.1251693 -0.83789873 -0.93022573
0.016428797 1.0841894 -0.34873974 -0.2938013 -0.30777526 1.0079316 -0.9364628 -1.4046805
-1.761923 -0.6055532 -1.2358178 -0.11140299 -0.49683025 0.17529286 0.11065336 0.17871517
-0.6424885 -0.6891571 0.45253965 0.22031833 0.08032615 -1.8204325 0.2793502 -1.6191561
0.66272885 1.386474 1.4743814 0.9180292 -0.5912192 0.27994034 0.90467256 0.37720647

fc1.bias_sampler.mu f4 [300]
00000000: 4d42 4337 126e ed38 72a6 61bd 4625 ef3c
00000010: 0dfa 033d d408 eb38 a3fe b8b8 bb0a 163d
00000020: 7c88 ea3c 8f66 efbd 6ac6 e1bc 555c 243d
00000030: 7424 f63d 4e73 1d3e 8885 883d b12a 20be
00000040: 8e90 b03d 8667 473d c9fc 2abd 1fe6 25be
00000050: 9146 e03c 8250 063e b84c ecbd 86d0 043e
00000060: d4f7 973d e46b 6e3d eee8 c03c a0aa 26be
00000070: 5526 653d b2a8 84bd f03d 98bd 37b1 f23c
00000080: a458 1b3e f7ee 93bd 5e8b ddbd 895a a3b8
00000090: 2793 5a3d 8327 913c 7456 893d 493b cbbd
000000a0: 635f 063e 3d07 ec3d ff7e 4f3d 2844 2e3e
000000b0: c93b 0abd 0d61 f8bc 9418 28bd 7759 99bd
000000c0: 6ce6 b23d 3b06 a43d ba76 5338 7c31 953d
000000d0: a49b 363e 0f12 3abd 43f1 a9bd 7ba8 ed3d
000000e0: 5e94 dabc 181a a43d c1f0 11be 7e26 88bd
000000f0: f8ff 2ebd 2416 15bd e03c 56bd e561 733d
00000100: 72e1 7fbd 788e 70b9 ca47 cb3d 0760 2c3d
00000110: 6b14 f2bd 2b4a a3bd 0140 e33d c317 55bd
00000120: 1896 e43d 06ad 4c3d 424e 56be e87a 64bd
00000130: e8dc 173e 0ea0 fdb8 3c4e ed3c 200d 0b3e
00000140: a751 ea3c 5d54 353d 4dea 3f39 b927 3739
00000150: 153a af3c c82c 853d cd32 4ebd eb9d 27be
00000160: 182b 0c3e f396 9dbd 6756 9abd 81ec 913d
00000170: 20cf db3d 9383 12bd 2f6b 85bd 9ea7 00be
00000180: a7d6 8d39 790f a2bd f65d 2fbd ee3f 003e
00000190: b4ee cf36 91f7 0e3e f85c f63d e561 2abe
000001a0: b4c0 e637 16c1 133d 41d0 0d3d d788 dbbd
000001b0: a42d 853a 6bb6 e03c 6cbf d83d ee84 89bd
000001c0: c378 593c 6a8b d6bd 8a16 9fbe 5dd5 073e
000001d0: 3d85 933c 8bcf ddbd 050d f7b7 8ef2 5238
000001e0: 8c65 b0bd dca7 1a3e 78a5 e4b7 e552 c2bd
000001f0: 8f22 13bd de8e 9bbc 9b16 d8b8 f065 413d
00000200: b454 72b8 077c 9ebd 8452 61be 5205 f8bd
00000210: e751 b3bd 312c 073d 203f 193e 7233 2a3e
00000220: 7a26 9438 e86e 8c3d 9ee4 643e a761 913d
00000230: 8e96 80bd 8c5f 353d 5211 adbd 7b38 343d
00000240: 9140 7c3c b84d d3bd cd9f e63d 3dc4 c2bc
00000250: 018c b43d 11a1 e83d 977f a7bd 4a73 cbbc
00000260: 5397 e338 9d7c 65bd 197c 60b8 1d3b 3e3e
00000270: ce7f 1bbe 6b87 3abe aef6 e43d 9d4a d63d
00000280: bbb9 853d 96bd ea3d ffbe 7c3d 56c7 763d
00000290: 0934 ea3c 171f b23d 161f 4f3e 7c05 73bd
000002a0: 35a0 0ab9 de4f 21be 159d 283e 4a93 a23d
000002b0: 8a84 f5bd 64ea 10be a238 2bbd 75b0 2d3e
000002c0: e21b c23c d284 3bbe 09b5 513d 6855 22be
000002d0: ca36 b5bd 43e2 a33d c543 beb8 f4b4 3a39
000002e0: 9a5e bebd a3d7 01be 1a83 713d 4a31 183e
000002f0: 7058 34be 92e3 c3bb babf 173e 9fad c1b8
00000300: f712 e4bc aa79 4d39 1374 2c3e 97c5 afbd
00000310: 2ba8 2c3e 3ccd 85bd c633 e2b8 b034 083d
00000320: af42 f23d bdcf a5bd e7c1 b63d efa3 e237
00000330: e3a9 e3bc 7e38 e2b8 f54e 93b8 d2da 9d3d
00000340: 726d 983d 3bfa cbbc a72f 22be b565 373e
00000350: e179 6cbd 0437 383d e57d 433e f6a8 f03d
00000360: a667 1db9 ea16 eebd 3c20 18bd 6b47 b5bd
00000370: 3edb b7bd e1b6 2a3e 22cc e5bc 9ed8 9b3e
00000380: 7d04 8c3d ac86 3b3e 9a87 083e 8f53 8fbd
00000390: 5270 1d3d 6ade 2f3d a7ab ba3d 05ac 06be
000003a0: 6d02 0f3d 73b4 2abd 50a2 8038 9633 27b9
000003b0: 3a15 d9bd f95f 1d39 b7ac 5ebe 5b79 0abe
000003c0: 4ffc 353d aa1e 153d 8be1 d5bc 06c2 f7bd
000003d0: f63a 013e b5e4 12bd 166a 6ebd f4d3 abbd
000003e0: 58a4 e73c 1f71 803e 9d29 17bd f0bb 3937
000003f0: 499f 36b7 3aa5 10bd 032d c838 2554 da3d
1.1638343e-05 0.00011321543 -0.055090375 0.029192578 0.03222089 0.000112073176 -8.8212335e-05 0.036631327
0.028629534 -0.116894834 -0.027560432 0.040127117 0.12018672 0.15376016 0.06666094 -0.15641285
0.086213216 0.048682712 -0.04174498 -0.16201065 0.027377399 0.13116649 -0.115380704 0.1297017
0.07420316 0.05820836 0.02354857 -0.16276026 0.05594476 -0.064774886 -0.07433689 0.029625518
0.15170532 -0.07223313 -0.10817598 -7.789309e-05 0.05336299 0.017719036 0.06705943 -0.09923417
0.13122325 0.11524818 0.050658222 0.17018187 -0.03374842 -0.030319715 -0.041039065 -0.07487767
0.08735356 0.08009001 5.0416893e-05 0.07284829 0.1783281 -0.04542738 -0.0829797 0.11604401
-0.026682075 0.080127895 -0.14251997 -0.06647967 -0.04272458 -0.036398068 -0.05230415 0.05941953
-0.06247086 -0.00022941257 0.09925802 0.042083766 -0.11820301 -0.07973131 0.11096192 -0.052024614
0.111614406 0.049969696 -0.2092829 -0.055781275 0.14830363 -0.000120937926 0.02896797 0.13579226
0.028603388 0.04426991 0.00018302463 0.00017467038 0.02139 0.06502682 -0.050341416 -0.16368835
0.13688314 -0.07694807 -0.07536011 0.07125188 0.10732865 -0.03577001 -0.06514584 -0.12563941
0.00027053544 -0.079131074 -0.042814218 0.12524387 6.1968694e-06 0.13961627 0.12029451 -0.16638906
2.7507871e-05 0.036072813 0.034622435 -0.107194595 0.0010160697 0.027430734 0.10583386 -0.067148075
0.013273421 -0.1047581 -0.31071883 0.13264985 0.018007869 -0.10830601 -2.9450757e-05 5.02938e-05
-0.086131185 0.15103096 -2.725677e-05 -0.09488467 -0.03592163 -0.018989023 -0.00010303893 0.047216356
-5.7776182e-05 -0.077385 -0.22004133 -0.1211039 -0.08755856 0.03300113 0.14965487 0.16621187
7.064357e-05 0.06857091 0.22352836 0.07098704 -0.06278716 0.044280574 -0.08450569 0.043999176
0.015396253 -0.10317558 0.11260948 -0.023775214 0.08815766 0.11358846 -0.08178633 -0.024835248
0.0001085239 -0.056027044 -5.3521337e-05 0.18577237 -0.15185472 -0.1821572 0.11179863 0.1046345
0.06529566 0.11461942 0.061705586 0.060248695 0.028589265 0.08697336 0.20226702 -0.059331402
-0.00013220387 -0.15753123 0.16466172 0.079382494 -0.119881704 -0.14151913 -0.041802056 0.16961844
0.023694936 -0.18312386 0.05119804 -0.15852892 -0.08848341 0.080021404 -9.072529e-05 0.00017805753
-0.092953876 -0.12679915 0.05896292 0.14862552 -0.17611861 -0.005978056 0.14819232 -9.2352966e-05
-0.027841074 0.00019595647 0.16841154 -0.08582609 0.16861026 -0.06533286 -0.00010786163 0.03325337
0.11829125 -0.080962636 0.08923703 2.7017637e-05 -0.02779097 -0.00010787042 -7.024213e-05 0.07707752
0.0744275 -0.024899593 -0.1583849 0.17909892 -0.05773342 0.044974342 0.19090994 0.11750977
-0.00015011299 -0.11625464 -0.037140116 -0.088515125 -0.08977364 0.16671325 -0.02805144 0.30438703
0.068367936 0.18313092 0.13332978 -0.069983594 0.038437195 0.04293672 0.09114771 -0.13151558
0.034914423 -0.041675996 6.133749e-05 -0.00015945578 -0.10599752 0.0001500844 -0.21745573 -0.13522856
0.044430073 0.036406197 -0.026108524 -0.12097554 0.12620148 -0.035862643 -0.05820664 -0.08390036
0.028276607 0.25086305 -0.03690492 1.1070617e-05 -1.0885132e-05 -0.035313822 9.545127e-05 0.106605805
