trainedModels/dense_BBB_model.pth (torch, 387087 bytes, 25 tensors)

fc1.weight_mu f4 [300, 4]
3.372931e-05 -0.05472783 0.22176574 0.06785831 -0.06372753 -0.043528624 -0.12971766 8.532268e-06
-0.103299506 -0.050204452 -0.07728782 0.06894998 -4.3109863e-05 2.0892003e-07 -0.019696062 -0.029150968
0.05706658 0.04622603 -0.19086051 -0.05803865 0.018265886 -0.021026608 -0.08779095 -0.10349298
0.08499447 -0.07061656 -0.066135556 0.027599994 -0.050711058 0.1635899 -0.05631665 0.17346102
-0.06123491 0.104016826 -0.06602833 -0.043279562 -0.09122014 -0.04661303 -0.12565562 0.04599776
0.12283752 -0.11786363 -0.2093474 0.054700896 -0.124941126 -0.09564976 0.15247147 0.027344387
7.829097e-06 -0.14236164 0.05734143 0.15165731 -0.030729704 0.08290465 0.12076142 0.073586546
0.050294418 0.09154425 0.08967687 0.07038084 0.037019987 -0.21732906 0.044944964 -0.071414344
0.178393 -0.04336599 -0.20095593 -0.13309741 -0.05900108 -0.0614716 -0.04451035 0.19019549
0.000109724366 -0.04264391 0.043037526 -0.039432436 -0.068344675 0.10586415 0.12302662 0.02036217
0.26343632 0.08310577 -0.11114905 -0.00015287391 -0.110741705 -0.2072704 0.027012637 0.14501512
-0.06328752 -1.358806e-06 -0.04000809 -0.038394958 -0.057594832 8.048636e-05 6.160598e-06 -0.04669337
-0.13590577 -0.07342414 -0.033115722 -0.06968158 0.066932954 -0.054202396 0.0801338 0.1895043
-4.6314035e-05 -0.1326457 0.1014675 0.04826116 0.061305813 -0.17471671 0.21237764 -0.020655314
-0.00022545973 0.030919919 0.09456178 -6.5843924e-05 -5.2876676e-05 -0.019537881 -0.039270792 0.1747579
-0.12239072 -0.16923861 5.9443584e-05 -0.13091907 -0.015458636 0.028289936 0.07980146 -0.2193848
-0.20937118 0.052678883 -0.06547146 -0.030823821 -0.2895937 0.081588104 0.021644015 0.04432606
0.104490094 -0.02779499 0.16004898 -0.107858405 -0.112466894 -0.055417664 -0.10733046 0.08823563
-0.108090125 -0.060674183 0.04650738 -0.17634594 -0.12251085 0.043058105 0.032523867 -0.18404408
-0.04097656 0.08693306 -0.06804207 0.07461929 0.2661889 0.00012676335 -0.06470308 0.18533488
-0.00023426588 0.026575932 -0.04139477 -0.059978027 -0.06730434 0.1322354 0.015535454 5.7109235e-05
0.06962223 0.04333301 -0.033712197 -0.13364969 0.1440217 0.031719897 -0.04299281 -0.023286493
-0.030814169 0.072850786 -0.09820372 -0.061897222 -0.026649708 -0.12614575 2.031128e-05 6.656868e-05
0.07426032 0.0555226 0.061570264 0.04558075 0.17281486 -0.06051056 0.07766485 -0.04074942
-0.15997085 -0.096884295 -0.073151514 0.032992907 -0.097142026 -0.045952663 0.04919159 5.766692e-05
0.038784318 0.03307158 -0.00010454005 1.6234459e-05 0.05109103 -0.032462314 -0.2197989 -0.15386595
0.095018424 -0.054670643 -0.0313443 0.09019445 -0.030201865 -0.08893943 -0.055720676 0.039752934
0.06683616 0.19304264 -0.060520757 0.1021541 0.03161221 0.15095384 0.21236677 -0.09053355
1.0848419e-05 0.089019455 -1.605471e-05 0.06470595 0.18814914 -1.316047e-06 0.018261049 -0.15854496
-0.062469903 0.112806894 -0.061681636 0.10001834 0.1052673 0.03214395 -0.044931542 -0.049015027
0.17756477 0.14485207 -0.061749373 -0.016728839 0.10717012 -0.109533116 -0.023669802 1.8416302e-05
-0.19713743 -0.039874736 -0.08531906 -0.22717255 0.11676115 0.09726418 3.351388e-05 0.05068007
00000000: 9278 0d38 4a2a 60bd 8f16 633e 4cf9 8a3d
00000010: 9483 82bd 124b 32bd b5d4 04be d025 0f37
00000020: b18e d3bd 2fa3 4dbd 1449 9ebd a635 8d3d
00000030: ddd0 34b8 8053 6034 a359 a1bc 03ce eebc
00000040: a5be 693d 8157 3d3d f070 43be efb9 6dbd
00000050: 57a2 953c fe3f acbc becb b3bd 21f4 d3bd
00000060: 9511 ae3d 6a9f 90bd 1472 87bd 6219 e23c
00000070: 66b6 4fbd 1c84 273e 4aac 66bd c49f 313e
00000080: 75d1 7abd c606 d53d dc39 87bd e945 31bd
00000090: a0d1 babd 4eed 3ebd deab 00be 2668 3c3d
000000a0: 3d92 fb3d 7d62 f1bd 2a5f 56be 0c0e 603d
000000b0: 22e1 ffbd 05e4 c3bd 7b21 1c3e 5601 e03c
000000c0: b759 0337 40c7 11be d9de 6a3d 0e4c 1b3e
000000d0: dcbc fbbc eac9 a93d c351 f73d 8bb4 963d
000000e0: 8501 4e3d 8d7b bb3d 82a8 b73d d423 903d
000000f0: 45a2 173d 828b 5ebe 3618 383d af41 92bd
00000100: a8ac 363e 89a0 31bd 64c7 4dbe b04a 08be
00000110: 1eab 71bd a5c9 7bbd 7c50 36bd 9bc2 423e
00000120: d21b e638 61ab 2ebd 1e48 303d e883 21bd
00000130: 4bf8 8bbd 4ecf d83d 61f5 fb3d 91ce a63c
00000140: 20e1 863e 5c33 aa3d 1da2 e3bd c74c 20b9
00000150: 8ccc e2bd b13e 54be 9b49 dd3c d87e 143e
00000160: e39c 81bd 3860 b6b5 86df 23bd 0844 1dbd
00000170: 8fe8 6bbd c9ca a838 22b7 ce36 8c41 3fbd
00000180: e22a 0bbe 655f 96bd 5aa4 07bd 37b5 8ebd
00000190: 2514 893d 5503 5ebd 311d a43d 6a0d 423e
000001a0: 5141 42b8 46d4 07be 31ce cf3d 7ead 453d
000001b0: ce1b 7b3d f0e8 32be 8679 593e 5535 a9bc
000001c0: 6369 6cb9 c54b fd3c 9ba9 c13d b015 8ab8
000001d0: e6c7 5db8 e80d a0bc 69da 20bd bcf3 323e
000001e0: fca7 fabd e34c 2dbe 1053 7938 a60f 06be
000001f0: 3846 7dbc 4cc0 e73c f36e a33d 69a6 60be
00000200: 6665 56be d0c5 573d e715 86bd 3d82 fcbc
00000210: a045 94be aa17 a73d ca4e b13c 3e8f 353d
00000220: e7fe d53d 52b2 e3bc e1e3 233e dee4 dcbd
00000230: 0b55 e6bd a2fd 62bd 12d0 dbbd e2b4 b43d
00000240: 5b5e ddbd 7e85 78bd 867e 3e3d 0894 34be
00000250: f8e6 fabd b25d 303d bf37 053d 0d76 3cbe
00000260: 0ad7 27bd f609 b23d a459 8bbd 00d2 983d
00000270: e949 883e c7eb 0439 0c83 84bd 6dc8 3d3e
00000280: 45a5 75b9 c5b5 d93c 908d 29bd 85ab 75bd
00000290: dcd6 89bd b768 073e 6b88 7e3c 9388 6f38
000002a0: 1a96 8e3d f47d 313d cd15 0abd 77db 08be
000002b0: 6d7a 133e b9ec 013d 3b19 30bd 51c3 bebc
000002c0: ff6d fcbc cb32 953d 081f c9bd f187 7dbd
000002d0: 7d50 dabc 5a2c 01be 2462 aa37 ca9a 8b38
000002e0: cb15 983d aa6b 633d 1a31 7c3d e1b2 3a3d
000002f0: 61f6 303e ecd9 77bd c00e 9f3d dde8 26bd
00000300: 66cf 23be 466b c6bd 76d0 95bd 9223 073d
00000310: 66f2 c6bd dc38 3cbd 1f7d 493d 62df 7138
00000320: 4edc 1e3d 1176 073d 833c dbb8 3c2f 8837
00000330: d444 513d 34f7 04bd f612 61be 098f 1dbe
00000340: 0599 c23d 53ee 5fbd e162 00bd deb7 b83d
00000350: e769 f7bc e025 b6bd 5d3b 64bd f9d3 223d
00000360: 66e1 883d f8ac 453e 9de4 77bd 2b36 d13d
00000370: ce7b 013d a593 1a3e ad76 593e a769 b9bd
00000380: 9b01 3637 d54f b63d 3aad 86b7 8e84 843d
00000390: 2baa 403e 08a3 b0b5 3298 953c 9c59 22be
000003a0: 71e0 7fbd 4d07 e73d e2a5 7cbd 6ad6 cc3d
000003b0: 6296 d73d 60a9 033d 230a 38bd fbc3 48bd
000003c0: 8ad3 353e 1a54 143e e9ec 7cbd eb0a 89bc
000003d0: 027c db3d e652 e0bd 2ce7 c1bc b57c 9a37
000003e0: 65de 49be b153 23bd c2bb aebd ec9f 68be
000003f0: 7820 ef3d 7132 c73d 4191 0c38 e895 4f3d

fc1.weight_rho f4 [300, 4]
-7.116362 -7.0199904 -7.010527 -6.864378 -7.0298734 -7.021108 -7.0210958 -7.041851
-6.924304 -6.9110274 -7.0396585 -7.073535 -6.9534836 -6.972352 -6.958841 -7.055347
-7.21277 -6.8255553 -6.884959 -7.0401 -7.0681577 -6.9458327 -7.1044316 -7.0949006
-6.8903184 -6.997699 -6.9650636 -7.061545 -7.0340395 -6.9522085 -7.108212 -7.09068
-7.016649 -6.9914813 -7.05397 -6.9901657 -6.8440013 -6.8466325 -7.035763 -6.781425
-7.0557485 -6.8274374 -6.863304 -6.9841433 -7.0175004 -6.723614 -7.046393 -7.0881467
-7.019837 -6.9710727 -7.0266504 -7.265677 -7.143166 -7.0143886 -6.9399176 -6.9512115
-7.0403185 -7.0857096 -7.0110445 -7.0201926 -7.0900598 -7.067386 -7.1466036 -6.8992896
-6.9517145 -7.033983 -6.862404 -7.1020193 -6.9437737 -6.9784884 -7.12292 -6.9446635
-7.040978 -7.097665 -7.0195847 -7.1061354 -6.9972544 -7.078174 -7.1108785 -7.056273
-6.9482007 -6.93039 -7.0005045 -7.0786796 -7.0783467 -6.940281 -6.9759116 -6.894409
-7.0556726 -6.970366 -6.864822 -7.135102 -6.9092 -6.944888 -7.0526485 -7.2402053
-7.0246563 -7.0051217 -7.066509 -7.0736184 -6.9338636 -6.989068 -6.79724 -6.9655194
-7.1494703 -6.968392 -7.080147 -7.049627 -6.9268417 -6.866326 -7.0440373 -6.914723
-7.0202236 -7.01894 -7.0875163 -7.0652885 -7.2541575 -6.942834 -7.1255302 -7.055054
-6.8870416 -7.1023703 -7.1446996 -6.8684745 -6.8914275 -7.1069117 -6.8855567 -6.86948
-6.9076185 -6.9689236 -7.004272 -7.062096 -7.0217 -6.89775 -7.01594 -7.0168123
-7.1518617 -7.134402 -6.9165254 -7.0575147 -7.1654053 -7.105258 -7.0634246 -7.052137
-7.1924615 -7.0143394 -6.961608 -6.945626 -7.0884075 -6.944452 -6.8499017 -6.9264507
-6.7067976 -7.2232537 -7.0220804 -7.083562 -6.7522607 -6.8680906 -6.9392986 -6.997875
-7.150543 -7.0881066 -6.9961386 -6.83519 -6.9423156 -7.0741673 -7.0041804 -7.04953
-6.923622 -6.9718366 -6.9681034 -7.102961 -6.8895903 -7.062861 -7.0931964 -7.039562
-7.087638 -6.8892245 -6.9375734 -6.8831916 -6.981316 -7.0438056 -7.1133213 -7.147399
-7.0443606 -7.106709 -7.1272774 -6.9514294 -6.914487 -6.9897685 -7.1310735 -6.9693136
-6.811206 -6.9331126 -7.1321406 -6.961747 -6.9541855 -7.087543 -7.011248 -7.0719266
-7.0443444 -6.9618506 -6.864914 -7.130747 -7.0077305 -6.984465 -6.9785447 -7.145701
-6.8960476 -6.957696 -6.958539 -7.0084467 -6.9379363 -7.1192107 -6.7982354 -7.004026
-7.059276 -6.996778 -6.9652596 -6.9118543 -6.9686623 -6.8298035 -7.104596 -6.9588885
-6.8489523 -7.0467353 -6.880806 -6.930852 -7.02978 -7.0191007 -6.971172 -6.855926
-6.8879685 -7.05248 -7.0753775 -7.064457 -6.9334354 -6.947288 -7.0026803 -6.981702
-6.902415 -6.807136 -7.1416383 -7.0823903 -7.126877 -6.989967 -6.872172 -7.031784
-6.867996 -7.1110563 -7.0483475 -6.964659 -6.9406085 -7.0296416 -7.0398955 -7.06507
00000000: 3db9 e3c0 c3a3 e0c0 3d56 e0c0 fca8 dbc0
00000010: b9f4 e0c0 ebac e0c0 d1ac e0c0 d856 e1c0
00000020: e693 ddc0 2327 ddc0 e244 e1c0 665a e2c0
00000030: f082 dec0 821d dfc0 d3ae dec0 67c5 e1c0
00000040: 03cf e6c0 f36a dac0 9651 dcc0 8048 e1c0
00000050: 592e e2c0 4344 dec0 8157 e3c0 6d09 e3c0
00000060: 7d7d dcc0 26ed dfc0 cde1 dec0 2df8 e1c0
00000070: da16 e1c0 7e78 dec0 7976 e3c0 dae6 e2c0
00000080: 6388 e0c0 37ba dfc0 1fba e1c0 70af dfc0
00000090: 0f02 dbc0 9d17 dbc0 f824 e1c0 6f01 d9c0
000000a0: b1c8 e1c0 5e7a dac0 30a0 dbc0 1a7e dfc0
000000b0: 5d8f e0c0 d927 d7c0 0d7c e1c0 19d2 e2c0
000000c0: 81a2 e0c0 0713 dfc0 52da e0c0 6d80 e8c0
000000d0: d194 e4c0 df75 e0c0 ce13 dec0 5370 dec0
000000e0: 4a4a e1c0 22be e2c0 7a5a e0c0 6ba5 e0c0
000000f0: c5e1 e2c0 0728 e2c0 fab0 e4c0 fbc6 dcc0
00000100: 7274 dec0 6416 e1c0 d098 dbc0 be43 e3c0
00000110: 6533 dec0 c74f dfc0 f6ee e3c0 af3a dec0
00000120: b14f e1c0 1220 e3c0 70a0 e0c0 7665 e3c0
00000130: 82e9 dfc0 6780 e2c0 518c e3c0 fdcc e1c0
00000140: a957 dec0 c1c5 ddc0 2204 e0c0 8b84 e2c0
00000150: d181 e2c0 c816 dec0 ab3a dfc0 009f dcc0
00000160: 12c8 e1c0 3d0d dfc0 9fac dbc0 c152 e4c0
00000170: 2b18 ddc0 863c dec0 4caf e1c0 c3af e7c0
00000180: fcc9 e0c0 f529 e0c0 d720 e2c0 155b e2c0
00000190: 36e2 ddc0 72a6 dfc0 fd82 d9c0 89e5 dec0
000001a0: 76c8 e4c0 11fd dec0 9090 e2c0 8b96 e1c0
000001b0: b0a8 ddc0 f1b8 dbc0 c168 e1c0 6945 ddc0
000001c0: aca5 e0c0 289b e0c0 efcc e2c0 d816 e2c0
000001d0: 0f22 e8c0 b22b dec0 5804 e4c0 01c3 e1c0
000001e0: a562 dcc0 9e46 e3c0 61a1 e4c0 8bca dbc0
000001f0: 9386 dcc0 d26b e3c0 7b56 dcc0 c8d2 dbc0
00000200: 360b ddc0 6c01 dfc0 ff22 e0c0 b1fc e1c0
00000210: c4b1 e0c0 5eba dcc0 9582 e0c0 ba89 e0c0
00000220: 0ddc e4c0 054d e4c0 2d54 ddc0 29d7 e1c0
00000230: 004b e5c0 465e e3c0 9307 e2c0 1bab e1c0
00000240: a528 e6c0 7875 e0c0 7ec5 dec0 9142 dec0
00000250: 3cd4 e2c0 f338 dec0 6532 dbc0 7ca5 ddc0
00000260: 169e d6c0 e524 e7c0 e2b4 e0c0 8aac e2c0
00000270: 8512 d8c0 66c7 dbc0 bc0e dec0 98ee dfc0
00000280: 40d1 e4c0 c5d1 e2c0 5ee0 dfc0 e0b9 dac0
00000290: 7327 dec0 945f e2c0 3f22 e0c0 c095 e1c0
000002a0: 508e ddc0 4919 dfc0 b4fa dec0 754b e3c0
000002b0: 8677 dcc0 f502 e2c0 77fb e2c0 1844 e1c0
000002c0: eecd e2c0 8774 dcc0 9a00 dec0 1b43 dcc0
000002d0: f166 dfc0 db66 e1c0 54a0 e3c0 7eb7 e4c0
000002e0: 676b e1c0 296a e3c0 a812 e4c0 1c72 dec0
000002f0: 7a43 ddc0 2fac dfc0 c131 e4c0 9e04 dfc0
00000300: 66f5 d9c0 0fdc ddc0 7f3a e4c0 a2c6 dec0
00000310: b088 dec0 27cd e2c0 255c e0c0 394d e2c0
00000320: 456b e1c0 7bc7 dec0 60ad dbc0 142f e4c0
00000330: 543f e0c0 bd80 dfc0 3d50 dfc0 95a9 e4c0
00000340: 6cac dcc0 72a5 dec0 5aac dec0 3245 e0c0
00000350: 9303 dec0 93d0 e3c0 258b d9c0 fb20 e0c0
00000360: 97e5 e1c0 9be5 dfc0 68e3 dec0 e92d ddc0
00000370: 48ff dec0 c08d dac0 da58 e3c0 37af dec0
00000380: 9e2a dbc0 db7e e1c0 902f dcc0 8ac9 ddc0
00000390: f5f3 e0c0 799c e0c0 d713 dfc0 bf63 dbc0
000003a0: 3d6a dcc0 ebad e1c0 7e69 e2c0 0810 e2c0
000003b0: b4de ddc0 2f50 dec0 f515 e0c0 1a6a dfc0
000003c0: 95e0 dcc0 0fd4 d9c0 4d88 e4c0 f1a2 e2c0
000003d0: 600f e4c0 cfad dfc0 d5e8 dbc0 6004 e1c0
000003e0: a0c6 dbc0 c68d e3c0 108c e1c0 7dde dec0
000003f0: 7719 dec0 d3f2 e0c0 d346 e1c0 0e15 e2c0

fc1.bias_mu f4 [300]
-0.00024485026 5.2574883e-06 -0.054796934 0.02953574 0.03302298 -3.187427e-05 -7.606158e-05 0.039335247
0.02807367 -0.113683335 -0.030687675 0.04126848 0.11813585 0.15268593 0.06661613 -0.15919626
0.08769739 0.05051612 -0.037819512 -0.16336943 0.02726865 0.13337003 -0.11125242 0.13055913
0.074330956 0.05773639 0.023452247 -0.16140713 0.05771227 -0.06362449 -0.07823636 0.026951138
0.15553598 -0.0724017 -0.10383012 3.8906197e-05 0.052622717 0.01899446 0.070960514 -0.10122813
0.13016288 0.11452633 0.05332614 0.17340279 -0.03353104 -0.030501315 -0.040374383 -0.073723
0.08728468 0.08086017 7.439573e-05 0.07081886 0.17937183 -0.044539623 -0.08419018 0.11763639
-0.030535612 0.078416295 -0.14952673 -0.067414455 -0.042882387 -0.037573036 -0.049927443 0.0600039
-0.06128619 -0.00036094728 0.09563179 0.04333234 -0.115980655 -0.0805249 0.11137649 -0.048073053
0.1116372 0.050486866 -0.20661329 -0.05482281 0.14891747 7.4136355e-05 0.030457914 0.13566883
0.030383013 0.04418562 0.00015078005 7.551098e-05 0.021973735 0.06409633 -0.05098156 -0.14955641
0.13704225 -0.07506159 -0.07926013 0.06989315 0.10859528 -0.037366007 -0.06385022 -0.12855391
0.00019904724 -0.07851414 -0.04640841 0.1243641 7.088553e-05 0.1439131 0.12090418 -0.16450934
-0.00017512751 0.03555605 0.036803238 -0.10926234 -1.23335385e-05 0.026559222 0.106430344 -0.06619352
-0.00077013724 -0.10232316 -0.3043027 0.13377286 0.017323598 -0.10828481 1.5839156e-05 5.6799225e-05
-0.0891702 0.14911781 3.715717e-06 -0.095580086 -0.034317084 -0.016581496 -9.2454735e-05 0.043696295
8.284753e-05 -0.07729451 -0.22288671 -0.12304668 -0.0879636 0.031575635 0.1479462 0.1673351
-1.7586088e-05 0.06599293 0.22366162 0.07289621 -0.06273162 0.04584683 -0.08659578 0.04506347
0.01576992 -0.10027083 0.114078306 -0.023389287 0.086910695 0.11603685 -0.08301678 -0.025122747
0.00017062771 -0.056323178 -3.378398e-05 0.1842821 -0.15104823 -0.16793637 0.11285952 0.10354437
0.066567816 0.11560126 0.06134004 0.06371458 0.0286565 0.08532624 0.20315033 -0.058463864
0.00010468241 -0.16111256 0.16586253 0.08111484 -0.11911851 -0.14129293 -0.041964717 0.1704799
0.022423409 -0.1841787 0.05278263 -0.16173634 -0.08836939 0.07899787 -0.018732144 -5.9390157e-05
-0.09202673 -0.12730302 0.059730045 0.14706527 -0.17947547 0.00012398748 0.15034129 0.00012696239
-0.027056301 4.2901553e-05 0.16882125 -0.08370069 0.16955172 -0.06615445 0.01812918 0.03511192
0.118077874 -0.080598086 0.08806576 2.678152e-05 -0.027563563 -0.00017720596 -4.16705e-05 0.075639464
0.07560212 -0.02553149 -0.15720162 0.17976907 -0.057622626 0.044599105 0.19103573 0.11661085
-5.2186126e-05 -0.11305609 -0.036915794 -0.09075439 -0.08929097 0.16934 -0.029281264 0.30512488
0.06900931 0.18478982 0.13306105 -0.06924969 0.035828784 0.04195292 0.09397503 -0.13017763
0.034130868 -0.04210187 1.4416989e-05 2.7972696e-05 -0.10635605 -0.00012121611 -0.21856241 -0.13365686
0.045717895 0.037414115 -0.027517255 -0.12149893 0.12601274 -0.03433606 -0.057845905 -0.08423254
0.03089459 0.25253135 -0.033345 -0.02255114 2.8761231e-05 -0.031911206 -0.0001469982 0.107927606
00000000: 3f5f 80b9 7b69 b036 c072 60bd f0f4 f13c
00000010: 1b43 073d bdb0 05b8 4083 9fb8 ff1d 213d
00000020: c1fa e53c cfd2 e8bd b864 fbbc 2309 293d
00000030: 35f1 f13d b359 1c3e 0a6e 883d 5804 23be
00000040: b09a b33d fee9 4e3d a2e8 1abd 514a 27be
00000050: 8162 df3c 2792 083e 4fd8 e3bd 4bb1 053e
00000060: d43a 983d fe7c 6c3d ed1e c03c e947 25be
00000070: b463 6c3d 8e4d 82bd 623a a0bd a2c8 dc3c
00000080: d344 1f3e 5847 94bd e3a4 d4bd 362f 2338
00000090: eb8a 573d 459a 9b3c bf53 913d b250 cfbd
000000a0: 6b49 053e c88c ea3d 836c 5a3d 8090 313e
000000b0: d857 09bd e5dd f9bc 9c5f 25bd 16fc 96bd
000000c0: 4fc2 b23d 049a a53d e704 9c38 7a09 913d
000000d0: 40ad 373e 2e6f 36bd e76b acbd 59eb f03d
000000e0: d225 fabc b998 a03d 891d 19be 9710 8abd
000000f0: 71a5 2fbd 2fe6 19bd b880 4cbd a6c6 753d
00000100: 3a07 7bbd 863d bdb9 9ada c33d 407d 313d
00000110: 4487 edbd 3dea a4bd 5b19 e43d 40e8 44bd
00000120: 0ba2 e43d 51cb 4e3d 6f92 53be e28d 60bd
00000130: d27d 183e a779 9b38 e082 f93c c5ec 0a3e
00000140: cce5 f83c fbfb 343d b61a 1e39 a65b 9e38
00000150: 4302 b43c f044 833d 0ad2 50bd 5125 19be
00000160: ce54 0c3e e4b9 99bd 2353 a2bd 2424 8f3d
00000170: 3467 de3d 190d 19bd e7c3 82bd a3a3 03be
00000180: 56b7 5039 05cc a0bd bf16 3ebd 9bb2 fe3d
00000190: 61a8 9438 f55d 133e 9c9c f73d 2375 28be
000001a0: 6fa2 37b9 38a3 113d febe 163d efc4 dfbd
000001b0: 25ec 4eb7 ba92 d93c 27f8 d93d 7890 87bd
000001c0: 09e3 49ba ce8e d1bd 90cd 9bbe c1fb 083e
000001d0: 38ea 8d3c 6dc4 ddbd 54de 8437 b43b 6e38
000001e0: de9e b6bd 57b2 183e 885b 7936 7ebf c3bd
000001f0: 1290 0cbd ebd5 87bc 42e4 c1b8 e3fa 323d
00000200: 6ebe ad38 964c 9ebd 6a3c 64be e6ff fbbd
00000210: 4326 b4bd 7455 013d 357f 173e e459 2b3e
00000220: d685 93b7 4d27 873d 8d07 653e 9c4a 953d
00000230: 7079 80bd e3c9 3b3d 2159 b1bd 7994 383d
00000240: eb2f 813c cb5a cdbd e3a1 e93d e49a bfbc
00000250: 3cfe b13d baa4 ed3d b404 aabd 38ce cdbc
00000260: 87ea 3239 22b3 66bd 46b3 0db8 72b4 3c3e
00000270: 63ac 1abe 83f7 2bbe e422 e73d 120f d43d
00000280: b554 883d 5ac0 ec3d b23f 7b3d ca7c 823d
00000290: 09c1 ea3c 86bf ae3d a406 503e ce77 6fbd
000002a0: f188 db38 b1fa 24be ded7 293e 8a1f a63d
000002b0: 68f4 f3bd 18af 10be 32e3 2bbd 4892 2e3e
000002c0: 4cb1 b73c 5799 3cbe 9932 583d 369e 25be
000002d0: 03fb b4bd a3c9 a13d 2774 99bc b219 79b8
000002e0: 8378 bcbd b95b 02be 7ea7 743d 4798 163e
000002f0: 6bc8 37be a302 0239 11f3 193e 3521 0539
00000300: 2da5 ddbc 31f1 3338 7adf 2c3e 446b abbd
00000310: f79e 2d3e fc7b 87bd a583 943c 84d1 0f3d
00000320: d0d2 f13d 9c10 a5bd d25b b43d e0a8 e037
00000330: fbcc e1bc 5dd0 39b9 5cc7 2eb8 dde8 9a3d
00000340: 49d5 9a3d 6a27 d1bc 76f9 20be 6215 383e
00000350: b405 6cbd 8dad 363d df9e 433e abd1 ee3d
00000360: 6de2 5ab8 f489 e7bd 0435 17bd 70dd b9bd
00000370: 2fde b6bd 7767 2d3e 43df efbc 5439 9c3e
00000380: c154 8d3d 8b39 3d3e 2841 083e c8d2 8dbd
00000390: 34c1 123d d3d6 2b3d fb75 c03d 494d 05be
000003a0: cfcc 0b3d 0373 2cbd 7fe0 7137 e8a6 ea37
000003b0: 33d1 d9bd 6735 feb8 d3ce 5fbe 58dd 08be
000003c0: b042 3b3d 8b3f 193d de6b e1bc 6ed4 f8bd
000003d0: 7c09 013e f8a3 0cbd d4ef 6cbd 1c82 acbd
000003e0: a716 fd3c ca4b 813e c494 08bd 2bbd b8bc
000003f0: 4644 f137 53b5 02bd 8723 1ab9 2609 dd3d

fc1.bias_rho f4 [300]
-6.985279 -7.059878 -7.0206537 -7.0096745 -7.1707125 -7.112068 -6.799892 -6.8695617
-7.037803 -7.004688 -6.939305 -6.9965587 -7.0457807 -7.2142215 -7.079193 -7.07647
-6.9939327 -6.976251 -6.938238 -7.0207715 -6.9537945 -6.9001102 -7.1676364 -7.118747
-6.894295 -6.9718647 -6.974439 -7.0386453 -7.0885086 -7.1345296 -6.9816413 -7.0724034
-6.9799705 -6.985309 -7.065643 -7.0034165 -6.9169917 -7.020354 -6.952032 -6.9208283
-6.9897275 -7.170696 -7.0422764 -6.935225 -6.9322667 -7.059917 -7.0300283 -7.040301
-6.900523 -7.070819 -6.944008 -7.023688 -7.1117043 -7.116001 -7.049373 -6.923362
-6.880583 -7.0278344 -6.8678603 -6.942932 -7.260385 -7.0167766 -7.0728498 -7.083328
-6.882431 -7.0694995 -7.1232953 -6.8982215 -6.991585 -7.0929646 -6.926389 -7.009135
-7.0355697 -7.135226 -7.1908135 -7.2149124 -6.9770427 -7.01387 -7.040448 -6.8819976
-6.9900374 -7.126332 -6.963674 -7.0372496 -6.880138 -6.8864264 -7.0207305 -6.929669
-6.9248576 -7.0022697 -7.171641 -6.9293222 -7.1748996 -7.055569 -7.039209 -6.8786535
-6.778271 -6.8278813 -6.9493623 -7.11226 -7.0728397 -6.800246 -7.123325 -6.9667745
-7.152052 -6.8672824 -7.121859 -6.961642 -7.1256933 -6.978578 -6.9428363 -7.023133
-7.093908 -6.979474 -6.982605 -7.0422993 -7.040858 -7.153459 -7.0343986 -7.0437975
-7.015987 -6.7516913 -7.1707277 -6.9232183 -7.009307 -6.8755617 -7.0120173 -7.045664
-7.0797358 -6.9499106 -7.0454273 -6.8738003 -7.143316 -7.027881 -6.985135 -7.0363336
-7.1838365 -6.9030733 -7.0423946 -7.1757927 -7.0725546 -6.913323 -7.0728292 -6.973714
-7.0808325 -7.0307555 -6.953557 -7.043143 -7.158654 -6.9074903 -6.9612722 -7.0245805
-6.9177437 -6.939243 -7.1054974 -6.862502 -7.03707 -7.0921607 -6.9288783 -6.938577
-6.8399353 -6.8673983 -7.071215 -7.032213 -7.141038 -7.0959225 -6.9383206 -6.978404
-7.0330386 -7.1099052 -7.1452446 -6.9924054 -6.970331 -6.953703 -6.989404 -6.9754868
-6.8255157 -6.9414344 -6.988782 -6.990477 -6.9850783 -6.944272 -7.18034 -6.930612
-7.0335326 -7.0879693 -7.2622104 -7.0441675 -6.894488 -6.904995 -7.1289244 -7.1430902
-7.0273123 -6.939171 -7.1192284 -6.9946876 -6.9334064 -7.090893 -7.143148 -7.0995526
-7.0417233 -7.1190724 -7.0310025 -7.004559 -7.009988 -6.914853 -6.9366198 -7.0386353
-7.223849 -7.074918 -6.9678955 -7.084838 -6.911418 -7.030474 -6.889791 -6.89267
-7.1535287 -6.9741373 -7.0116687 -7.13309 -6.9420753 -7.052956 -6.742447 -6.9081635
-7.1005616 -7.2412686 -7.0306053 -7.1410227 -7.1062512 -6.9731274 -7.0127144 -7.009708
-7.0472493 -6.975135 -7.0032263 -7.128784 -6.8980436 -7.0355244 -6.956417 -7.028253
-6.83364 -7.0434976 -6.9069567 -7.0498505 -6.9766064 -6.923979 -6.87442 -7.0316653
-6.9254165 -7.081707 -7.0084777 -6.8985186 -6.8261304 -6.8757234 -7.1298647 -7.118335
00000000: 6887 dfc0 85ea e1c0 32a9 e0c0 414f e0c0
00000010: 7a76 e5c0 1096 e3c0 b798 d9c0 73d3 dbc0
00000020: af35 e1c0 6726 e0c0 c90e dec0 cfe3 dfc0
00000030: 0977 e1c0 e7da e6c0 c088 e2c0 7172 e2c0
00000040: 4cce dfc0 733d dfc0 0c06 dec0 29aa e0c0
00000050: 7c85 dec0 b4cd dcc0 475d e5c0 c7cc e3c0
00000060: 119e dcc0 8419 dfc0 9b2e dfc0 953c e1c0
00000070: 10d5 e2c0 114e e4c0 9b69 dfc0 2151 e2c0
00000080: eb5b dfc0 a787 dfc0 bf19 e2c0 fd1b e0c0
00000090: ff57 ddc0 bda6 e0c0 0c77 dec0 6d77 ddc0
000000a0: d9ab dfc0 5776 e5c0 545a e1c0 5ded ddc0
000000b0: 21d5 ddc0 d7ea e1c0 fef5 e0c0 254a e1c0
000000c0: 16d1 dcc0 2644 e2c0 5035 dec0 0dc2 e0c0
000000d0: 1593 e3c0 48b6 e3c0 7794 e1c0 2e8c ddc0
000000e0: bc2d dcc0 05e4 e0c0 83c5 dbc0 802c dec0
000000f0: 1355 e8c0 6f89 e0c0 c954 e2c0 9faa e2c0
00000100: e03c dcc0 5739 e2c0 09f2 e3c0 3bbe dcc0
00000110: 10bb dfc0 91f9 e2c0 fba4 ddc0 d54a e0c0
00000120: 6323 e1c0 c553 e4c0 251b e6c0 90e0 e6c0
00000130: ef43 dfc0 9f71 e0c0 5a4b e1c0 5339 dcc0
00000140: 63ae dfc0 e90a e4c0 6bd6 dec0 2631 e1c0
00000150: 172a dcc0 9b5d dcc0 d3a9 e0c0 d9bf ddc0
00000160: 6f98 ddc0 9812 e0c0 157e e5c0 02bd ddc0
00000170: c798 e5c0 39c7 e1c0 3341 e1c0 ee1d dcc0
00000180: 99e7 d8c0 017e dac0 2d61 dec0 a297 e3c0
00000190: b454 e2c0 9d9b d9c0 47f2 e3c0 d1ef dec0
000001a0: 9cdd e4c0 c7c0 dbc0 45e6 e3c0 c5c5 dec0
000001b0: ae05 e4c0 8350 dfc0 b72b dec0 81bd e0c0
000001c0: 4b01 e3c0 da57 dfc0 8071 dfc0 845a e1c0
000001d0: b54e e1c0 23e9 e4c0 cb19 e1c0 ca66 e1c0
000001e0: f782 e0c0 db0d d8c0 9a76 e5c0 018b ddc0
000001f0: 3e4c e0c0 9a04 dcc0 7262 e0c0 1476 e1c0
00000200: 328d e2c0 ab65 dec0 2474 e1c0 2cf6 dbc0
00000210: 0b96 e4c0 67e4 e0c0 3a86 dfc0 a529 e1c0
00000220: fde1 e5c0 fae5 dcc0 4c5b e1c0 18a0 e5c0
00000230: 5e52 e2c0 f139 ddc0 9e54 e2c0 aa28 dfc0
00000240: 2e96 e2c0 f3fb e0c0 8a83 dec0 6d61 e1c0
00000250: b213 e5c0 290a ddc0 bec2 dec0 5dc9 e0c0
00000260: 285e ddc0 470e dec0 3c60 e3c0 9e99 dbc0
00000270: ad2f e1c0 fbf2 e2c0 5fb9 ddc0 d308 dec0
00000280: c0e0 dac0 bac1 dbc0 6547 e2c0 e407 e1c0
00000290: 6283 e4c0 cc11 e3c0 b906 dec0 164f dfc0
000002a0: a70e e1c0 5884 e3c0 d8a5 e4c0 c9c1 dfc0
000002b0: f40c dfc0 bc84 dec0 33a9 dfc0 3037 dfc0
000002c0: a06a dac0 3b20 dec0 1aa4 dfc0 fdb1 dfc0
000002d0: c385 dfc0 7a37 dec0 58c5 e5c0 93c7 ddc0
000002e0: b312 e1c0 a5d0 e2c0 0764 e8c0 d269 e1c0
000002f0: a59f dcc0 b8f5 dcc0 2620 e4c0 3294 e4c0
00000300: bedf e0c0 b00d dec0 b8d0 e3c0 7bd4 dfc0
00000310: 77de ddc0 98e8 e2c0 ab94 e4c0 892f e3c0
00000320: cc55 e1c0 71cf e3c0 f9fd e0c0 5925 e0c0
00000330: d251 e0c0 7a46 ddc0 caf8 ddc0 803c e1c0
00000340: c529 e7c0 ba65 e2c0 00f9 dec0 feb6 e2c0
00000350: 562a ddc0 a5f9 e0c0 2b79 dcc0 c190 dcc0
00000360: b5e9 e4c0 222c dfc0 975f e0c0 4642 e4c0
00000370: 7b25 dec0 d1b1 e1c0 20c2 d7c0 ad0f ddc0
00000380: cd37 e3c0 79b8 e7c0 b8fa e0c0 4283 e4c0
00000390: 6966 e3c0 dc23 dfc0 2868 e0c0 874f e0c0
000003a0: 1183 e1c0 4e34 dfc0 6e1a e0c0 001f e4c0
000003b0: c6bc dcc0 0423 e1c0 f89a dec0 73e7 e0c0
000003c0: 2ead dac0 5564 e1c0 ca05 ddc0 6098 e1c0
000003d0: 5c40 dfc0 3c91 ddc0 40fb dbc0 6703 e1c0
000003e0: 039d ddc0 589d e2c0 7345 e0c0 aac0 dcc0
000003f0: a96f dac0 ed05 dcc0 da27 e4c0 66c9 e3c0

fc1.weight_sampler.mu f4 [300, 4]
3.372931e-05 -0.05472783 0.22176574 0.06785831 -0.06372753 -0.043528624 -0.12971766 8.532268e-06
-0.103299506 -0.050204452 -0.07728782 0.06894998 -4.3109863e-05 2.0892003e-07 -0.019696062 -0.029150968
0.05706658 0.04622603 -0.19086051 -0.05803865 0.018265886 -0.021026608 -0.08779095 -0.10349298
0.08499447 -0.07061656 -0.066135556 0.027599994 -0.050711058 0.1635899 -0.05631665 0.17346102
-0.06123491 0.104016826 -0.06602833 -0.043279562 -0.09122014 -0.04661303 -0.12565562 0.04599776
0.12283752 -0.11786363 -0.2093474 0.054700896 -0.124941126 -0.09564976 0.15247147 0.027344387
7.829097e-06 -0.14236164 0.05734143 0.15165731 -0.030729704 0.08290465 0.12076142 0.073586546
0.050294418 0.09154425 0.08967687 0.07038084 0.037019987 -0.21732906 0.044944964 -0.071414344
0.178393 -0.04336599 -0.20095593 -0.13309741 -0.05900108 -0.0614716 -0.04451035 0.19019549
0.000109724366 -0.04264391 0.043037526 -0.039432436 -0.068344675 0.10586415 0.12302662 0.02036217
0.26343632 0.08310577 -0.11114905 -0.00015287391 -0.110741705 -0.2072704 0.027012637 0.14501512
-0.06328752 -1.358806e-06 -0.04000809 -0.038394958 -0.057594832 8.048636e-05 6.160598e-06 -0.04669337
-0.13590577 -0.07342414 -0.033115722 -0.06968158 0.066932954 -0.054202396 0.0801338 0.1895043
-4.6314035e-05 -0.1326457 0.1014675 0.04826116 0.061305813 -0.17471671 0.21237764 -0.020655314
-0.00022545973 0.030919919 0.09456178 -6.5843924e-05 -5.2876676e-05 -0.019537881 -0.039270792 0.1747579
-0.12239072 -0.16923861 5.9443584e-05 -0.13091907 -0.015458636 0.028289936 0.07980146 -0.2193848
-0.20937118 0.052678883 -0.06547146 -0.030823821 -0.2895937 0.081588104 0.021644015 0.04432606
0.104490094 -0.02779499 0.16004898 -0.107858405 -0.112466894 -0.055417664 -0.10733046 0.08823563
-0.108090125 -0.060674183 0.04650738 -0.17634594 -0.12251085 0.043058105 0.032523867 -0.18404408
-0.04097656 0.08693306 -0.06804207 0.07461929 0.2661889 0.00012676335 -0.06470308 0.18533488
-0.00023426588 0.026575932 -0.04139477 -0.059978027 -0.06730434 0.1322354 0.015535454 5.7109235e-05
0.06962223 0.04333301 -0.033712197 -0.13364969 0.1440217 0.031719897 -0.04299281 -0.023286493
-0.030814169 0.072850786 -0.09820372 -0.061897222 -0.026649708 -0.12614575 2.031128e-05 6.656868e-05
0.07426032 0.0555226 0.061570264 0.04558075 0.17281486 -0.06051056 0.07766485 -0.04074942
-0.15997085 -0.096884295 -0.073151514 0.032992907 -0.097142026 -0.045952663 0.04919159 5.766692e-05
0.038784318 0.03307158 -0.00010454005 1.6234459e-05 0.05109103 -0.032462314 -0.2197989 -0.15386595
0.095018424 -0.054670643 -0.0313443 0.09019445 -0.030201865 -0.08893943 -0.055720676 0.039752934
0.06683616 0.19304264 -0.060520757 0.1021541 0.03161221 0.15095384 0.21236677 -0.09053355
1.0848419e-05 0.089019455 -1.605471e-05 0.06470595 0.18814914 -1.316047e-06 0.018261049 -0.15854496
-0.062469903 0.112806894 -0.061681636 0.10001834 0.1052673 0.03214395 -0.044931542 -0.049015027
0.17756477 0.14485207 -0.061749373 -0.016728839 0.10717012 -0.109533116 -0.023669802 1.8416302e-05
-0.19713743 -0.039874736 -0.08531906 -0.22717255 0.11676115 0.09726418 3.351388e-05 0.05068007
00000000: 9278 0d38 4a2a 60bd 8f16 633e 4cf9 8a3d
00000010: 9483 82bd 124b 32bd b5d4 04be d025 0f37
00000020: b18e d3bd 2fa3 4dbd 1449 9ebd a635 8d3d
00000030: ddd0 34b8 8053 6034 a359 a1bc 03ce eebc
00000040: a5be 693d 8157 3d3d f070 43be efb9 6dbd
00000050: 57a2 953c fe3f acbc becb b3bd 21f4 d3bd
00000060: 9511 ae3d 6a9f 90bd 1472 87bd 6219 e23c
00000070: 66b6 4fbd 1c84 273e 4aac 66bd c49f 313e
00000080: 75d1 7abd c606 d53d dc39 87bd e945 31bd
00000090: a0d1 babd 4eed 3ebd deab 00be 2668 3c3d
000000a0: 3d92 fb3d 7d62 f1bd 2a5f 56be 0c0e 603d
000000b0: 22e1 ffbd 05e4 c3bd 7b21 1c3e 5601 e03c
000000c0: b759 0337 40c7 11be d9de 6a3d 0e4c 1b3e
000000d0: dcbc fbbc eac9 a93d c351 f73d 8bb4 963d
000000e0: 8501 4e3d 8d7b bb3d 82a8 b73d d423 903d
000000f0: 45a2 173d 828b 5ebe 3618 383d af41 92bd
00000100: a8ac 363e 89a0 31bd 64c7 4dbe b04a 08be
00000110: 1eab 71bd a5c9 7bbd 7c50 36bd 9bc2 423e
00000120: d21b e638 61ab 2ebd 1e48 303d e883 21bd
00000130: 4bf8 8bbd 4ecf d83d 61f5 fb3d 91ce a63c
00000140: 20e1 863e 5c33 aa3d 1da2 e3bd c74c 20b9
00000150: 8ccc e2bd b13e 54be 9b49 dd3c d87e 143e
00000160: e39c 81bd 3860 b6b5 86df 23bd 0844 1dbd
00000170: 8fe8 6bbd c9ca a838 22b7 ce36 8c41 3fbd
00000180: e22a 0bbe 655f 96bd 5aa4 07bd 37b5 8ebd
00000190: 2514 893d 5503 5ebd 311d a43d 6a0d 423e
000001a0: 5141 42b8 46d4 07be 31ce cf3d 7ead 453d
000001b0: ce1b 7b3d f0e8 32be 8679 593e 5535 a9bc
000001c0: 6369 6cb9 c54b fd3c 9ba9 c13d b015 8ab8
000001d0: e6c7 5db8 e80d a0bc 69da 20bd bcf3 323e
000001e0: fca7 fabd e34c 2dbe 1053 7938 a60f 06be
000001f0: 3846 7dbc 4cc0 e73c f36e a33d 69a6 60be
00000200: 6665 56be d0c5 573d e715 86bd 3d82 fcbc
00000210: a045 94be aa17 a73d ca4e b13c 3e8f 353d
00000220: e7fe d53d 52b2 e3bc e1e3 233e dee4 dcbd
00000230: 0b55 e6bd a2fd 62bd 12d0 dbbd e2b4 b43d
00000240: 5b5e ddbd 7e85 78bd 867e 3e3d 0894 34be
00000250: f8e6 fabd b25d 303d bf37 053d 0d76 3cbe
00000260: 0ad7 27bd f609 b23d a459 8bbd 00d2 983d
00000270: e949 883e c7eb 0439 0c83 84bd 6dc8 3d3e
00000280: 45a5 75b9 c5b5 d93c 908d 29bd 85ab 75bd
00000290: dcd6 89bd b768 073e 6b88 7e3c 9388 6f38
000002a0: 1a96 8e3d f47d 313d cd15 0abd 77db 08be
000002b0: 6d7a 133e b9ec 013d 3b19 30bd 51c3 bebc
000002c0: ff6d fcbc cb32 953d 081f c9bd f187 7dbd
000002d0: 7d50 dabc 5a2c 01be 2462 aa37 ca9a 8b38
000002e0: cb15 983d aa6b 633d 1a31 7c3d e1b2 3a3d
000002f0: 61f6 303e ecd9 77bd c00e 9f3d dde8 26bd
00000300: 66cf 23be 466b c6bd 76d0 95bd 9223 073d
00000310: 66f2 c6bd dc38 3cbd 1f7d 493d 62df 7138
00000320: 4edc 1e3d 1176 073d 833c dbb8 3c2f 8837
00000330: d444 513d 34f7 04bd f612 61be 098f 1dbe
00000340: 0599 c23d 53ee 5fbd e162 00bd deb7 b83d
00000350: e769 f7bc e025 b6bd 5d3b 64bd f9d3 223d
00000360: 66e1 883d f8ac 453e 9de4 77bd 2b36 d13d
00000370: ce7b 013d a593 1a3e ad76 593e a769 b9bd
00000380: 9b01 3637 d54f b63d 3aad 86b7 8e84 843d
00000390: 2baa 403e 08a3 b0b5 3298 953c 9c59 22be
000003a0: 71e0 7fbd 4d07 e73d e2a5 7cbd 6ad6 cc3d
000003b0: 6296 d73d 60a9 033d 230a 38bd fbc3 48bd
000003c0: 8ad3 353e 1a54 143e e9ec 7cbd eb0a 89bc
000003d0: 027c db3d e652 e0bd 2ce7 c1bc b57c 9a37
000003e0: 65de 49be b153 23bd c2bb aebd ec9f 68be
000003f0: 7820 ef3d 7132 c73d 4191 0c38 e895 4f3d

fc1.weight_sampler.rho f4 [300, 4]
-7.116362 -7.0199904 -7.010527 -6.864378 -7.0298734 -7.021108 -7.0210958 -7.041851
-6.924304 -6.9110274 -7.0396585 -7.073535 -6.9534836 -6.972352 -6.958841 -7.055347
-7.21277 -6.8255553 -6.884959 -7.0401 -7.0681577 -6.9458327 -7.1044316 -7.0949006
-6.8903184 -6.997699 -6.9650636 -7.061545 -7.0340395 -6.9522085 -7.108212 -7.09068
-7.016649 -6.9914813 -7.05397 -6.9901657 -6.8440013 -6.8466325 -7.035763 -6.781425
-7.0557485 -6.8274374 -6.863304 -6.9841433 -7.0175004 -6.723614 -7.046393 -7.0881467
-7.019837 -6.9710727 -7.0266504 -7.265677 -7.143166 -7.0143886 -6.9399176 -6.9512115
-7.0403185 -7.0857096 -7.0110445 -7.0201926 -7.0900598 -7.067386 -7.1466036 -6.8992896
-6.9517145 -7.033983 -6.862404 -7.1020193 -6.9437737 -6.9784884 -7.12292 -6.9446635
-7.040978 -7.097665 -7.0195847 -7.1061354 -6.9972544 -7.078174 -7.1108785 -7.056273
-6.9482007 -6.93039 -7.0005045 -7.0786796 -7.0783467 -6.940281 -6.9759116 -6.894409
-7.0556726 -6.970366 -6.864822 -7.135102 -6.9092 -6.944888 -7.0526485 -7.2402053
-7.0246563 -7.0051217 -7.066509 -7.0736184 -6.9338636 -6.989068 -6.79724 -6.9655194
-7.1494703 -6.968392 -7.080147 -7.049627 -6.9268417 -6.866326 -7.0440373 -6.914723
-7.0202236 -7.01894 -7.0875163 -7.0652885 -7.2541575 -6.942834 -7.1255302 -7.055054
-6.8870416 -7.1023703 -7.1446996 -6.8684745 -6.8914275 -7.1069117 -6.8855567 -6.86948
-6.9076185 -6.9689236 -7.004272 -7.062096 -7.0217 -6.89775 -7.01594 -7.0168123
-7.1518617 -7.134402 -6.9165254 -7.0575147 -7.1654053 -7.105258 -7.0634246 -7.052137
-7.1924615 -7.0143394 -6.961608 -6.945626 -7.0884075 -6.944452 -6.8499017 -6.9264507
-6.7067976 -7.2232537 -7.0220804 -7.083562 -6.7522607 -6.8680906 -6.9392986 -6.997875
-7.150543 -7.0881066 -6.9961386 -6.83519 -6.9423156 -7.0741673 -7.0041804 -7.04953
-6.923622 -6.9718366 -6.9681034 -7.102961 -6.8895903 -7.062861 -7.0931964 -7.039562
-7.087638 -6.8892245 -6.9375734 -6.8831916 -6.981316 -7.0438056 -7.1133213 -7.147399
-7.0443606 -7.106709 -7.1272774 -6.9514294 -6.914487 -6.9897685 -7.1310735 -6.9693136
-6.811206 -6.9331126 -7.1321406 -6.961747 -6.9541855 -7.087543 -7.011248 -7.0719266
-7.0443444 -6.9618506 -6.864914 -7.130747 -7.0077305 -6.984465 -6.9785447 -7.145701
-6.8960476 -6.957696 -6.958539 -7.0084467 -6.9379363 -7.1192107 -6.7982354 -7.004026
-7.059276 -6.996778 -6.9652596 -6.9118543 -6.9686623 -6.8298035 -7.104596 -6.9588885
-6.8489523 -7.0467353 -6.880806 -6.930852 -7.02978 -7.0191007 -6.971172 -6.855926
-6.8879685 -7.05248 -7.0753775 -7.064457 -6.9334354 -6.947288 -7.0026803 -6.981702
-6.902415 -6.807136 -7.1416383 -7.0823903 -7.126877 -6.989967 -6.872172 -7.031784
-6.867996 -7.1110563 -7.0483475 -6.964659 -6.9406085 -7.0296416 -7.0398955 -7.06507
00000000: 3db9 e3c0 c3a3 e0c0 3d56 e0c0 fca8 dbc0
00000010: b9f4 e0c0 ebac e0c0 d1ac e0c0 d856 e1c0
00000020: e693 ddc0 2327 ddc0 e244 e1c0 665a e2c0
00000030: f082 dec0 821d dfc0 d3ae dec0 67c5 e1c0
00000040: 03cf e6c0 f36a dac0 9651 dcc0 8048 e1c0
00000050: 592e e2c0 4344 dec0 8157 e3c0 6d09 e3c0
00000060: 7d7d dcc0 26ed dfc0 cde1 dec0 2df8 e1c0
00000070: da16 e1c0 7e78 dec0 7976 e3c0 dae6 e2c0
00000080: 6388 e0c0 37ba dfc0 1fba e1c0 70af dfc0
00000090: 0f02 dbc0 9d17 dbc0 f824 e1c0 6f01 d9c0
000000a0: b1c8 e1c0 5e7a dac0 30a0 dbc0 1a7e dfc0
000000b0: 5d8f e0c0 d927 d7c0 0d7c e1c0 19d2 e2c0
000000c0: 81a2 e0c0 0713 dfc0 52da e0c0 6d80 e8c0
000000d0: d194 e4c0 df75 e0c0 ce13 dec0 5370 dec0
000000e0: 4a4a e1c0 22be e2c0 7a5a e0c0 6ba5 e0c0
000000f0: c5e1 e2c0 0728 e2c0 fab0 e4c0 fbc6 dcc0
00000100: 7274 dec0 6416 e1c0 d098 dbc0 be43 e3c0
00000110: 6533 dec0 c74f dfc0 f6ee e3c0 af3a dec0
00000120: b14f e1c0 1220 e3c0 70a0 e0c0 7665 e3c0
00000130: 82e9 dfc0 6780 e2c0 518c e3c0 fdcc e1c0
00000140: a957 dec0 c1c5 ddc0 2204 e0c0 8b84 e2c0
00000150: d181 e2c0 c816 dec0 ab3a dfc0 009f dcc0
00000160: 12c8 e1c0 3d0d dfc0 9fac dbc0 c152 e4c0
00000170: 2b18 ddc0 863c dec0 4caf e1c0 c3af e7c0
00000180: fcc9 e0c0 f529 e0c0 d720 e2c0 155b e2c0
00000190: 36e2 ddc0 72a6 dfc0 fd82 d9c0 89e5 dec0
000001a0: 76c8 e4c0 11fd dec0 9090 e2c0 8b96 e1c0
000001b0: b0a8 ddc0 f1b8 dbc0 c168 e1c0 6945 ddc0
000001c0: aca5 e0c0 289b e0c0 efcc e2c0 d816 e2c0
000001d0: 0f22 e8c0 b22b dec0 5804 e4c0 01c3 e1c0
000001e0: a562 dcc0 9e46 e3c0 61a1 e4c0 8bca dbc0
000001f0: 9386 dcc0 d26b e3c0 7b56 dcc0 c8d2 dbc0
00000200: 360b ddc0 6c01 dfc0 ff22 e0c0 b1fc e1c0
00000210: c4b1 e0c0 5eba dcc0 9582 e0c0 ba89 e0c0
00000220: 0ddc e4c0 054d e4c0 2d54 ddc0 29d7 e1c0
00000230: 004b e5c0 465e e3c0 9307 e2c0 1bab e1c0
00000240: a528 e6c0 7875 e0c0 7ec5 dec0 9142 dec0
00000250: 3cd4 e2c0 f338 dec0 6532 dbc0 7ca5 ddc0
00000260: 169e d6c0 e524 e7c0 e2b4 e0c0 8aac e2c0
00000270: 8512 d8c0 66c7 dbc0 bc0e dec0 98ee dfc0
00000280: 40d1 e4c0 c5d1 e2c0 5ee0 dfc0 e0b9 dac0
00000290: 7327 dec0 945f e2c0 3f22 e0c0 c095 e1c0
000002a0: 508e ddc0 4919 dfc0 b4fa dec0 754b e3c0
000002b0: 8677 dcc0 f502 e2c0 77fb e2c0 1844 e1c0
000002c0: eecd e2c0 8774 dcc0 9a00 dec0 1b43 dcc0
000002d0: f166 dfc0 db66 e1c0 54a0 e3c0 7eb7 e4c0
000002e0: 676b e1c0 296a e3c0 a812 e4c0 1c72 dec0
000002f0: 7a43 ddc0 2fac dfc0 c131 e4c0 9e04 dfc0
00000300: 66f5 d9c0 0fdc ddc0 7f3a e4c0 a2c6 dec0
00000310: b088 dec0 27cd e2c0 255c e0c0 394d e2c0
00000320: 456b e1c0 7bc7 dec0 60ad dbc0 142f e4c0
00000330: 543f e0c0 bd80 dfc0 3d50 dfc0 95a9 e4c0
00000340: 6cac dcc0 72a5 dec0 5aac dec0 3245 e0c0
00000350: 9303 dec0 93d0 e3c0 258b d9c0 fb20 e0c0
00000360: 97e5 e1c0 9be5 dfc0 68e3 dec0 e92d ddc0
00000370: 48ff dec0 c08d dac0 da58 e3c0 37af dec0
00000380: 9e2a dbc0 db7e e1c0 902f dcc0 8ac9 ddc0
00000390: f5f3 e0c0 799c e0c0 d713 dfc0 bf63 dbc0
000003a0: 3d6a dcc0 ebad e1c0 7e69 e2c0 0810 e2c0
000003b0: b4de ddc0 2f50 dec0 f515 e0c0 1a6a dfc0
000003c0: 95e0 dcc0 0fd4 d9c0 4d88 e4c0 f1a2 e2c0
000003d0: 600f e4c0 cfad dfc0 d5e8 dbc0 6004 e1c0
000003e0: a0c6 dbc0 c68d e3c0 108c e1c0 7dde dec0
000003f0: 7719 dec0 d3f2 e0c0 d346 e1c0 0e15 e2c0

fc1.weight_sampler.eps_w f4 [300, 4]
-0.9362329 -0.49584502 -1.3603017 1.1696045 -3.4167354 -0.3142595 -0.6377183 0.5497795
-1.4587781 0.37552023 -0.15355054 -0.20842998 -2.0133612 -0.4392767 -0.88078254 -1.5326841
0.18766326 0.67822105 -0.45054087 0.46655908 -0.18731134 1.3271921 0.63127446 -1.0539498
-1.5126996 0.11102217 0.32943752 -0.35341915 -2.057765 -0.7533 1.0743781 0.55094105
-0.08401558 -0.8578481 1.4149082 -1.285063 -0.6271878 0.44151768 -0.3870201 -0.4754298
-1.2703234 -0.8002926 1.3034945 -0.77777886 0.30654764 2.5340889 -0.1474729 0.28742802
-1.3805605 -3.2580795 0.75612104 -0.51982987 -0.3182836 0.07775063 -1.900283 1.1113206
0.004313421 -0.04804414 0.8798738 -1.4252009 -0.8527049 -1.2395829 -0.81487584 0.352591
-2.1971009 -0.80227816 -0.8486726 -0.3342105 0.3125924 0.59260195 -0.79696816 0.42781028
0.6117179 -2.1102386 0.77270925 0.9537153 -1.6959115 1.4139386 0.9554197 -0.78361386
-0.8895309 -0.58128625 0.27089137 0.23243119 0.38344893 -0.52420366 -1.0131456 0.5395787
1.005605 0.44236478 -0.8679725 0.8888287 0.9672492 -0.10982953 0.3987973 -0.13988459
-0.67118746 0.33265743 0.8594967 1.3498789 0.28730443 1.654136 -0.3020406 -1.9316983
-0.47335032 0.7195791 -0.82367325 -0.6563734 0.4016331 0.28995165 -0.34533155 -1.1307062
0.40518257 -0.88101226 -0.91717505 0.43632498 -0.5761896 -1.6378814 -0.18756692 -0.24466398
-1.1426694 0.31851074 0.21172841 -0.93991953 0.4844563 -0.40072522 -0.8930893 -1.0127481
0.15651482 -0.95398664 -1.2489827 -1.8244184 0.88256645 -0.39530846 1.6709293 -0.99446
-0.6269848 -0.94786996 1.8423193 0.41136736 0.56996864 0.10790048 -0.16490704 -0.044291694
1.4629095 0.85501194 1.3072367 -0.13565023 0.14701536 -0.24178958 -0.8033678 0.9622395
0.35019752 0.23664401 -0.51787806 -0.20931846 -0.44440925 0.24675862 1.4683784 0.18148185
0.4378112 1.1455051 -1.6640726 -0.77280533 -1.1365249 0.20729429 -1.7247293 -0.97247463
1.4347225 0.10604467 0.08590367 -0.97826743 -1.6605439 -1.0731401 0.102431744 0.76282066
0.24024951 0.8975409 -0.09391827 0.8932651 -0.080650665 0.93216175 -1.9684721 0.34849748
0.27862164 -0.108621076 0.6269482 -1.152183 0.0721177 -0.20084444 -1.6110681 -0.10085477
1.3541062 -1.7202003 1.6091125 -0.5569969 -0.26797166 -0.98409 1.0414681 0.0055239843
0.47725254 -0.3338244 -0.31476963 -0.07096697 2.3286996 1.0227189 1.1592101 -1.5281026
-1.7809087 -0.758138 0.58324647 -0.56208116 -0.06987474 -1.5331296 0.68097335 -0.096542545
-2.1803293 -0.72155076 0.38179433 -2.238738 -0.7280938 -0.38221312 -1.177439 -0.5708438
-0.243963 0.42511597 1.1634657 0.08066496 -0.33277565 0.7571222 0.018310992 -1.6636937
1.0681509 -2.422278 0.7525486 -0.22559537 -1.2993851 0.48900223 0.8752737 0.46489337
1.5770632 -0.4944169 -0.41266963 -1.7818573 0.14330748 0.9700763 2.070536 -0.29805216
-1.3088967 0.59297556 -0.48099375 -0.85983235 0.39072618 1.3336633 0.39883512 -0.52661276
00000000: f6ac 6fbf 66df fdbe 5e1e aebf 9ab5 953f
00000010: cbab 5ac0 9fe6 a0be 8241 23bf 59be 0c3f
00000020: 3eb9 babf 3044 c03e 5a3c 1dbe ab6e 55be
00000030: e9da 00c0 e0e8 e0be f77a 61bf fe2e c4bf
00000040: cc2a 403e e59f 2d3f 4bad e6be d5e0 ee3e
00000050: 8bce 3fbe 6ee1 a93f 349b 213f d4e7 86bf
00000060: 24a0 c1bf 975f e33d 09ac a83e 5bf3 b4be
00000070: 6cb2 03c0 45d8 40bf 3985 893f 790a 0d3f
00000080: 5c10 acbd ef9b 5bbf b61b b53f f27c a4bf
00000090: 618f 20bf 9b0e e23e 8027 c6be 896b f3be
000000a0: f599 a2bf fadf 4cbf e8d8 a63f 841c 47bf
000000b0: d0f3 9c3e 832e 2240 2303 17be c429 933e
000000c0: 35b6 b0bf 6084 50c0 2691 413f 9213 05bf
000000d0: 11f6 a2be b93b 9f3d 793c f3bf c13f 8e3f
000000e0: 9957 8d3b efc9 44bd 693f 613f fc6c b6bf
000000f0: de4a 5abf a7aa 9ebf b49b 50bf cf86 b43e
00000100: 4d9d 0cc0 1a62 4dbf 9c42 59bf a31d abbe
00000110: 1c0c a03e c3b4 173f 1b06 4cbf f309 db3e
00000120: 8b99 1c3f 260e 07c0 46d0 453f b026 743f
00000130: a113 d9bf f1fb b43f 6396 743f eb9a 48bf
00000140: 4cb8 63bf 2dcf 14bf 46b2 8a3e 7102 6e3e
00000150: 6b53 c43e 3632 06bf c1ae 81bf d421 0a3f
00000160: aab7 803f a37d e23e 7233 5ebf 478a 633f
00000170: a59d 773f 4eee e0bd 292f cc3e e83d 0fbe
00000180: f1d2 2bbf 1352 aa3e fa07 5c3f d5c8 ac3f
00000190: 9119 933e baba d33f 11a5 9abe e441 f7bf
000001a0: f95a f2be 5636 383f 40dc 52bf 1608 28bf
000001b0: dba2 cd3e 8b74 943e 4ccf b0be fbba 90bf
000001c0: 1774 cf3e 058a 61bf fccb 6abf fd65 df3e
000001d0: 2981 13bf 19a6 d1bf 8b11 40be 3289 7abe
000001e0: fe42 92bf d713 a33e 55cf 583e 919e 70bf
000001f0: a80a f83e db2b cdbe 80a1 64bf bba1 81bf
00000200: 6c45 203e 7838 74bf aade 9fbf 8b86 e9bf
00000210: e0ef 613f df65 cabe 03e1 d53f ee94 7ebf
00000220: 1382 20bf 9ba7 72bf 1ed1 eb3f be9e d23e
00000230: 77e9 113f edfa dc3d 64dd 28be 356b 35bd
00000240: 9e40 bb3f 10e2 5a3f 8853 a73f e5e7 0abe
00000250: 328b 163e b097 77be 83a9 4dbf 5455 763f
00000260: 174d b33e cf52 723e a893 04bf 9457 56be
00000270: 9c89 e3be 4bae 7c3e d3f3 bb3f 61d6 393e
00000280: ca28 e03e e99f 923f 5500 d5bf 92d6 45bf
00000290: a679 91bf f444 543e eec3 dcbf 19f4 78bf
000002a0: fda4 b73f f32d d93d 43ee af3d bc6f 7abf
000002b0: b48c d4bf a85c 89bf bcc7 d13d 3748 433f
000002c0: f803 763e 3ec5 653f 3958 c0bd 06ad 643f
000002d0: 2d2c a5bd 27a2 6e3f e5f6 fbbf 436e b23e
000002e0: 7fa7 8e3e ba74 debd ad7f 203f bc7a 93bf
000002f0: 72b2 933d 2aaa 4dbe 7b37 cebf f28c cebd
00000300: 5a53 ad3f 862f dcbf 66f7 cd3f 5997 0ebf
00000310: 9533 89be 52ed 7bbf d44e 853f 8a02 b53b
00000320: 725a f43e 08eb aabe 7c29 a1be 2157 91bd
00000330: 6a09 1540 74e8 823f ff60 943f de98 c3bf
00000340: d1f4 e3bf 5515 42bf a44f 153f 8de4 0fbf
00000350: 7d1a 8fbd 973d c4bf 4554 2e3f 19b8 c5bd
00000360: 848a 0bc0 8db7 38bf 8c7a c33e 7c47 0fc0
00000370: 5b64 3abf 70b1 c3be 52b6 96bf d222 12bf
00000380: 70d1 79be cda8 d93e 72ec 943f ac33 a53d
00000390: 9261 aabe c3d2 413f ef00 963c eaf3 d4bf
000003a0: 2bb9 883f 9a06 1bc0 06a7 403f 7902 67be
000003b0: 4052 a6bf 805e fa3e f011 603f 8106 ee3e
000003c0: 35dd c93f 3624 fdbe 6f49 d3be e613 e4bf
000003d0: 32bf 123e ec56 783f a983 0440 4b9a 98be
000003e0: ed89 a7bf 3fcd 173f d044 f6be f91d 5cbf
000003f0: 430d c83e 7bb5 aa3f 1e34 cc3e 18d0 06bf

fc1.bias_sampler.mu f4 [300]
-0.00024485026 5.2574883e-06 -0.054796934 0.02953574 0.03302298 -3.187427e-05 -7.606158e-05 0.039335247
0.02807367 -0.113683335 -0.030687675 0.04126848 0.11813585 0.15268593 0.06661613 -0.15919626
0.08769739 0.05051612 -0.037819512 -0.16336943 0.02726865 0.13337003 -0.11125242 0.13055913
0.074330956 0.05773639 0.023452247 -0.16140713 0.05771227 -0.06362449 -0.07823636 0.026951138
0.15553598 -0.0724017 -0.10383012 3.8906197e-05 0.052622717 0.01899446 0.070960514 -0.10122813
0.13016288 0.11452633 0.05332614 0.17340279 -0.03353104 -0.030501315 -0.040374383 -0.073723
0.08728468 0.08086017 7.439573e-05 0.07081886 0.17937183 -0.044539623 -0.08419018 0.11763639
-0.030535612 0.078416295 -0.14952673 -0.067414455 -0.042882387 -0.037573036 -0.049927443 0.0600039
-0.06128619 -0.00036094728 0.09563179 0.04333234 -0.115980655 -0.0805249 0.11137649 -0.048073053
0.1116372 0.050486866 -0.20661329 -0.05482281 0.14891747 7.4136355e-05 0.030457914 0.13566883
0.030383013 0.04418562 0.00015078005 7.551098e-05 0.021973735 0.06409633 -0.05098156 -0.14955641
0.13704225 -0.07506159 -0.07926013 0.06989315 0.10859528 -0.037366007 -0.06385022 -0.12855391
0.00019904724 -0.07851414 -0.04640841 0.1243641 7.088553e-05 0.1439131 0.12090418 -0.16450934
-0.00017512751 0.03555605 0.036803238 -0.10926234 -1.23335385e-05 0.026559222 0.106430344 -0.06619352
-0.00077013724 -0.10232316 -0.3043027 0.13377286 0.017323598 -0.10828481 1.5839156e-05 5.6799225e-05
-0.0891702 0.14911781 3.715717e-06 -0.095580086 -0.034317084 -0.016581496 -9.2454735e-05 0.043696295
8.284753e-05 -0.07729451 -0.22288671 -0.12304668 -0.0879636 0.031575635 0.1479462 0.1673351
-1.7586088e-05 0.06599293 0.22366162 0.07289621 -0.06273162 0.04584683 -0.08659578 0.04506347
0.01576992 -0.10027083 0.114078306 -0.023389287 0.086910695 0.11603685 -0.08301678 -0.025122747
0.00017062771 -0.056323178 -3.378398e-05 0.1842821 -0.15104823 -0.16793637 0.11285952 0.10354437
0.066567816 0.11560126 0.06134004 0.06371458 0.0286565 0.08532624 0.20315033 -0.058463864
0.00010468241 -0.16111256 0.16586253 0.08111484 -0.11911851 -0.14129293 -0.041964717 0.1704799
0.022423409 -0.1841787 0.05278263 -0.16173634 -0.08836939 0.07899787 -0.018732144 -5.9390157e-05
-0.09202673 -0.12730302 0.059730045 0.14706527 -0.17947547 0.00012398748 0.15034129 0.00012696239
-0.027056301 4.2901553e-05 0.16882125 -0.08370069 0.16955172 -0.06615445 0.01812918 0.03511192
0.118077874 -0.080598086 0.08806576 2.678152e-05 -0.027563563 -0.00017720596 -4.16705e-05 0.075639464
0.07560212 -0.02553149 -0.15720162 0.17976907 -0.057622626 0.044599105 0.19103573 0.11661085
-5.2186126e-05 -0.11305609 -0.036915794 -0.09075439 -0.08929097 0.16934 -0.029281264 0.30512488
0.06900931 0.18478982 0.13306105 -0.06924969 0.035828784 0.04195292 0.09397503 -0.13017763
0.034130868 -0.04210187 1.4416989e-05 2.7972696e-05 -0.10635605 -0.00012121611 -0.21856241 -0.13365686
0.045717895 0.037414115 -0.027517255 -0.12149893 0.12601274 -0.03433606 -0.057845905 -0.08423254
0.03089459 0.25253135 -0.033345 -0.02255114 2.8761231e-05 -0.031911206 -0.0001469982 0.107927606
00000000: 3f5f 80b9 7b69 b036 c072 60bd f0f4 f13c
00000010: 1b43 073d bdb0 05b8 4083 9fb8 ff1d 213d
00000020: c1fa e53c cfd2 e8bd b864 fbbc 2309 293d
00000030: 35f1 f13d b359 1c3e 0a6e 883d 5804 23be
00000040: b09a b33d fee9 4e3d a2e8 1abd 514a 27be
00000050: 8162 df3c 2792 083e 4fd8 e3bd 4bb1 053e
00000060: d43a 983d fe7c 6c3d ed1e c03c e947 25be
00000070: b463 6c3d 8e4d 82bd 623a a0bd a2c8 dc3c
00000080: d344 1f3e 5847 94bd e3a4 d4bd 362f 2338
00000090: eb8a 573d 459a 9b3c bf53 913d b250 cfbd
000000a0: 6b49 053e c88c ea3d 836c 5a3d 8090 313e
000000b0: d857 09bd e5dd f9bc 9c5f 25bd 16fc 96bd
000000c0: 4fc2 b23d 049a a53d e704 9c38 7a09 913d
000000d0: 40ad 373e 2e6f 36bd e76b acbd 59eb f03d
000000e0: d225 fabc b998 a03d 891d 19be 9710 8abd
000000f0: 71a5 2fbd 2fe6 19bd b880 4cbd a6c6 753d
00000100: 3a07 7bbd 863d bdb9 9ada c33d 407d 313d
00000110: 4487 edbd 3dea a4bd 5b19 e43d 40e8 44bd
00000120: 0ba2 e43d 51cb 4e3d 6f92 53be e28d 60bd
00000130: d27d 183e a779 9b38 e082 f93c c5ec 0a3e
00000140: cce5 f83c fbfb 343d b61a 1e39 a65b 9e38
00000150: 4302 b43c f044 833d 0ad2 50bd 5125 19be
00000160: ce54 0c3e e4b9 99bd 2353 a2bd 2424 8f3d
00000170: 3467 de3d 190d 19bd e7c3 82bd a3a3 03be
00000180: 56b7 5039 05cc a0bd bf16 3ebd 9bb2 fe3d
00000190: 61a8 9438 f55d 133e 9c9c f73d 2375 28be
000001a0: 6fa2 37b9 38a3 113d febe 163d efc4 dfbd
000001b0: 25ec 4eb7 ba92 d93c 27f8 d93d 7890 87bd
000001c0: 09e3 49ba ce8e d1bd 90cd 9bbe c1fb 083e
000001d0: 38ea 8d3c 6dc4 ddbd 54de 8437 b43b 6e38
000001e0: de9e b6bd 57b2 183e 885b 7936 7ebf c3bd
000001f0: 1290 0cbd ebd5 87bc 42e4 c1b8 e3fa 323d
00000200: 6ebe ad38 964c 9ebd 6a3c 64be e6ff fbbd
00000210: 4326 b4bd 7455 013d 357f 173e e459 2b3e
00000220: d685 93b7 4d27 873d 8d07 653e 9c4a 953d
00000230: 7079 80bd e3c9 3b3d 2159 b1bd 7994 383d
00000240: eb2f 813c cb5a cdbd e3a1 e93d e49a bfbc
00000250: 3cfe b13d baa4 ed3d b404 aabd 38ce cdbc
00000260: 87ea 3239 22b3 66bd 46b3 0db8 72b4 3c3e
00000270: 63ac 1abe 83f7 2bbe e422 e73d 120f d43d
00000280: b554 883d 5ac0 ec3d b23f 7b3d ca7c 823d
00000290: 09c1 ea3c 86bf ae3d a406 503e ce77 6fbd
000002a0: f188 db38 b1fa 24be ded7 293e 8a1f a63d
000002b0: 68f4 f3bd 18af 10be 32e3 2bbd 4892 2e3e
000002c0: 4cb1 b73c 5799 3cbe 9932 583d 369e 25be
000002d0: 03fb b4bd a3c9 a13d 2774 99bc b219 79b8
000002e0: 8378 bcbd b95b 02be 7ea7 743d 4798 163e
000002f0: 6bc8 37be a302 0239 11f3 193e 3521 0539
00000300: 2da5 ddbc 31f1 3338 7adf 2c3e 446b abbd
00000310: f79e 2d3e fc7b 87bd a583 943c 84d1 0f3d
00000320: d0d2 f13d 9c10 a5bd d25b b43d e0a8 e037
00000330: fbcc e1bc 5dd0 39b9 5cc7 2eb8 dde8 9a3d
00000340: 49d5 9a3d 6a27 d1bc 76f9 20be 6215 383e
00000350: b405 6cbd 8dad 363d df9e 433e abd1 ee3d
00000360: 6de2 5ab8 f489 e7bd 0435 17bd 70dd b9bd
00000370: 2fde b6bd 7767 2d3e 43df efbc 5439 9c3e
00000380: c154 8d3d 8b39 3d3e 2841 083e c8d2 8dbd
00000390: 34c1 123d d3d6 2b3d fb75 c03d 494d 05be
000003a0: cfcc 0b3d 0373 2cbd 7fe0 7137 e8a6 ea37
000003b0: 33d1 d9bd 6735 feb8 d3ce 5fbe 58dd 08be
000003c0: b042 3b3d 8b3f 193d de6b e1bc 6ed4 f8bd
000003d0: 7c09 013e f8a3 0cbd d4ef 6cbd 1c82 acbd
000003e0: a716 fd3c ca4b 813e c494 08bd 2bbd b8bc
000003f0: 4644 f137 53b5 02bd 8723 1ab9 2609 dd3d
