trainedModels/FFBNN.pth (torch, 7623 bytes, 16 tensors)

fc1.dropout_mu f4 [4]
00000000: 8ae3 cc3f 1f86 bd3f bcad ce3f e45d 9a3f
1.600694 1.4806556 1.614677 1.2059903

fc1.dropout_logvar f4 [4]
00000000: 2dde 0fc1 6ffb 0fc1 263f 10c1 a8b5 0fc1
-8.991742 -8.998885 -9.015417 -8.98185

fc1.weight_mu f4 [10, 4]
00000000: a5b9 9bbf 6254 1cbe d421 273f a576 6b3e
00000010: bb6c 133f 8bfa 7e3e a95f d4be d659 233f
00000020: 7a73 c33e ff71 043f 46c2 b1bf f32e 5d3d
00000030: 35f4 223f 0ce3 4fbf a1e7 083f bb79 41bf
00000040: 1a83 9ebe 10e0 8bbe e392 4a3f 7c1a d33d
00000050: d63d 87bf 5efa f3be 9c05 163f 7a47 89bd
00000060: be32 bbbe e6f5 8abf 94d5 393e 68e7 2b3f
00000070: c25f 9dbe a959 023f ab75 503f 61a9 b13e
00000080: 99b2 483d 6cb7 393f 002c 273f adf5 083f
00000090: 9c12 fa3e 6f98 b3bf 4e8c 853e 773f 04bf
-1.2166029 -0.15266564 0.6528599 0.22994478 0.57587785 0.24900262 -0.41479233 0.63808954
0.3817404 0.51736444 -1.3887413 0.053999852 0.6365388 -0.8120582 0.5347844 -0.7557637
-0.30959398 -0.27319384 0.7913038 0.10307786 -1.0565746 -0.47651953 0.5860231 -0.06703086
-0.3656215 -1.0856292 0.1814788 0.6714997 -0.3073712 0.5091806 0.8142955 0.34699538
0.04899845 0.72545505 0.65301514 0.5349987 0.48842323 -1.4030894 0.26083606 -0.5165934

fc1.weight_logvar f4 [10, 4]
00000000: ec66 0fc1 d70c 10c1 672c 10c1 82d1 0fc1
00000010: 2f36 10c1 3be2 0fc1 8de0 0fc1 7d01 10c1
00000020: 0115 10c1 26c7 0fc1 97f4 0fc1 48e9 0fc1
00000030: 41ec 0fc1 a714 10c1 61ef 0fc1 bd06 10c1
00000040: 686a 10c1 d701 10c1 4f1f 10c1 ce13 10c1
00000050: 1d1e 10c1 71e6 0fc1 ce9e 0fc1 76ca 0fc1
00000060: b8fd 0fc1 98f5 0fc1 4ad6 0fc1 6003 10c1
00000070: 3d03 10c1 8f08 10c1 1a0e 10c1 b0b5 0fc1
00000080: 3b34 10c1 d143 10c1 db03 10c1 ff38 10c1
00000090: 560c 10c1 1af0 0fc1 69e4 0fc1 4c5c 10c1
-8.962627 -9.003135 -9.01084 -8.988649 -9.013228 -8.992732 -8.992322 -9.000363
-9.005128 -8.98612 -8.997214 -8.994453 -8.995179 -9.005042 -8.995942 -9.001645
-9.025978 -9.000449 -9.007644 -9.004835 -9.007352 -8.99376 -8.976271 -8.986929
-8.999443 -8.997459 -8.989817 -9.000824 -9.000791 -9.0020895 -9.003443 -8.981857
-9.012752 -9.016557 -9.000941 -9.013915 -9.003012 -8.996119 -8.993264 -9.022533

fc1.bias_mu f4 [10]
00000000: 4f16 ccbb e7fe e13c fb06 543e 5f48 36be
00000010: 48e7 a33d cff8 50bc 6078 ee3c f377 40be
00000020: 7cb5 953e 050a 14be
-0.0062282453 0.027587367 0.20705788 -0.17801045 0.08003098 -0.012754633 0.029110134 -0.18795757
0.29240024 -0.14456947

fc1.bias_logvar f4 [10]
00000000: 2530 10c1 3ce2 0fc1 eee4 0fc1 e715 10c1
00000010: 932a 10c1 9cec 0fc1 272a 10c1 69ee 0fc1
00000020: 6d4a 10c1 5bdf 0fc1
-9.011754 -8.992733 -8.993391 -9.005347 -9.010394 -8.995266 -9.010291 -8.995706
-9.01817 -8.99203

fc2.dropout_mu f4 [10]
00000000: a1b6 b43f 7a32 933f 5279 9f3f cf76 c13f
00000010: 9e56 9a3f 67e1 ad3f be8c a83f 5251 983f
00000020: ce9a b43f 5af3 b33f
1.4118234 1.1499779 1.2458899 1.5114383 1.2057683 1.3584412 1.3167951 1.1899817
1.4109743 1.405864

fc2.dropout_logvar f4 [10]
00000000: 61ec 0fc1 5d22 10c1 8716 10c1 d419 10c1
00000010: e22a 10c1 843a 10c1 c4e2 0fc1 eb01 10c1
00000020: f4e4 0fc1 01ee 0fc1
-8.99521 -9.008389 -9.0055 -9.006306 -9.010469 -9.014286 -8.992863 -9.000468
-8.993397 -8.995606

fc2.weight_mu f4 [20, 10]
00000000: 293c 83bc a4fb 943d e1e9 39bf 4fed e5bd
00000010: cc74 1f3b 45f9 a0bd 0fa7 e83e f27c f23e
00000020: 6b05 f93d d0bd d13e 8b4c 4a3d 74da cb3e
00000030: 7a23 cebe 999e 8abd 8c60 143f 4193 853e
00000040: c963 2a3e 9b65 8cbc 241d 76bd 67e0 813e
00000050: 2637 06be 9fa8 003f e9ef df3d 9faa 9b3e
00000060: f3ca 16be cfbc d53c 6313 1c3f bd08 a2be
00000070: 821a e0bd ec6b 0a3f c0cd 97be 2fb7 8ebf
00000080: 1ce0 e5be c752 403e cc4d 1d3e 52ac 26bf
00000090: 8da5 0c3f 7848 a13d fb0b c43e 65e0 8bbe
000000a0: da33 6ebe a35e e7be 93fc b13e bbe0 bfbf
000000b0: d578 3d3e 9f95 01c0 1d03 8f3e c402 f23e
000000c0: b3ff 37be e1d3 adbe 1cae 963d 35b8 b3bb
000000d0: 12ea 343e e0e5 c03e 7f42 bb3d d5ed 593d
000000e0: 0781 043e 34eb adbe 52c2 063f 5f85 cc3d
000000f0: 5cbe 92be 840c 36bb 5eb7 7c3e fe53 a3be
00000100: 3b2c 3b3f c2e8 9ebe c46b bcbe d02a 093f
00000110: 2b43 053e 2273 97bc cae3 303f d616 d53e
00000120: e926 36bf 7520 e2be 2a86 d53d eb12 b9bd
00000130: 78af 27be c1fa 98be b649 603e 6f54 9f3e
00000140: e661 193f e020 da3e c161 d53e 52d6 ecbe
00000150: 3d67 9dbe 1160 ca3e e5fe cd3e 3f50 923d
00000160: f8c7 2abf 8a72 9f3e 0310 75be 8d47 023f
00000170: 103f 5a3e 8ded d4bd 4a26 cabe 29dc 5a3e
00000180: 932d 8d3c dc9f c63e f22e 733d 712a 05be
00000190: 2b71 cdbf 8d02 a2be ed28 cfbe ff90 e8bd
000001a0: 0d8b 11bf 94f7 803e a72b 103e 5622 1a3e
000001b0: a849 ffbf 122f af3e 8f79 94be cb4b fabd
000001c0: 8daf 54bf 2abe 293d 2f3e 123f 5f69 cf3c
000001d0: d57b 983e 1f63 0abe 0f66 513f 004c 4ebd
000001e0: b40d 673e 12a3 44bf bdfc d2be cf8d c33d
000001f0: 9dd7 0e3f eb2c f8bc 691e ffbd 1eb3 a0be
00000200: 032a efbe b926 933e 2434 0abe 3d59 35be
00000210: de7d 2bbf 03f2 043f 31f8 06bf 2361 443e
00000220: ec97 dcbe 311b ce3e 4e28 10bd 8874 403f
00000230: 904f f53c 8373 debe 0225 1ebf 3d8b 20be
00000240: ffbe 28be 2721 883e 33ab 82be a460 9c3e
00000250: b6b4 76bf 9380 2a3f 6c26 433d 4a83 503d
00000260: c7b6 26bf 778d e4bc aa8f ddbd ca20 a2bd
00000270: 5031 21be b536 a93e 6c69 ec3e 0345 d93d
00000280: 8c59 cebf 20fa e9bd a356 6c3d 770c 803e
00000290: 8064 1a3f ca30 143e 51ca df3e 8209 19be
000002a0: 49cb 0d3e 1761 c8bf 02f8 b23e 2aa0 f23e
000002b0: acd0 083e 8000 9c3e 2b02 483f 1bf5 893e
000002c0: 9b84 debe 7e98 ea3d 274e e93e ca51 f4be
000002d0: 34d0 6bbe c1d8 243e 889a 643d a1db aa3e
000002e0: 13bb 693d 5269 17be 6e92 8d3e 9956 193e
000002f0: 1915 ab3e 744f 0d3e 1b4a 083f b417 8b3e
00000300: 64c2 5bbd fed8 8fbf 7f19 9fbe b5cc d23e
00000310: d585 6dbe e6de 3dbe c831 a2be 1af9 1ebd
-0.016019898 0.07274559 -0.72622496 -0.11226904 0.002433109 -0.078600444 0.45439956 0.4736095
0.121592365 0.40965128 0.049389403 0.39815104 -0.4026144 -0.06768531 0.5795982 0.26088908
0.16639628 -0.017138293 -0.060086384 0.25366518 -0.13106975 0.50257295 0.10934431 0.3040361
-0.14725856 0.026091008 0.6096708 -0.31647292 -0.10942556 0.54070926 -0.29649162 -1.1149653
-0.44897544 0.18781577 0.15361708 -0.6510669 0.5494011 0.078751504 0.3829039 -0.27319637
-0.23261967 -0.4518939 0.3476301 -1.4990457 0.18503125 -2.0247571 0.27932063 0.47267735
-0.17968635 -0.33950713 0.073574275 -0.0054846057 0.17667416 0.3767538 0.091435425 0.05320533
0.12939845 -0.33968508 0.5264026 0.09986376 -0.28660858 -0.0027778456 0.24679324 -0.31900018
0.73114365 -0.31036955 -0.3680097 0.5358095 0.13013904 -0.018487517 0.6909758 0.41618985
-0.7115312 -0.44165388 0.104259804 -0.090368114 -0.1637553 -0.2987881 0.21903118 0.31119105
0.59915006 0.42603207 0.41676143 -0.46257263 -0.30742827 0.39526418 0.40233532 0.07144212
-0.6671138 0.31142074 -0.23931889 0.5089043 0.21313119 -0.10396872 -0.39482337 0.21373047
0.017233646 0.38793838 0.059370942 -0.13004471 -1.6050161 -0.3164257 -0.4046091 -0.11355781
-0.568528 0.25188887 0.14079152 0.1505216 -1.9944353 0.342156 -0.28998992 -0.122214876
-0.8308037 0.04144112 0.57126135 0.0253188 0.29781976 -0.13514374 0.81796354 -0.050365448
0.22563821 -0.76811326 -0.4120845 0.09548532 0.5579775 -0.030294856 -0.12456972 -0.31386656
-0.4671174 0.2874048 -0.13496453 -0.17709823 -0.66988933 0.5193178 -0.5272246 0.1917768
-0.43084657 0.4025512 -0.035194688 0.7517781 0.029945165 -0.43447503 -0.6177522 -0.15678115
-0.16479109 0.26587793 -0.2552124 0.3054248 -0.96369493 0.6660244 0.047644064 0.050906457
-0.65122646 -0.027899487 -0.10818417 -0.0791641 -0.15741467 0.3304955 0.4617418 0.10608866
-1.6121078 -0.11424661 0.05769981 0.2500951 0.603096 0.14471737 0.43709043 -0.14945033
0.13847078 -1.565463 0.3495484 0.4738782 0.13360852 0.3046913 0.7812831 0.26944813
-0.43460545 0.11454867 0.45567438 -0.4771865 -0.23028642 0.1609831 0.055811435 0.3337069
0.057063174 -0.1478627 0.2765078 0.1497444 0.33414534 0.1379984 0.53238076 0.27166522
-0.053652182 -1.1238096 -0.3107414 0.41171804 -0.23195584 -0.1854206 -0.31678605 -0.03881178

fc2.weight_logvar f4 [20, 10]
00000000: 172c 10c1 663a 10c1 31dc 0fc1 03f1 0fc1
00000010: 6669 10c1 a9ec 0fc1 7aee 0fc1 89e1 0fc1
00000020: 38cf 0fc1 2e56 10c1 45ed 0fc1 a42a 10c1
00000030: 20f1 0fc1 58ef 0fc1 1004 10c1 91ca 0fc1
00000040: db12 10c1 2ed3 0fc1 25bf 0fc1 04cc 0fc1
00000050: 0807 10c1 5213 10c1 2018 10c1 5f4a 10c1
00000060: f81c 10c1 e9fd 0fc1 89da 0fc1 112b 10c1
00000070: 4129 10c1 a463 10c1 ca47 10c1 11ee 0fc1
00000080: f9ff 0fc1 e4cf 0fc1 3053 10c1 4dcc 0fc1
00000090: f30f 10c1 b531 10c1 a61e 10c1 c417 10c1
000000a0: 0302 10c1 4efd 0fc1 1c16 10c1 090a 10c1
000000b0: 7803 10c1 e0c4 0fc1 8060 10c1 c2fe 0fc1
000000c0: 3a6f 10c1 33fb 0fc1 1428 10c1 1222 10c1
000000d0: 63ee 0fc1 b8fb 0fc1 75f8 0fc1 1fea 0fc1
000000e0: 8912 10c1 b64b 10c1 71ad 0fc1 0cd0 0fc1
000000f0: c4c5 0fc1 9822 10c1 0b05 10c1 aaf1 0fc1
00000100: 69fe 0fc1 7eed 0fc1 8248 10c1 efef 0fc1
00000110: df09 10c1 8c02 10c1 cd13 10c1 6335 10c1
00000120: 8405 10c1 dfbc 0fc1 ddf5 0fc1 940c 10c1
00000130: e0f7 0fc1 5623 10c1 6200 10c1 006c 10c1
00000140: 943c 10c1 6f47 10c1 050d 10c1 69f6 0fc1
00000150: 68c8 0fc1 5b09 10c1 331a 10c1 1cf2 0fc1
00000160: 6a24 10c1 7bbf 0fc1 d02e 10c1 f110 10c1
00000170: ebf0 0fc1 853d 10c1 ea12 10c1 2416 10c1
00000180: 86c9 0fc1 f8f6 0fc1 e1f0 0fc1 88ea 0fc1
00000190: f9ea 0fc1 6f24 10c1 76bc 0fc1 1ae4 0fc1
000001a0: 425e 10c1 9649 10c1 c46f 10c1 f539 10c1
000001b0: 79f0 0fc1 adef 0fc1 e921 10c1 3605 10c1
000001c0: 38d5 0fc1 4f2a 10c1 fa12 10c1 a72a 10c1
000001d0: 01c1 0fc1 a7e5 0fc1 9131 10c1 8403 10c1
000001e0: 39fb 0fc1 dfb9 0fc1 efe2 0fc1 9a19 10c1
000001f0: 95d7 0fc1 0efb 0fc1 eee1 0fc1 6a1c 10c1
00000200: 2c2c 10c1 3db6 0fc1 a439 10c1 e60d 10c1
00000210: 37ee 0fc1 1220 10c1 b23a 10c1 5224 10c1
00000220: b2ef 0fc1 f5c5 0fc1 872a 10c1 27eb 0fc1
00000230: 6902 10c1 0f37 10c1 e33a 10c1 7f0d 10c1
00000240: a333 10c1 03fd 0fc1 3201 10c1 230a 10c1
00000250: d40e 10c1 b10c 10c1 2667 10c1 2db5 0fc1
00000260: 3246 10c1 80b0 0fc1 0c09 10c1 3528 10c1
00000270: 8b09 10c1 cb14 10c1 59eb 0fc1 a420 10c1
00000280: 4503 10c1 610f 10c1 950d 10c1 1df6 0fc1
00000290: 97f4 0fc1 2909 10c1 34e0 0fc1 82f1 0fc1
000002a0: b1df 0fc1 c741 10c1 1107 10c1 b2f9 0fc1
000002b0: 72de 0fc1 8de3 0fc1 60d6 0fc1 fafb 0fc1
000002c0: 9101 10c1 9d3b 10c1 bed3 0fc1 4409 10c1
000002d0: 4b1c 10c1 6df2 0fc1 7920 10c1 ecff 0fc1
000002e0: 43f6 0fc1 1718 10c1 3ff1 0fc1 323f 10c1
000002f0: e336 10c1 d81a 10c1 67f6 0fc1 c848 10c1
00000300: 5a21 10c1 125c 10c1 b9fa 0fc1 f227 10c1
00000310: c80c 10c1 cdd7 0fc1 d108 10c1 7959 10c1
-9.010764 -9.014257 -8.991258 -8.996341 -9.025732 -8.995278 -8.995722 -8.992562
-8.9880905 -9.02104 -8.995427 -9.01041 -8.996368 -8.995934 -9.000992 -8.986955
-9.004603 -8.989058 -8.984166 -8.9873085 -9.001717 -9.004717 -9.00589 -9.018157
-9.007072 -8.99949 -8.990853 -9.010514 -9.010072 -9.024326 -9.017527 -8.995622
-8.999993 -8.988255 -9.020309 -8.987378 -9.003894 -9.0121355 -9.007483 -9.005802
-9.000491 -8.999342 -9.005398 -9.00245 -9.000847 -8.985565 -9.02356 -8.999697
-9.027155 -8.998828 -9.009785 -9.008318 -8.9957 -8.998955 -8.998158 -8.994658
-9.004525 -9.018484 -8.979844 -8.988293 -8.985783 -9.008446 -9.001231 -8.9965
-8.999612 -8.9954815 -9.017702 -8.996078 -9.00241 -9.000622 -9.004834 -9.013034
-9.001347 -8.983611 -8.997525 -9.003071 -8.998016 -9.008627 -9.000093 -9.026367
-9.01479 -9.01744 -9.003179 -8.997659 -8.986427 -9.002284 -9.006396 -8.996609
-9.00889 -8.984248 -9.011429 -9.004136 -8.996318 -9.015019 -9.004618 -9.005405
-8.9867 -8.997795 -8.996308 -8.994759 -8.994866 -9.008895 -8.983511 -8.993189
-9.023012 -9.017965 -9.027287 -9.01415 -8.996209 -8.996015 -9.008279 -9.001272
-8.989555 -9.010329 -9.004633 -9.010413 -8.98462 -8.993567 -9.012101 -9.000858
-8.998834 -8.982879 -8.992904 -9.00625 -8.990132 -8.998793 -8.992659 -9.006937
-9.010784 -8.981992 -9.014072 -9.003393 -8.995658 -9.00783 -9.01433 -9.008867
-8.996019 -8.985829 -9.010383 -8.99491 -9.000588 -9.013442 -9.014377 -9.003295
-9.012607 -8.99927 -9.000292 -9.002475 -9.00362 -9.0030985 -9.025183 -8.981732
-9.017138 -8.980591 -9.002209 -9.009816 -9.00233 -9.005076 -8.994958 -9.007969
-9.000798 -9.003755 -9.003316 -8.997586 -8.997214 -9.002236 -8.992237 -8.996462
-8.992112 -9.016059 -9.001725 -8.998461 -8.991808 -8.993054 -8.989838 -8.999018
-9.000382 -9.014554 -8.989195 -9.002262 -9.006907 -8.996686 -9.007928 -8.999981
-8.9976225 -9.005881 -8.996398 -9.015429 -9.0134 -9.006554 -8.997657 -9.017769
-9.008142 -9.022478 -8.998712 -9.009752 -9.00312 -8.990186 -9.002152 -9.021844

fc2.bias_mu f4 [20]
00000000: 50e9 883d eec6 ec3d 6664 71bd 4fbc b5be
00000010: 9e60 423e db57 8abd f113 7fbc ab3d 34bd
00000020: 2249 adbd ee62 39be 6efa 0dbe c288 423e
00000030: 5898 9f3e 2340 a3bd 6cf4 423e 1669 323e
00000040: 4b35 c33e 11d0 42be c900 38bd cbbe bcbc
0.06685126 0.1156138 -0.058933638 -0.3549523 0.18982169 -0.06755038 -0.015568719 -0.044004124
-0.084612146 -0.18104145 -0.13865063 0.18997481 0.31170917 -0.079712175 0.19038552 0.174229
0.38126597 -0.19024684 -0.044922624 -0.023040196

fc2.bias_logvar f4 [20]
00000000: 59f0 0fc1 731c 10c1 87f3 0fc1 9808 10c1
00000010: 12dd 0fc1 5df9 0fc1 851f 10c1 44c1 0fc1
00000020: cb2c 10c1 edda 0fc1 d3fc 0fc1 58ec 0fc1
00000030: e016 10c1 9311 10c1 8b11 10c1 9232 10c1
00000040: 8dd8 0fc1 21f4 0fc1 2803 10c1 b6f6 0fc1
-8.996179 -9.006946 -8.996955 -9.002098 -8.991472 -8.99838 -9.007695 -8.984684
-9.010936 -8.990949 -8.999225 -8.995201 -9.005585 -9.004291 -9.004283 -9.012346
-8.990369 -8.997102 -9.000771 -8.997732

fc3.dropout_mu f4 [20]
00000000: 3905 ab3f 2a1b 783f 6508 a33f 0b49 cc3f
00000010: a63b d73f bf80 833f 6d8e ad3f 4b28 a63f
00000020: 5244 973f 360a 8c3f 4940 cf3f 6194 8d3f
00000030: ffab 9a3f b590 893f c106 ca3f 6d47 6f3f
00000040: 07b4 c63f 2aae ac3f fca5 623f 0899 a63f
1.3360969 0.9691645 1.2736937 1.5959791 1.6815078 1.0273665 1.355909 1.2981046
1.1817725 1.0940616 1.6191493 1.1060907 1.2083739 1.0747286 1.5783311 0.9346836
1.552369 1.3490651 0.8853452 1.3015451

fc3.dropout_logvar f4 [20]
00000000: e135 10c1 3a01 10c1 fa0b 10c1 72ee 0fc1
00000010: 2117 10c1 06e9 0fc1 e2ed 0fc1 5101 10c1
00000020: 11c4 0fc1 1ede 0fc1 cee9 0fc1 ccfe 0fc1
00000030: 44e2 0fc1 d818 10c1 b9f6 0fc1 8102 10c1
00000040: 6bdc 0fc1 87e2 0fc1 ef00 10c1 add1 0fc1
-9.013154 -9.000299 -9.002924 -8.995714 -9.005647 -8.9943905 -8.995577 -9.000321
-8.985368 -8.991728 -8.994581 -8.999706 -8.992741 -9.006065 -8.997735 -9.000611
-8.991313 -8.992805 -9.000228 -8.98869

fc3.weight_mu f4 [1, 20]
00000000: 6230 f6be f71f 4d3e 7b9b 80be 0163 20bf
00000010: c5a6 64bf 41f6 a0bd c714 f63e c09c 0c3f
00000020: 39c9 893e 901e 1a3e ddd0 6c3f f5d9 dd3e
00000030: 2283 b83e cede 0b3f 2c2d 20bf 6107 68be
00000040: 297f 183f 480c bcbe 806e f53d 76b8 e8be
-0.48083788 0.20031725 -0.25118622 -0.6265107 -0.8931697 -0.07859469 0.48062727 0.5492668
0.26911333 0.15050721 0.925062 0.4333035 0.36037546 0.5463685 -0.62568927 -0.22659065
0.5956903 -0.3672812 0.11983967 -0.45453233

fc3.weight_logvar f4 [1, 20]
00000000: 913d 10c1 522a 10c1 d0ec 0fc1 38ca 0fc1
00000010: f2c7 0fc1 b210 10c1 fac3 0fc1 6404 10c1
00000020: 5818 10c1 f818 10c1 d605 10c1 a829 10c1
00000030: 7f1c 10c1 8bb2 0fc1 bfb7 0fc1 4626 10c1
00000040: 2544 10c1 6823 10c1 59d7 0fc1 fffb 0fc1
-9.015031 -9.010332 -8.995316 -8.98687 -8.986315 -9.004076 -8.985346 -9.001072
-9.005943 -9.006096 -9.001425 -9.01017 -9.006957 -8.98109 -8.98236 -9.009344
-9.016637 -9.008644 -8.990075 -8.9990225
