trainedModels/FFBNN.pth (torch, 7623 bytes, 16 tensors)

fc1.dropout_mu f4 [4]
1.014516 0.94368833 1.0266382 0.98050773
00000000: a9db 813f 8f95 713f e168 833f 8e02 7b3f

fc1.dropout_logvar f4 [4]
-8.991742 -8.998885 -9.015417 -8.98185
00000000: 2dde 0fc1 6ffb 0fc1 263f 10c1 a8b5 0fc1

fc1.weight_mu f4 [10, 4]
-0.74004567 -0.15881142 0.5608763 0.18202296 0.46523264 -0.03308672 -0.24288292 0.6140199
0.34053373 0.63772124 -1.0621656 0.20282882 0.42155033 -0.5558215 0.5745842 -0.4774107
-0.09341096 -0.21732159 0.5579139 0.08532062 -0.732011 -0.38714662 0.4384164 0.2253367
-0.0651258 -0.8400846 0.2925252 0.7186137 -0.15525608 0.32617992 0.6396378 0.3697986
0.18972686 0.47306216 0.4259034 0.3802542 0.25513616 -1.0781007 0.27830872 -0.35690168
00000000: a273 3dbf 769f 22be 9795 0f3f 3a64 3a3e
00000010: f932 ee3e f185 07bd 4db6 78be 6830 1d3f
00000020: 705a ae3e b341 233f 0bf5 87bf 5cb2 4f3e
00000030: 72d5 d73e 514a 0ebf f317 133f 2d6f f4be
00000040: 3f4e bfbd 8d89 5ebe 72d3 0e3f 94bc ae3d
00000050: 1365 3bbf 1538 c6be 1d78 e03e aabe 663e
00000060: ad60 85bd c90f 57bf ddc5 953e 11f7 373f
00000070: 73fb 1ebe 0e01 a73e 4ebf 233f 3e56 bd3e
00000080: c247 423e 3435 f23e 0310 da3e aeb0 c23e
00000090: 35a1 823e 34ff 89bf 7b7e 8e3e d1bb b6be

fc1.weight_logvar f4 [10, 4]
-8.962627 -9.003135 -9.01084 -8.988649 -9.013228 -8.992732 -8.992322 -9.000363
-9.005128 -8.98612 -8.997214 -8.994453 -8.995179 -9.005042 -8.995942 -9.001645
-9.025978 -9.000449 -9.007644 -9.004835 -9.007352 -8.99376 -8.976271 -8.986929
-8.999443 -8.997459 -8.989817 -9.000824 -9.000791 -9.0020895 -9.003443 -8.981857
-9.012752 -9.016557 -9.000941 -9.013915 -9.003012 -8.996119 -8.993264 -9.022533
00000000: ec66 0fc1 d70c 10c1 672c 10c1 82d1 0fc1
00000010: 2f36 10c1 3be2 0fc1 8de0 0fc1 7d01 10c1
00000020: 0115 10c1 26c7 0fc1 97f4 0fc1 48e9 0fc1
00000030: 41ec 0fc1 a714 10c1 61ef 0fc1 bd06 10c1
00000040: 686a 10c1 d701 10c1 4f1f 10c1 ce13 10c1
00000050: 1d1e 10c1 71e6 0fc1 ce9e 0fc1 76ca 0fc1
00000060: b8fd 0fc1 98f5 0fc1 4ad6 0fc1 6003 10c1
00000070: 3d03 10c1 8f08 10c1 1a0e 10c1 b0b5 0fc1
00000080: 3b34 10c1 d143 10c1 db03 10c1 ff38 10c1
00000090: 560c 10c1 1af0 0fc1 69e4 0fc1 4c5c 10c1

fc1.bias_mu f4 [10]
-0.041112576 -0.022259561 0.025246529 -0.022502488 -0.016448427 0.01841868 0.064083725 -0.022030672
0.00019010232 -0.04600969
00000000: a965 28bd af59 b6bc cfd1 ce3c 2357 b8bc
00000010: dabe 86bc c6e2 963c 543e 833d ab79 b4bc
00000020: 3456 4739 a874 3cbd

fc1.bias_logvar f4 [10]
-9.011754 -8.992733 -8.993391 -9.005347 -9.010394 -8.995266 -9.010291 -8.995706
-9.01817 -8.99203
00000000: 2530 10c1 3ce2 0fc1 eee4 0fc1 e715 10c1
00000010: 932a 10c1 9cec 0fc1 272a 10c1 69ee 0fc1
00000020: 6d4a 10c1 5bdf 0fc1

fc2.dropout_mu f4 [10]
0.9664493 0.987799 1.0181022 0.9576785 0.9605408 1.0181336 1.056056 0.9586356
0.9695455 0.9613917
00000000: 3969 773f 65e0 7c3f 2c51 823f 6b2a 753f
00000010: 00e6 753f 3452 823f d82c 873f 2569 753f
00000020: 2234 783f c41d 763f

fc2.dropout_logvar f4 [10]
-8.99521 -9.008389 -9.0055 -9.006306 -9.010469 -9.014286 -8.992863 -9.000468
-8.993397 -8.995606
00000000: 61ec 0fc1 5d22 10c1 8716 10c1 d419 10c1
00000010: e22a 10c1 843a 10c1 c4e2 0fc1 eb01 10c1
00000020: f4e4 0fc1 01ee 0fc1

fc2.weight_mu f4 [20, 10]
-0.018811485 -0.06383874 -0.40464422 -0.058946043 0.060905073 -0.019082619 0.23448259 0.3791366
0.1330937 0.23686439 -0.0064812717 0.45926875 -0.28500676 -0.09289709 0.52784395 0.20173746
0.020428976 -0.07329141 -0.029785484 0.2576688 -0.18028317 0.33034307 0.27684927 0.061298028
-0.2127873 0.1939949 0.38097796 0.008795799 -0.07482181 0.32235262 -0.13344854 -0.5855839
-0.38662955 0.25216123 0.14209597 -0.50760096 0.33321974 0.11180918 0.34908894 -0.44071713
-0.05934648 -0.25157666 0.3352691 -0.688625 0.03987466 -0.3929 -0.3828638 0.19419676
0.024345139 -0.14963837 0.16413021 -0.16001868 0.3044582 0.29260606 0.20675288 0.26099014
0.17983268 -0.29077256 0.37279353 0.011697985 -0.14924593 0.19098869 0.17787802 -0.48106268
0.5751883 -0.046745885 -0.35923317 0.22486386 0.037421834 -0.102773786 0.5399699 0.21645302
-0.16782454 -0.21385945 0.24022113 -0.13322367 -0.17163973 -0.21153726 0.1804966 0.26983353
0.48283926 0.71880394 0.34697148 -0.17382865 -0.19602469 0.18128946 0.24671341 0.07584162
-0.3127303 0.2586447 -0.25545856 0.5062963 0.022466283 -0.1582347 -0.1503951 0.19352715
0.168876 0.15354328 0.15499035 -0.22727814 -0.3537266 -0.027882803 -0.2506275 -0.08380486
-0.5602556 0.016484886 -0.18121316 0.11393027 -0.24672191 0.2618477 -0.34587514 -0.054819368
-0.65678936 0.22880979 0.5708477 -0.15910016 0.23308437 -0.057655107 0.67058265 -0.030712506
0.07604943 -0.18698753 -0.21179576 0.1274596 0.32898524 -0.12816894 -0.23092341 -0.13171637
-0.38684285 0.2549534 -0.18046296 -0.039235424 -0.3823743 0.40329692 -0.43784004 0.11129606
-0.6387753 0.36765555 -0.11782683 0.68715245 -0.085897066 0.17069547 -0.518766 -0.06080104
0.14857075 0.080544755 -0.38685593 0.016976094 -0.50955635 0.44354278 0.0076467567 0.13227393
-0.40487325 -0.22463629 -0.08645135 -0.15168254 -0.14463142 0.42571077 0.45204976 -0.036851432
-0.63181293 0.1453717 -0.08592379 -0.11909842 -0.14799038 -0.5888383 0.007991998 -0.5370914
0.26642895 -0.5486875 0.23959221 0.08669839 0.117097095 0.07558431 0.55620044 0.30054486
-0.16807571 0.13807529 0.08430698 -0.49923375 -0.16710457 0.34837458 -0.12377795 0.31829357
0.11916096 -0.12408928 0.31479183 0.06158591 0.40420073 0.06911457 0.48211995 0.13497123
0.15392298 -0.5050205 -0.14182316 0.35907286 -0.29349673 -0.08382085 -0.13626607 -0.22049898
00000000: 8b1a 9abc e3bd 82bd 872d cfbe 6871 71bd
00000010: 9977 793d 2753 9cbc 341c 703e 311e c23e
00000020: b749 083e 948c 723e d960 d4bb 4625 eb3e
00000030: 68ec 91be d440 bebd c820 073f 4494 4e3e
00000040: ab5a a73c cf19 96bd b000 f4bc 2aed 833e
00000050: 279c 38be ba22 a93e 30bf 8d3e a413 7b3d
00000060: eae4 59be 99a6 463e 8b0f c33e 411c 103c
00000070: 2d3c 99bd 670b a53e bca6 08be d4e8 15bf
00000080: 4ff4 c5be 471b 813e 9b81 113e 23f2 01bf
00000090: c79b aa3e 36fc e43d c9bb b23e ada5 e1be
000000a0: 4b15 73bd a8ce 80be 64a8 ab3e ba49 30bf
000000b0: 9d53 233d 302a c9be b906 c4be 84db 463e
000000c0: 756f c73c cd3a 19be c011 283e f0db 23be
000000d0: f2e1 9b3e 76d0 953e 07b7 533e 80a0 853e
000000e0: 0f26 383e 24e0 94be cbde be3e e8a8 3f3c
000000f0: edd3 18be 8a92 433e a825 363e d94d f6be
00000100: 8a3f 133f 9d78 3fbd 69ed b7be b642 663e
00000110: a347 193d 107b d2bd 783b 0a3f dca5 5d3e
00000120: 32da 2bbe f9fd 5abe 87fc 753e c96b 08be
00000130: 53c2 2fbe 399d 58be 1ad4 383e 9f27 8a3e
00000140: b536 f73e 8903 383f 3fa6 b13e 2300 32be
00000150: b2ba 48be f2a3 393e 71a2 7c3e da52 9b3d
00000160: 301e a0be 146d 843e 77cb 82be a29c 013f
00000170: 360b b83c 4708 22be 2c01 1abe fb2b 463e
00000180: d5ed 2c3e 733a 1d3e cab5 1e3e 9abb 68be
00000190: a71b b5be 7a6a e4bc 3f52 80be e2a1 abbd
000001a0: e96c 0fbf 500b 873c f18f 39be 4654 e93d
000001b0: aba4 7cbe e710 863e 8c16 b1be 468a 60bd
000001c0: 5923 28bf 1d4d 6a3e 1323 123f 27eb 22be
000001d0: abad 6e3e c327 6cbd 4eab 2b3f cb98 fbbc
000001e0: cebf 9b3d a979 3fbe fde0 58be c584 023e
000001f0: c170 a83e b83e 03be 3077 6cbe a8e0 06be
00000200: 4410 c6be 4189 823e 48cb 38be 53b5 20bd
00000210: 90c6 c3be ef7c ce3e 922c e0be 30ef e33d
00000220: c786 23bf 593d bc3e 314f f1bd 39e9 2f3f
00000230: cdea afbd cbca 2e3e d9cd 04bf 830a 79bd
00000240: ee22 183e a6f4 a43d fb11 c6be 7311 8b3c
00000250: 4972 02bf 0a18 e33e a591 fa3b d172 073e
00000260: 8c4b cfbe 0e07 66be 680d b1bd ab52 1bbe
00000270: 421a 14be c3f6 d93e 1173 e73e 87f1 16bd
00000280: 7ebe 21bf 52dc 143e d0f8 afbd dfe9 f3bd
00000290: ca8a 17be 1bbe 16bf dff0 023c d27e 09bf
000002a0: 6069 883e c976 0cbf a957 753e ed8e b13d
000002b0: 9ad0 ef3d f2cb 9a3d 2763 0e3f 04e1 993e
000002c0: 0a1c 2cbe 9c63 0d3e 23a9 ac3d 919b ffbe
000002d0: 761d 2bbe 275e b23e 4b7f fdbd 60f7 a23e
000002e0: a90a f43d 8522 febd 652c a13e 8241 7c3d
000002f0: 66f3 ce3e f18b 8d3d 6dd8 f63e e635 0a3e
00000300: fc9d 1d3e 0649 01bf 173a 11be 66d8 b73e
00000310: 3445 96be 44aa abbd 5589 0bbe 7cca 61be

fc2.weight_logvar f4 [20, 10]
-9.010764 -9.014257 -8.991258 -8.996341 -9.025732 -8.995278 -8.995722 -8.992562
-8.9880905 -9.02104 -8.995427 -9.01041 -8.996368 -8.995934 -9.000992 -8.986955
-9.004603 -8.989058 -8.984166 -8.9873085 -9.001717 -9.004717 -9.00589 -9.018157
-9.007072 -8.99949 -8.990853 -9.010514 -9.010072 -9.024326 -9.017527 -8.995622
-8.999993 -8.988255 -9.020309 -8.987378 -9.003894 -9.0121355 -9.007483 -9.005802
-9.000491 -8.999342 -9.005398 -9.00245 -9.000847 -8.985565 -9.02356 -8.999697
-9.027155 -8.998828 -9.009785 -9.008318 -8.9957 -8.998955 -8.998158 -8.994658
-9.004525 -9.018484 -8.979844 -8.988293 -8.985783 -9.008446 -9.001231 -8.9965
-8.999612 -8.9954815 -9.017702 -8.996078 -9.00241 -9.000622 -9.004834 -9.013034
-9.001347 -8.983611 -8.997525 -9.003071 -8.998016 -9.008627 -9.000093 -9.026367
-9.01479 -9.01744 -9.003179 -8.997659 -8.986427 -9.002284 -9.006396 -8.996609
-9.00889 -8.984248 -9.011429 -9.004136 -8.996318 -9.015019 -9.004618 -9.005405
-8.9867 -8.997795 -8.996308 -8.994759 -8.994866 -9.008895 -8.983511 -8.993189
-9.023012 -9.017965 -9.027287 -9.01415 -8.996209 -8.996015 -9.008279 -9.001272
-8.989555 -9.010329 -9.004633 -9.010413 -8.98462 -8.993567 -9.012101 -9.000858
-8.998834 -8.982879 -8.992904 -9.00625 -8.990132 -8.998793 -8.992659 -9.006937
-9.010784 -8.981992 -9.014072 -9.003393 -8.995658 -9.00783 -9.01433 -9.008867
-8.996019 -8.985829 -9.010383 -8.99491 -9.000588 -9.013442 -9.014377 -9.003295
-9.012607 -8.99927 -9.000292 -9.002475 -9.00362 -9.0030985 -9.025183 -8.981732
-9.017138 -8.980591 -9.002209 -9.009816 -9.00233 -9.005076 -8.994958 -9.007969
-9.000798 -9.003755 -9.003316 -8.997586 -8.997214 -9.002236 -8.992237 -8.996462
-8.992112 -9.016059 -9.001725 -8.998461 -8.991808 -8.993054 -8.989838 -8.999018
-9.000382 -9.014554 -8.989195 -9.002262 -9.006907 -8.996686 -9.007928 -8.999981
-8.9976225 -9.005881 -8.996398 -9.015429 -9.0134 -9.006554 -8.997657 -9.017769
-9.008142 -9.022478 -8.998712 -9.009752 -9.00312 -8.990186 -9.002152 -9.021844
00000000: 172c 10c1 663a 10c1 31dc 0fc1 03f1 0fc1
00000010: 6669 10c1 a9ec 0fc1 7aee 0fc1 89e1 0fc1
00000020: 38cf 0fc1 2e56 10c1 45ed 0fc1 a42a 10c1
00000030: 20f1 0fc1 58ef 0fc1 1004 10c1 91ca 0fc1
00000040: db12 10c1 2ed3 0fc1 25bf 0fc1 04cc 0fc1
00000050: 0807 10c1 5213 10c1 2018 10c1 5f4a 10c1
00000060: f81c 10c1 e9fd 0fc1 89da 0fc1 112b 10c1
00000070: 4129 10c1 a463 10c1 ca47 10c1 11ee 0fc1
00000080: f9ff 0fc1 e4cf 0fc1 3053 10c1 4dcc 0fc1
00000090: f30f 10c1 b531 10c1 a61e 10c1 c417 10c1
000000a0: 0302 10c1 4efd 0fc1 1c16 10c1 090a 10c1
000000b0: 7803 10c1 e0c4 0fc1 8060 10c1 c2fe 0fc1
000000c0: 3a6f 10c1 33fb 0fc1 1428 10c1 1222 10c1
000000d0: 63ee 0fc1 b8fb 0fc1 75f8 0fc1 1fea 0fc1
000000e0: 8912 10c1 b64b 10c1 71ad 0fc1 0cd0 0fc1
000000f0: c4c5 0fc1 9822 10c1 0b05 10c1 aaf1 0fc1
00000100: 69fe 0fc1 7eed 0fc1 8248 10c1 efef 0fc1
00000110: df09 10c1 8c02 10c1 cd13 10c1 6335 10c1
00000120: 8405 10c1 dfbc 0fc1 ddf5 0fc1 940c 10c1
00000130: e0f7 0fc1 5623 10c1 6200 10c1 006c 10c1
00000140: 943c 10c1 6f47 10c1 050d 10c1 69f6 0fc1
00000150: 68c8 0fc1 5b09 10c1 331a 10c1 1cf2 0fc1
00000160: 6a24 10c1 7bbf 0fc1 d02e 10c1 f110 10c1
00000170: ebf0 0fc1 853d 10c1 ea12 10c1 2416 10c1
00000180: 86c9 0fc1 f8f6 0fc1 e1f0 0fc1 88ea 0fc1
00000190: f9ea 0fc1 6f24 10c1 76bc 0fc1 1ae4 0fc1
000001a0: 425e 10c1 9649 10c1 c46f 10c1 f539 10c1
000001b0: 79f0 0fc1 adef 0fc1 e921 10c1 3605 10c1
000001c0: 38d5 0fc1 4f2a 10c1 fa12 10c1 a72a 10c1
000001d0: 01c1 0fc1 a7e5 0fc1 9131 10c1 8403 10c1
000001e0: 39fb 0fc1 dfb9 0fc1 efe2 0fc1 9a19 10c1
000001f0: 95d7 0fc1 0efb 0fc1 eee1 0fc1 6a1c 10c1
00000200: 2c2c 10c1 3db6 0fc1 a439 10c1 e60d 10c1
00000210: 37ee 0fc1 1220 10c1 b23a 10c1 5224 10c1
00000220: b2ef 0fc1 f5c5 0fc1 872a 10c1 27eb 0fc1
00000230: 6902 10c1 0f37 10c1 e33a 10c1 7f0d 10c1
00000240: a333 10c1 03fd 0fc1 3201 10c1 230a 10c1
00000250: d40e 10c1 b10c 10c1 2667 10c1 2db5 0fc1
00000260: 3246 10c1 80b0 0fc1 0c09 10c1 3528 10c1
00000270: 8b09 10c1 cb14 10c1 59eb 0fc1 a420 10c1
00000280: 4503 10c1 610f 10c1 950d 10c1 1df6 0fc1
00000290: 97f4 0fc1 2909 10c1 34e0 0fc1 82f1 0fc1
000002a0: b1df 0fc1 c741 10c1 1107 10c1 b2f9 0fc1
000002b0: 72de 0fc1 8de3 0fc1 60d6 0fc1 fafb 0fc1
000002c0: 9101 10c1 9d3b 10c1 bed3 0fc1 4409 10c1
000002d0: 4b1c 10c1 6df2 0fc1 7920 10c1 ecff 0fc1
000002e0: 43f6 0fc1 1718 10c1 3ff1 0fc1 323f 10c1
000002f0: e336 10c1 d81a 10c1 67f6 0fc1 c848 10c1
00000300: 5a21 10c1 125c 10c1 b9fa 0fc1 f227 10c1
00000310: c80c 10c1 cdd7 0fc1 d108 10c1 7959 10c1

fc2.bias_mu f4 [20]
0.047593787 -0.04475522 0.06882617 -0.057252914 -0.0029945662 0.05213511 0.014139083 -0.05016806
-0.046522126 -0.011627678 -0.051836606 -0.011117141 -0.04501583 -0.04174198 0.071883984 -0.05561658
0.020087987 0.024504565 -0.029431207 0.046245612
00000000: b4f1 423d 4051 37bd bcf4 8c3d 0882 6abd
00000010: 7c40 44bb a08b 553d 9da7 673c 067d 4dbd
00000020: fc8d 3ebd 0482 3ebc 9f52 54bd ab24 36bc
00000030: 8562 38bd a3f9 2abd e937 933d 36ce 63bd
00000040: 908f a43c ccbd c83c b719 f1bc 0a6c 3d3d

fc2.bias_logvar f4 [20]
-8.996179 -9.006946 -8.996955 -9.002098 -8.991472 -8.99838 -9.007695 -8.984684
-9.010936 -8.990949 -8.999225 -8.995201 -9.005585 -9.004291 -9.004283 -9.012346
-8.990369 -8.997102 -9.000771 -8.997732
00000000: 59f0 0fc1 731c 10c1 87f3 0fc1 9808 10c1
00000010: 12dd 0fc1 5df9 0fc1 851f 10c1 44c1 0fc1
00000020: cb2c 10c1 edda 0fc1 d3fc 0fc1 58ec 0fc1
00000030: e016 10c1 9311 10c1 8b11 10c1 9232 10c1
00000040: 8dd8 0fc1 21f4 0fc1 2803 10c1 b6f6 0fc1

fc3.dropout_mu f4 [20]
1.0237299 0.9436097 1.0760103 0.9468735 1.0329552 1.0628837 1.0100057 0.9589108
0.9578905 1.0200759 0.9499125 0.99717426 0.9454732 0.9477773 1.0800457 0.96253353
1.0443614 0.9859739 0.96998507 1.0587155
00000000: 9509 833f 6890 713f b5ba 893f 4d66 723f
00000010: e037 843f 930c 883f de47 813f 2e7b 753f
00000020: 5038 753f d991 823f 772d 733f d046 7f3f
00000030: 880a 723f 88a1 723f f03e 8a3f 9968 763f
00000040: a2ad 853f c968 7c3f f150 783f fd83 873f

fc3.dropout_logvar f4 [20]
-9.013154 -9.000299 -9.002924 -8.995714 -9.005647 -8.9943905 -8.995577 -9.000321
-8.985368 -8.991728 -8.994581 -8.999706 -8.992741 -9.006065 -8.997735 -9.000611
-8.991313 -8.992805 -9.000228 -8.98869
00000000: e135 10c1 3a01 10c1 fa0b 10c1 72ee 0fc1
00000010: 2117 10c1 06e9 0fc1 e2ed 0fc1 5101 10c1
00000020: 11c4 0fc1 1ede 0fc1 cee9 0fc1 ccfe 0fc1
00000030: 44e2 0fc1 d818 10c1 b9f6 0fc1 8102 10c1
00000040: 6bdc 0fc1 87e2 0fc1 ef00 10c1 add1 0fc1

fc3.weight_mu f4 [1, 20]
-0.18075494 0.16187552 -0.064891 -0.06736395 -0.28456753 -0.09155759 0.14978321 0.21665989
0.062166885 0.06446773 0.29979047 0.32390478 0.10241878 0.4189051 -0.15836872 -0.25158697
0.11313556 -0.044122133 0.1976463 -0.22289084
00000000: d317 39be b2c2 253e 93e5 84bd 1cf6 89bd
00000010: d6b2 91be 8c82 bbbd c560 193e 17dc 5d3e
00000020: b4a2 7e3d a807 843d 237e 993e d9d6 a53e
00000030: f0c0 d13d bb7a d63e 692b 22be 02d0 80be
00000040: 9eb3 e73d 69b9 34bd cb63 4a3e 7f3d 64be

fc3.weight_logvar f4 [1, 20]
-9.015031 -9.010332 -8.995316 -8.98687 -8.986315 -9.004076 -8.985346 -9.001072
-9.005943 -9.006096 -9.001425 -9.01017 -9.006957 -8.98109 -8.98236 -9.009344
-9.016637 -9.008644 -8.990075 -8.9990225
00000000: 913d 10c1 522a 10c1 d0ec 0fc1 38ca 0fc1
00000010: f2c7 0fc1 b210 10c1 fac3 0fc1 6404 10c1
00000020: 5818 10c1 f818 10c1 d605 10c1 a829 10c1
00000030: 7f1c 10c1 8bb2 0fc1 bfb7 0fc1 4626 10c1
00000040: 2544 10c1 6823 10c1 59d7 0fc1 fffb 0fc1
