trainedModels/simple_model.pth (torch, 7763 bytes, 16 tensors)

fc1.dropout_mu f4 [4]
0	0x3fa4ee48	1.2885218
1	0x3f365f0c	0.7123878
2	0x3f72cea5	0.94846565
3	0x3f364fd3	0.7121555

fc1.dropout_logvar f4 [4]
0	0xc109ebf3	-8.620105
1	0xc10a0939	-8.627252
2	0xc10a4cec	-8.64378
3	0xc109c371	-8.610215

fc1.weight_mu f4 [10, 4]
0	0xbf80b242	-1.00544
1	0x3d2e845c	0.042606696
2	0x3e86c8ce	0.26325077
3	0x3dc64004	0.09680179
4	0x3f330fe9	0.6994615
5	0x3e183455	0.14863713
6	0xbed9a8df	-0.4251165
7	0x3f0276a9	0.5096231
8	0xba70f791	-0.00091921637
9	0x3ecb0391	0.39651158
10	0xbfa569bb	-1.2922891
11	0x3e6b8b84	0.2300244
12	0x3f306ad9	0.68913037
13	0xbebd977a	-0.3702963
14	0x3f460b0d	0.7736061
15	0xbf201667	-0.62534183
16	0xbc92650c	-0.017870449
17	0xbe8c1df9	-0.27366617
18	0x3ec08bf4	0.37606776
19	0x3dcdadae	0.100428924
20	0xbf756673	-0.9585945
21	0xbd98a70b	-0.07453736
22	0x3e105e6d	0.1409852
23	0x3e3b7289	0.1830541
24	0xbea60683	-0.32426843
25	0xbf80c2fe	-1.0059507
26	0x3ec455b3	0.38346633
27	0x3f3b7e75	0.73239833
28	0xbed25a97	-0.4108474
29	0x3d8204aa	0.06348546
30	0x3eb3b1f1	0.35096696
31	0x3dc04ff0	0.09390247
32	0xbd20de4b	-0.039274495
33	0x3e8aa8a7	0.27081797
34	0x3f1b31bf	0.6062278
35	0x3d9d00ce	0.07666169
36	0x3f087a8f	0.5331201
37	0xbf5dd870	-0.8665838
38	0x3ef626fd	0.4807662
39	0xbe0c035f	-0.13673161

fc1.weight_logvar f4 [10, 4]
0	0xc10974b2	-8.59099
1	0xc10a1a9e	-8.631498
2	0xc10a3a2e	-8.639204
3	0xc109df47	-8.617011
4	0xc10a43f5	-8.641591
5	0xc109f001	-8.621095
6	0xc109ee52	-8.620684
7	0xc10a0f44	-8.628727
8	0xc10a22c8	-8.6334915
9	0xc109d4ed	-8.614484
10	0xc10a025e	-8.625578
11	0xc109f70d	-8.622815
12	0xc109fa08	-8.623543
13	0xc10a226e	-8.633406
14	0xc109fd28	-8.624306
15	0xc10a1484	-8.630009
16	0xc10a782d	-8.65434
17	0xc10a0f9e	-8.628813
18	0xc10a2d16	-8.636007
19	0xc10a2195	-8.633199
20	0xc10a2be4	-8.6357155
21	0xc109f438	-8.622124
22	0xc109ac93	-8.604632
23	0xc109d83b	-8.615291
24	0xc10a0b7f	-8.627807
25	0xc10a035f	-8.625823
26	0xc109e40f	-8.618178
27	0xc10a1127	-8.629188
28	0xc10a1104	-8.629154
29	0xc10a1656	-8.630453
30	0xc10a1be1	-8.631806
31	0xc109c375	-8.610219
32	0xc10a4201	-8.641114
33	0xc10a5196	-8.644918
34	0xc10a11a2	-8.629305
35	0xc10a46c5	-8.642278
36	0xc10a1a1d	-8.631375
37	0xc109fde0	-8.624481
38	0xc109f230	-8.621628
39	0xc10a6a11	-8.650895

fc1.bias_mu f4 [10]
0	0xbe211947	-0.15732299
1	0x3e4ccc9a	0.19999924
2	0x3ce2c63c	0.027682416
3	0x3e178d80	0.14800072
4	0xbe804e68	-0.2505982
5	0xbe63ca08	-0.22245038
6	0x3e893870	0.2680087
7	0xbe8e56f5	-0.27800718
8	0x3ebc5b5c	0.36788452
9	0xbe83f9ad	-0.25776425

fc1.bias_logvar f4 [10]
0	0xc10a3dec	-8.640118
1	0xc109f001	-8.621095
2	0xc109f2b4	-8.621754
3	0xc10a23ae	-8.633711
4	0xc10a385a	-8.638758
5	0xc109fa63	-8.62363
6	0xc10a37ee	-8.638655
7	0xc109fc30	-8.624069
8	0xc10a5833	-8.646533
9	0xc109ed20	-8.620392

fc2.dropout_mu f4 [10]
0	0x3f3671ce	0.712674
1	0x3f7e833c	0.99419
2	0x3f58f946	0.8475536
3	0x3f69af6f	0.91283315
4	0x3f37c36c	0.71782565
5	0x3f47a97f	0.77993006
6	0x3f9fc196	1.2480953
7	0x3f2ea832	0.68225396
8	0x3f461906	0.7738193
9	0x3f402210	0.75051975

fc2.dropout_logvar f4 [10]
0	0xc109fa2b	-8.623576
1	0xc10a3023	-8.636752
2	0xc10a244d	-8.6338625
3	0xc10a279c	-8.63467
4	0xc10a38ab	-8.638835
5	0xc10a484b	-8.64265
6	0xc109f08a	-8.621225
7	0xc10a0fb5	-8.628835
8	0xc109f2bb	-8.62176
9	0xc109fbc9	-8.623971

fc2.weight_mu f4 [20, 10]
0	0x3e463b1d	0.19358487
1	0xbe89a496	-0.26883382
2	0xbe1a1749	-0.15047945
3	0xbe19ed07	-0.15031825
4	0xbc7f40bb	-0.015579398
5	0x3e3e07e9	0.18557705
6	0x3e3febf0	0.18742347
7	0x3e1a078a	0.15041938
8	0xbd991ac2	-0.07475807
9	0x3ec774ca	0.3895629
10	0xbe618f40	-0.22027302
11	0x3eb070ed	0.34461156
12	0xbf085fb5	-0.5327104
13	0xbe7ce41d	-0.24696393
14	0x3eb0cca8	0.3453114
15	0xbbe4420c	-0.006965881
16	0xbe063c6c	-0.13108987
17	0x3de1f19d	0.11032412
18	0x3e029b0f	0.12754463
19	0x3d90745b	0.07053443
20	0xbcb833b2	-0.022485588
21	0x3d91d073	0.07119837
22	0x3d3ec429	0.04657379
23	0xbe5cc24f	-0.21558498
24	0xbef4f07f	-0.47839734
25	0x3ebbe887	0.36700842
26	0x3dbf5fea	0.09344466
27	0xbe6ef444	-0.23335367
28	0xbe94199c	-0.28925788
29	0x3da3caab	0.0799764
30	0xbeca6cbd	-0.39536086
31	0xbf56e72e	-0.839465
32	0xbf159ce9	-0.5844255
33	0x3b03ad01	0.0020092132
34	0xbdfe9418	-0.124305904
35	0xbf432dd6	-0.76241815
36	0x3d337fd0	0.043823063
37	0xbe01cc86	-0.12675676
38	0x3ddd3c1e	0.10802482
39	0xbe978b5c	-0.2959851
40	0x3e9f1dfe	0.3107757
41	0xbf11497e	-0.56752765
42	0x3e7ace38	0.24492729
43	0xbf75e0d8	-0.9604621
44	0xbe4b5d9e	-0.19859931
45	0xbcd77516	-0.026300948
46	0xbe98f6eb	-0.29875883
47	0xbcefa02e	-0.029251184
48	0xbe6e92d8	-0.23298204
49	0xbec0284d	-0.37530747
50	0x3ebf8a64	0.3741027
51	0xbecb70c8	-0.39734483
52	0x3e062df7	0.13103472
53	0x3d953a43	0.07286503
54	0x3caa2f62	0.020774547
55	0x3eee28c5	0.4651548
56	0xbce67949	-0.028134005
57	0xbefb9918	-0.4914024
58	0x3e530e1c	0.20610851
59	0xbdfc6248	-0.12323433
60	0xbeff3653	-0.49846134
61	0x3e997818	0.29974437
62	0x3eb816c0	0.35954857
63	0xbf12669c	-0.5718782
64	0x3ec88361	0.39162734
65	0xbec64f94	-0.38732588
66	0xbef00076	-0.46875352
67	0x3e1f612c	0.15564412
68	0xbd1cb4cd	-0.038258363
69	0x3e2f1e42	0.17101386
70	0x3e9f59c1	0.31123164
71	0xbceb9c34	-0.028761007
72	0xbedc7c3a	-0.43063527
73	0xbed5b062	-0.41736132
74	0x3d1456f2	0.03621573
75	0xbeb557a2	-0.3541842
76	0xbebfb47e	-0.37442392
77	0xbd910a7f	-0.0708208
78	0x3e97f58c	0.29679525
79	0x3d7d3454	0.061817482
80	0x3e7f2036	0.24914631
81	0x3f435e58	0.7631583
82	0x3e05a931	0.13052823
83	0xbec4bbc4	-0.38424504
84	0xbece1fd5	-0.4025866
85	0xbd393d2f	-0.045224365
86	0x3d1e2a0d	0.03861432
87	0x3e7512b2	0.23932913
88	0xbd96c4cc	-0.07361755
89	0x3d3104f7	0.043217625
90	0xbee416fc	-0.44548786
91	0x3f2a93c7	0.6663174
92	0x3e850599	0.25980833
93	0x3e2eb61b	0.17061655
94	0xbe231865	-0.15927275
95	0xbd77151a	-0.06032286
96	0x3ea93862	0.3305083
97	0x3dc7e436	0.09760325
98	0x3d27a660	0.040930152
99	0x3db7a7de	0.08967565
100	0xbf140f43	-0.5783579
101	0xbe827fa5	-0.2548801
102	0xbef60cef	-0.48056743
103	0xbe9f9a6d	-0.31172505
104	0xbf4aea55	-0.7926381
105	0xbe57062e	-0.20998451
106	0xbeccaea9	-0.39977005
107	0xbdd9231d	-0.106024005
108	0x3c6d11b3	0.014469552
109	0x3d221938	0.03957483
110	0xbe28be41	-0.16478826
111	0xbd829e78	-0.06377882
112	0xbeae94f8	-0.3409803
113	0x3ea8a9ee	0.32942146
114	0x3f1c78db	0.6112191
115	0xbd76c1d3	-0.06024344
116	0x3ed82ba2	0.4222079
117	0x3e2c5107	0.16827784
118	0x3f437f46	0.7636608
119	0xbd1a5dbf	-0.03768706
120	0xbe18c948	-0.14920533
121	0xbecee6bb	-0.40410408
122	0xbee20685	-0.441456
123	0xbd926adc	-0.07149288
124	0x3dee2567	0.11628228
125	0xbeb342cc	-0.350119
126	0xbede7c1a	-0.43454057
127	0xbeb1dac1	-0.34737208
128	0xbe21f510	-0.1581614
129	0x3d3cb4fe	0.046071045
130	0xbec9a00c	-0.3937992
131	0xbe4dc9a4	-0.20096451
132	0xbf05b5e4	-0.5223067
133	0x3e8e076a	0.2774003
134	0xbf21c117	-0.63185257
135	0xbdca04cc	-0.09864196
136	0xbf4c01b1	-0.7969008
137	0x3f13baaf	0.5770673
138	0x3d6305e1	0.05542553
139	0x3f031f5e	0.5121974
140	0xbe87e7ab	-0.26543936
141	0x3d82b68a	0.06382473
142	0xbeb87482	-0.36026388
143	0xbe91d22a	-0.28480655
144	0xbdb33397	-0.08750074
145	0x3dc0a126	0.094057366
146	0xbf192074	-0.59815145
147	0xbe865362	-0.2623549
148	0xbf44547e	-0.76691425
149	0x3e94742f	0.2899489
150	0x3e7bee26	0.24602565
151	0xbdb8a786	-0.090163276
152	0xbf258bdb	-0.6466653
153	0xbede4ab9	-0.43416384
154	0xbe91ae72	-0.28453404
155	0x3d2b5299	0.04182682
156	0xbec8b7c8	-0.39202714
157	0x3e47964f	0.19490932
158	0x3e8070b6	0.25085992
159	0xbe62fcb1	-0.22166707
160	0xbe8baea5	-0.2728168
161	0xbe04b93d	-0.12961288
162	0xbed9d989	-0.4254878
163	0x3e1f9cc4	0.15587145
164	0x3e810e88	0.252064
165	0xbe7a4130	-0.2443893
166	0xbeb1befd	-0.34716025
167	0xbe0a1616	-0.13484988
168	0x3eab4571	0.33451417
169	0xbebb82f3	-0.36623344
170	0x3ee90b88	0.4551661
171	0xbe2949ce	-0.1653206
172	0x3e67b7eb	0.22628753
173	0xbe1ae38a	-0.15125862
174	0x3eb0baf4	0.34517634
175	0x3f03b0b0	0.5144148
176	0xbec9178e	-0.39275783
177	0xbdce9267	-0.10086518
178	0xbe0f293c	-0.13980573
179	0xbf06bbc2	-0.52630246
180	0xbe93b756	-0.28850812
181	0x3f06cf7f	0.52660364
182	0x3e36439f	0.17799233
183	0x3eaabce7	0.33347246
184	0xbc39396b	-0.011305193
185	0xbe948bbd	-0.29012862
186	0x3e8d20c0	0.2756405
187	0x3e8ff24e	0.2811455
188	0x3f1303b7	0.57427543
189	0xbd624445	-0.05524089
190	0x3f36d949	0.714253
191	0xbe2143d6	-0.15748534
192	0x3e403d7d	0.18773456
193	0xbf39ae9a	-0.72532046
194	0xbe8a5c1d	-0.27023402
195	0x3f158a88	0.58414507
196	0xbe894e24	-0.2681743
197	0xbe5c5d0f	-0.21519874
198	0xbecf952e	-0.40543503
199	0xbe8c3c11	-0.27389577

fc2.weight_logvar f4 [20, 10]
0	0xc10a39de	-8.639128
1	0xc10a482d	-8.642621
2	0xc109e9f7	-8.61962
3	0xc109feca	-8.624704
4	0xc10a772b	-8.654094
5	0xc109fa70	-8.623642
6	0xc109fc41	-8.624085
7	0xc109ef4f	-8.620925
8	0xc109dcfd	-8.616452
9	0xc10a63f3	-8.649402
10	0xc109fb0c	-8.623791
11	0xc10a386b	-8.638774
12	0xc109fee6	-8.624731
13	0xc109fd1f	-8.624297
14	0xc10a11d7	-8.629355
15	0xc109d857	-8.615317
16	0xc10a20a2	-8.632967
17	0xc109e0f3	-8.617419
18	0xc109cceb	-8.612529
19	0xc109d9c9	-8.61567
20	0xc10a14cf	-8.63008
21	0xc10a2119	-8.6330805
22	0xc10a25e7	-8.6342535
23	0xc10a5825	-8.64652
24	0xc10a2abf	-8.635436
25	0xc10a0bb0	-8.627853
26	0xc109e84f	-8.619216
27	0xc10a38d8	-8.638878
28	0xc10a3708	-8.638435
29	0xc10a7169	-8.652688
30	0xc10a558f	-8.645888
31	0xc109fbd8	-8.623985
32	0xc10a0dc0	-8.628357
33	0xc109dda9	-8.616616
34	0xc10a60f5	-8.648671
35	0xc109da13	-8.615741
36	0xc10a1dba	-8.632257
37	0xc10a3f7c	-8.640499
38	0xc10a2c6d	-8.635846
39	0xc10a258b	-8.634166
40	0xc10a0fca	-8.628855
41	0xc10a0b15	-8.627706
42	0xc10a23e3	-8.633761
43	0xc10a17d0	-8.630814
44	0xc10a113f	-8.62921
45	0xc109d2a6	-8.613928
46	0xc10a6e45	-8.651921
47	0xc10a0c89	-8.62806
48	0xc10a7cff	-8.655517
49	0xc10a08fa	-8.627192
50	0xc10a35db	-8.638148
51	0xc10a2fd9	-8.636682
52	0xc109fc2a	-8.6240635
53	0xc10a097f	-8.627318
54	0xc10a063c	-8.626522
55	0xc109f7e6	-8.623022
56	0xc10a2050	-8.632889
57	0xc10a597b	-8.646846
58	0xc109bb36	-8.608206
59	0xc109ddd1	-8.616654
60	0xc109d38b	-8.614146
61	0xc10a305f	-8.636809
62	0xc10a12d2	-8.629595
63	0xc109ff71	-8.624864
64	0xc10a0c30	-8.627975
65	0xc109fb45	-8.623845
66	0xc10a5647	-8.646064
67	0xc109fdb6	-8.624441
68	0xc10a17a6	-8.630774
69	0xc10a1053	-8.628985
70	0xc10a2194	-8.633198
71	0xc10a4329	-8.6413965
72	0xc10a134b	-8.62971
73	0xc109caa5	-8.611974
74	0xc10a03a4	-8.625889
75	0xc10a1a5b	-8.631434
76	0xc10a05a7	-8.62638
77	0xc10a311d	-8.636991
78	0xc10a0e29	-8.628457
79	0xc10a79c5	-8.654729
80	0xc10a4a5a	-8.643152
81	0xc10a5535	-8.6458025
82	0xc10a1acc	-8.631542
83	0xc10a0430	-8.626022
84	0xc109d62d	-8.614789
85	0xc10a1722	-8.630648
86	0xc10a27fa	-8.63476
87	0xc109ffe3	-8.624972
88	0xc10a3231	-8.637254
89	0xc109cd41	-8.612611
90	0xc10a3c97	-8.639792
91	0xc10a1eb8	-8.6325
92	0xc109feb2	-8.624681
93	0xc10a4b4b	-8.643382
94	0xc10a20b1	-8.632981
95	0xc10a23eb	-8.633769
96	0xc109d74b	-8.615062
97	0xc10a04bf	-8.626159
98	0xc109fea8	-8.624672
99	0xc109f84e	-8.623121
100	0xc109f8c0	-8.62323
101	0xc10a3236	-8.637259
102	0xc109ca3b	-8.611873
103	0xc109f1e0	-8.6215515
104	0xc10a6c07	-8.651374
105	0xc10a575b	-8.646327
106	0xc10a7d89	-8.655648
107	0xc10a47bb	-8.642512
108	0xc109fe40	-8.624573
109	0xc109fd74	-8.624378
110	0xc10a2fb0	-8.636642
111	0xc10a12fd	-8.629636
112	0xc109e2fd	-8.617917
113	0xc10a3816	-8.638693
114	0xc10a20c1	-8.632997
115	0xc10a386e	-8.638777
116	0xc109cec6	-8.612982
117	0xc109f36e	-8.621931
118	0xc10a3f58	-8.640465
119	0xc10a114b	-8.629222
120	0xc10a0900	-8.627197
121	0xc109c7a4	-8.61124
122	0xc109f0b4	-8.621265
123	0xc10a2761	-8.634614
124	0xc109e55b	-8.618495
125	0xc10a08d5	-8.627156
126	0xc109efb3	-8.62102
127	0xc10a2a31	-8.635301
128	0xc10a39f3	-8.639148
129	0xc109c402	-8.610353
130	0xc10a476b	-8.642436
131	0xc10a1bad	-8.631757
132	0xc109fbfe	-8.624022
133	0xc10a2dd9	-8.636193
134	0xc10a4879	-8.6426935
135	0xc10a3219	-8.637231
136	0xc109fd79	-8.624383
137	0xc109d3bc	-8.614193
138	0xc10a384e	-8.638746
139	0xc109f8ee	-8.623274
140	0xc10a1030	-8.628952
141	0xc10a44d6	-8.641806
142	0xc10a48a9	-8.642739
143	0xc10a1b46	-8.631659
144	0xc10a4169	-8.640969
145	0xc10a0aca	-8.627634
146	0xc10a0ef9	-8.628655
147	0xc10a17ea	-8.630838
148	0xc10a1c9b	-8.631984
149	0xc10a1a78	-8.631462
150	0xc10a74eb	-8.653544
151	0xc109c2f2	-8.610094
152	0xc10a53f7	-8.645499
153	0xc109be45	-8.6089525
154	0xc10a16d3	-8.630572
155	0xc10a35fc	-8.63818
156	0xc10a1752	-8.630693
157	0xc10a2292	-8.63344
158	0xc109f920	-8.623322
159	0xc10a2e6b	-8.6363325
160	0xc10a110c	-8.629162
161	0xc10a1d28	-8.632118
162	0xc10a1b5c	-8.63168
163	0xc10a03e4	-8.62595
164	0xc10a025e	-8.625578
165	0xc10a16f0	-8.6306
166	0xc109edf9	-8.620599
167	0xc109ff49	-8.6248255
168	0xc109ed76	-8.620474
169	0xc10a4f8c	-8.644421
170	0xc10a14d8	-8.630089
171	0xc10a0779	-8.626824
172	0xc109ec37	-8.62017
173	0xc109f153	-8.621417
174	0xc109e425	-8.618199
175	0xc10a09c1	-8.627381
176	0xc10a0f58	-8.628746
177	0xc10a4963	-8.642917
178	0xc109e183	-8.617557
179	0xc10a170b	-8.630626
180	0xc10a2a12	-8.635271
181	0xc10a0034	-8.62505
182	0xc10a2e40	-8.6362915
183	0xc10a0db3	-8.628345
184	0xc10a040a	-8.625986
185	0xc10a25de	-8.634245
186	0xc109ff06	-8.624762
187	0xc10a4cf7	-8.64379
188	0xc10a44aa	-8.641764
189	0xc10a289f	-8.634917
190	0xc10a042e	-8.62602
191	0xc10a568d	-8.646131
192	0xc10a2f21	-8.636506
193	0xc10a69d7	-8.65084
194	0xc10a0880	-8.627075
195	0xc10a35b9	-8.638116
196	0xc10a1a8f	-8.631484
197	0xc109e593	-8.618548
198	0xc10a1698	-8.630516
199	0xc10a673e	-8.650206

fc2.bias_mu f4 [20]
0	0x3e46c622	0.19411519
1	0xbe7e7491	-0.24849154
2	0xbe361035	-0.1777962
3	0xbe9edd70	-0.31028318
4	0x3def749a	0.11692162
5	0xbd49a744	-0.049231783
6	0xbdcdc378	-0.10047048
7	0xbe8daee4	-0.27672493
8	0xbe8b5643	-0.2721425
9	0x3e7b84bf	0.24562357
10	0xbe8aa70a	-0.27080566
11	0x3e62f4d8	0.22163713
12	0xbe8336e0	-0.25627804
13	0xbe39bb32	-0.18137816
14	0xbde8a809	-0.11360175
15	0xbe7f60c5	-0.24939258
16	0xbd0b4f6e	-0.034011297
17	0x3df379a2	0.11888434
18	0x3e375e45	0.17907055
19	0x3e67f33a	0.22651377

fc2.bias_logvar f4 [20]
0	0xc109fe20	-8.624542
1	0xc10a2a3a	-8.635309
2	0xc10a014e	-8.625319
3	0xc10a165f	-8.630462
4	0xc109ead7	-8.619834
5	0xc10a0724	-8.626743
6	0xc10a2d4c	-8.636059
7	0xc109cf09	-8.613046
8	0xc10a3a92	-8.639299
9	0xc109e8b3	-8.619311
10	0xc10a0a9a	-8.627588
11	0xc109fa1f	-8.623565
12	0xc10a24a7	-8.633948
13	0xc10a1f5a	-8.632654
14	0xc10a1f52	-8.632647
15	0xc10a4059	-8.64071
16	0xc109e653	-8.6187315
17	0xc10a01e8	-8.625465
18	0xc10a10ef	-8.629134
19	0xc10a047d	-8.626096

fc3.dropout_mu f4 [20]
0	0x3f41d08e	0.75708854
1	0x3f392f90	0.723382
2	0x3f47ea86	0.7809223
3	0x3f34caaf	0.7062177
4	0x3f7be817	0.98401016
5	0x3f54ecf2	0.8317405
6	0x3f50aace	0.8151063
7	0x3f3917d6	0.72301996
8	0x3f3aa291	0.72904307
9	0x3f6ba499	0.9204803
10	0x3f36d012	0.7141124
11	0x3f622092	0.8833095
12	0x3f381e76	0.7192148
13	0x3f3ea413	0.7446911
14	0x3f556b0b	0.8336646
15	0x3f3cc68e	0.7374047
16	0x3f39f5b2	0.72640526
17	0x3f46eb42	0.77702725
18	0x3f560cf9	0.83613545
19	0x3fa4d2ed	1.287687

fc3.dropout_logvar f4 [20]
0	0xc10a43a8	-8.641518
1	0xc10a0f04	-8.628666
2	0xc10a19c1	-8.631288
3	0xc109fc3c	-8.624081
4	0xc10a24e7	-8.634009
5	0xc109f6cc	-8.622753
6	0xc109fba8	-8.6239395
7	0xc10a0f1b	-8.628688
8	0xc109d1db	-8.613734
9	0xc109ebe4	-8.6200905
10	0xc109f798	-8.622948
11	0xc10a0c92	-8.628069
12	0xc109f00e	-8.621107
13	0xc10a26a1	-8.634431
14	0xc10a047f	-8.626098
15	0xc10a104a	-8.628977
16	0xc109ea34	-8.6196785
17	0xc109f04e	-8.621168
18	0xc10a0eb5	-8.628591
19	0xc109df73	-8.617053

fc3.weight_mu f4 [1, 20]
0	0x3dae3152	0.08505501
1	0xbd66c95d	-0.05634438
2	0x3da58188	0.08081347
3	0x3e1cdb2f	0.15317987
4	0xbea37882	-0.31927878
5	0x3c0aafb7	0.008464745
6	0x3d619146	0.055070184
7	0xbcab3f16	-0.020904105
8	0xbe102051	-0.14074828
9	0x3e2c49f5	0.16825087
10	0x3d8dc988	0.06923205
11	0x3e7cf3a5	0.24702318
12	0xbded1322	-0.11575915
13	0x3e60dd36	0.21959385
14	0x3c49bd8e	0.01231326
15	0xbd0e86e9	-0.03479663
16	0xbe683bfb	-0.2267913
17	0xbdbddd08	-0.09270674
18	0x3e236da0	0.15959787
19	0xbeebbc67	-0.46042177

fc3.weight_logvar f4 [1, 20]
0	0xc10a4b57	-8.6433935
1	0xc10a3819	-8.638696
2	0xc109fa97	-8.623679
3	0xc109d7fd	-8.6152315
4	0xc109d5b9	-8.614678
5	0xc10a1e79	-8.63244
6	0xc109d1bf	-8.613708
7	0xc10a122b	-8.629436
8	0xc10a261f	-8.634307
9	0xc10a26bf	-8.6344595
10	0xc10a139d	-8.629788
11	0xc10a376f	-8.638534
12	0xc10a2a46	-8.635321
13	0xc109c050	-8.609451
14	0xc109c584	-8.610722
15	0xc10a340d	-8.637708
16	0xc10a51ec	-8.645
17	0xc10a312f	-8.637008
18	0xc109e51f	-8.618438
19	0xc10a09c6	-8.627386
