trainedModels/simple_model.pth (torch, 8403 bytes, 18 tensors)

fc1.dropout_mu f4 [4]
1.3184321 1.0064497 1.2784282 1.0503198
00000000: 62c2 a83f 58d3 803f 89a3 a33f e170 863f

fc1.dropout_logvar f4 [4]
-8.991742 -8.998885 -9.015417 -8.98185
00000000: 2dde 0fc1 6ffb 0fc1 263f 10c1 a8b5 0fc1

fc1.weight_mu f4 [10, 4]
-1.0076052 0.14157958 0.40795314 0.017870884 0.6805538 -0.11367018 -0.541217 0.33110514
-0.05781343 0.6709502 -1.3092449 0.022257775 0.56149805 -0.59524786 0.7828678 -0.7257935
0.072495475 -0.35483658 0.73617107 0.029292494 -1.0168827 -0.38673705 0.20133351 0.01986103
0.19736037 -0.9130126 0.2877736 0.7942701 -0.23276366 0.2936027 0.53145736 0.51111495
0.31366783 0.47274706 0.6429737 0.5773232 0.32046798 -1.0655097 0.19546871 -0.4225268
00000000: 35f9 80bf 3dfa 103e 3cdf d03e f665 923c
00000010: c638 2e3f e9cb e8bd 338d 0abf 9d86 a93e
00000020: c6cd 6cbd 64c3 2b3f 5695 a7bf f055 b63c
00000030: 56be 0f3f 2a62 18bf 066a 483f 9acd 39bf
00000040: 8278 943d 24ad b5be b575 3c3f d0f6 ef3c
00000050: 3629 82bf 6602 c6be 5f2a 4e3e 99b3 a23c
00000060: d618 4a3e 32bb 69bf 1057 933e 4955 4b3f
00000070: 9959 6ebe 1853 963e 970d 083f 6ed8 023f
00000080: 1299 a03e e70b f23e ed99 243f 74cb 133f
00000090: 6114 a43e 9f62 88bf f328 483e 6f55 d8be

fc1.weight_logvar f4 [10, 4]
-8.962627 -9.003135 -9.01084 -8.988649 -9.013228 -8.992732 -8.992322 -9.000363
-9.005128 -8.98612 -8.997214 -8.994453 -8.995179 -9.005042 -8.995942 -9.001645
-9.025978 -9.000449 -9.007644 -9.004835 -9.007352 -8.99376 -8.976271 -8.986929
-8.999443 -8.997459 -8.989817 -9.000824 -9.000791 -9.0020895 -9.003443 -8.981857
-9.012752 -9.016557 -9.000941 -9.013915 -9.003012 -8.996119 -8.993264 -9.022533
00000000: ec66 0fc1 d70c 10c1 672c 10c1 82d1 0fc1
00000010: 2f36 10c1 3be2 0fc1 8de0 0fc1 7d01 10c1
00000020: 0115 10c1 26c7 0fc1 97f4 0fc1 48e9 0fc1
00000030: 41ec 0fc1 a714 10c1 61ef 0fc1 bd06 10c1
00000040: 686a 10c1 d701 10c1 4f1f 10c1 ce13 10c1
00000050: 1d1e 10c1 71e6 0fc1 ce9e 0fc1 76ca 0fc1
00000060: b8fd 0fc1 98f5 0fc1 4ad6 0fc1 6003 10c1
00000070: 3d03 10c1 8f08 10c1 1a0e 10c1 b0b5 0fc1
00000080: 3b34 10c1 d143 10c1 db03 10c1 ff38 10c1
00000090: 560c 10c1 1af0 0fc1 69e4 0fc1 4c5c 10c1

fc1.bias_mu f4 [10]
0.05075846 0.19982044 0.13967279 0.28722203 0.10653597 0.11230769 0.3339651 -0.19811156
0.5320633 -0.027792046
00000000: 1ae8 4f3d bb9d 4c3e 6206 0f3e c40e 933e
00000010: 882f da3d 9301 e63d 79fd aa3e c2dd 4abe
00000020: 4d35 083f 25ac e3bc

fc1.bias_logvar f4 [10]
-9.011754 -8.992733 -8.993391 -9.005347 -9.010394 -8.995266 -9.010291 -8.995706
-9.01817 -8.99203
00000000: 2530 10c1 3ce2 0fc1 eee4 0fc1 e715 10c1
00000010: 932a 10c1 9cec 0fc1 272a 10c1 69ee 0fc1
00000020: 6d4a 10c1 5bdf 0fc1

fc2.dropout_mu f4 [10]
1.1831241 1.1037151 1.1972371 1.2477955 1.1461332 1.3011965 1.2022536 0.9731582
1.3019292 0.96606076
00000000: 9c70 973f 8946 8d3f 113f 993f c3b7 9f3f
00000010: 7eb4 923f 9b8d a63f 72e3 993f e520 793f
00000020: 9ea5 a63f c24f 773f

fc2.dropout_logvar f4 [10]
-8.99521 -9.008389 -9.0055 -9.006306 -9.010469 -9.014286 -8.992863 -9.000468
-8.993397 -8.995606
00000000: 61ec 0fc1 5d22 10c1 8716 10c1 d419 10c1
00000010: e22a 10c1 843a 10c1 c4e2 0fc1 eb01 10c1
00000020: f4e4 0fc1 01ee 0fc1

fc2.weight_mu f4 [20, 10]
0.13754319 0.03295025 -0.55609745 -0.19951583 0.009127205 0.15544248 0.23795544 0.43969807
0.1289508 -0.021341681 -0.16457407 0.3411269 -0.6139605 -0.09575972 0.42794928 0.123505905
0.056312483 -0.5799524 -0.080138184 0.261073 -0.5384361 0.39229313 0.2715721 0.14958084
-0.15803869 0.03342208 0.19367951 0.1708108 0.047771037 0.32204083 -0.22290619 -0.32985377
-0.33217746 0.46918994 0.16360268 -0.9186932 0.12400221 0.057159293 0.50364906 -0.53420657
-0.09649614 -0.67686504 -0.13993473 -1.0836773 -0.19038077 -0.8233246 -0.7322156 0.24670778
0.10050493 -0.41863096 0.12861909 0.1216148 0.22876269 0.5395628 0.41900218 0.15579785
0.039859347 0.052217115 0.70608336 -0.028073572 -0.3546338 0.11095233 -0.046391036 -0.5216619
0.67777354 -0.32904032 -0.235625 0.5075137 0.26429087 -0.0027595693 0.6680969 0.36497083
-0.6269019 -0.06841013 0.32346576 0.003561341 -0.08875676 -0.4059407 0.00081685954 0.27203804
0.4613456 0.55110216 -0.31859145 -0.3754424 -0.17052467 0.14979945 0.38506988 -0.21008462
-0.2811039 0.04186272 0.006002552 0.4063752 -0.022319587 -0.21059348 -0.2142929 0.586639
-0.13630374 -0.17125994 -0.02311017 -0.17252205 -0.053033113 -0.3259579 -0.52645314 -0.5444843
-0.79884136 0.24876054 -0.4148644 0.31608477 -0.102257274 -0.00019053642 -0.32947594 0.3695994
-0.3564291 0.40358025 0.77737993 -0.12215958 0.51756406 -0.020106118 0.83959866 0.16762552
0.27877948 -0.2072322 -0.59150547 0.12247091 0.38396534 0.009653928 -0.2563131 -0.111813344
-0.3556364 0.20753421 -0.662307 0.052428342 -0.67364657 0.5403324 -0.4147651 -0.4879354
-0.5953667 0.17602237 0.020764964 0.77279663 -0.014501286 0.5894757 -0.3523747 0.22702944
0.31341442 0.13658907 -0.25781158 0.029832717 -0.1395864 0.6233765 -0.12967223 0.38893378
-0.45801896 -0.07616318 -0.20568074 -0.4174297 -0.078483626 0.4327604 0.6002303 0.11441492
-0.6475272 0.119566925 -0.36432222 -0.20960766 -0.120482825 -0.87494916 0.24624394 -0.42817363
0.31586182 -0.3883493 -0.061196312 -0.15378445 0.056015093 -0.21931213 0.47834373 -0.42239854
-0.380078 0.40917748 0.08652656 -0.9110711 -0.10090899 0.4826059 -0.30820632 0.34410316
-0.004881715 -0.07541121 0.48261586 0.064229764 0.2753866 0.09575125 0.79003686 -0.13052242
0.5954752 -0.59286934 0.021810343 0.6547555 -0.10787735 0.20378178 -0.18761517 0.11013878
00000000: 1fd8 0c3e d7f6 063d 675c 0ebf e14d 4cbe
00000010: 468a 153c 502c 1f3e 97aa 733e 1b20 e13e
00000020: ae0b 043e c0d4 aebc 1b86 28be 2fa8 ae3e
00000030: 842c 1dbf ac1d c4bd 2b1c db3e aaf0 fc3d
00000040: eba7 663d c377 14bf 7d1f a4bd 5cab 853e
00000050: f3d6 09bf a5da c83e 800b 8b3e b82b 193e
00000060: e5d4 21be 97e5 083d ec53 463e 07e9 2e3e
00000070: 90ab 433d 89e2 a43e 8541 64be 98e2 a8be
00000080: 2a13 aabe aa39 f03e 7687 273e 7a2f 6bbf
00000090: dff4 fd3d dd1f 6a3d 25ef 003f c3c1 08bf
000000a0: c59f c5bd 0747 2dbf 0d4b 0fbe f0b5 8abf
000000b0: 2df3 42be 67c5 52bf 7b72 3bbf f7a0 7c3e
000000c0: 87d5 cd3d cc56 d6be b9b4 033e 2e11 f93d
000000d0: c440 6a3e ca20 0a3f 7487 d63e 7989 1f3e
000000e0: 8e43 233d 9de1 553d e1c1 343f 8cfa e5bc
000000f0: 9092 b5be fa3a e33d 8704 3ebd a28b 05bf
00000100: 9182 2d3f f977 a8be ae47 71be 6bec 013f
00000110: 2251 873e e4d9 34bb 6608 2b3f 75dd ba3e
00000120: a57c 20bf 9c1a 8cbd 4e9d a53e 6365 693b
00000130: 1bc6 b5bd 76d7 cfbe 8422 563a 9248 8b3e
00000140: 7e35 ec3e 0815 0d3f 6b1e a3be fc39 c0be
00000150: 059e 2ebe 0765 193e e127 c53e 6c20 57be
00000160: daec 8fbe 3e78 2b3d 0eb1 c43b 6910 d03e
00000170: 91d7 b6bc d1a5 57be 996f 5bbe f92d 163f
00000180: 3593 0bbe c45e 2fbe 8a51 bdbc 9fa9 30be
00000190: 4039 59bd f4e3 a6be a2c5 06bf 5363 0bbf
000001a0: de80 4cbf 15bb 7e3e 1b69 d4be ddd5 a13e
000001b0: 436c d1bd bbca 47b9 12b1 a8be 223c bd3e
000001c0: e07d b6be 12a2 ce3e 5f02 473f cd2e fabd
000001d0: 147f 043f 96b5 a4bc f0ef 563f 06a6 2b3e
000001e0: 2fbc 8e3e ae34 54be e76c 17bf 07d2 fa3d
000001f0: 1b97 c43e 822b 1e3c 783b 83be 65fe e4bd
00000200: f915 b6be d983 543e f48c 29bf 1abf 563d
00000210: 1a74 2cbf 3953 0a3f 175c d4be abd2 f9be
00000220: f469 18bf 353f 343e 491b aa3c 00d6 453f
00000230: cd96 6dbc e1e7 163f 756a b4be 687a 683e
00000240: db77 a03e 01de 0b3e e1ff 83be be63 f43c
00000250: bdef 0ebe 9a95 1f3f ccc8 04be 5422 c73e
00000260: 7681 eabe 71fb 9bbd f99d 52be 58b9 d5be
00000270: 06bc a0bd c592 dd3e b1a8 193f 5f52 ea3d
00000280: 58c4 25bf 81df f43d 7188 babe 64a3 56be
00000290: b3bf f6bd abfc 5fbf 5f27 7c3e 9339 dbbe
000002a0: a4b8 a13e b8d5 c6be fca8 7abd ac79 1dbe
000002b0: 1570 653d 5c93 60be 78e9 f43e 9f44 d8be
000002c0: 9599 c2be b67f d13e d634 b13d f53b 69bf
000002d0: 5fa9 cebd 1f18 f73e 38cd 9dbe 4a2e b03e
000002e0: cbf6 9fbb 3171 9abd 6d19 f73e e58a 833d
000002f0: 79ff 8c3e 3b19 c43d db3f 4a3f aba7 05be
00000300: 1071 183f 49c6 17bf 9bab b23c 0e9e 273f
00000310: cdee dcbd 2cac 503e 311e 40be 7190 e13d

fc2.weight_logvar f4 [20, 10]
-9.010764 -9.014257 -8.991258 -8.996341 -9.025732 -8.995278 -8.995722 -8.992562
-8.9880905 -9.02104 -8.995427 -9.01041 -8.996368 -8.995934 -9.000992 -8.986955
-9.004603 -8.989058 -8.984166 -8.9873085 -9.001717 -9.004717 -9.00589 -9.018157
-9.007072 -8.99949 -8.990853 -9.010514 -9.010072 -9.024326 -9.017527 -8.995622
-8.999993 -8.988255 -9.020309 -8.987378 -9.003894 -9.0121355 -9.007483 -9.005802
-9.000491 -8.999342 -9.005398 -9.00245 -9.000847 -8.985565 -9.02356 -8.999697
-9.027155 -8.998828 -9.009785 -9.008318 -8.9957 -8.998955 -8.998158 -8.994658
-9.004525 -9.018484 -8.979844 -8.988293 -8.985783 -9.008446 -9.001231 -8.9965
-8.999612 -8.9954815 -9.017702 -8.996078 -9.00241 -9.000622 -9.004834 -9.013034
-9.001347 -8.983611 -8.997525 -9.003071 -8.998016 -9.008627 -9.000093 -9.026367
-9.01479 -9.01744 -9.003179 -8.997659 -8.986427 -9.002284 -9.006396 -8.996609
-9.00889 -8.984248 -9.011429 -9.004136 -8.996318 -9.015019 -9.004618 -9.005405
-8.9867 -8.997795 -8.996308 -8.994759 -8.994866 -9.008895 -8.983511 -8.993189
-9.023012 -9.017965 -9.027287 -9.01415 -8.996209 -8.996015 -9.008279 -9.001272
-8.989555 -9.010329 -9.004633 -9.010413 -8.98462 -8.993567 -9.012101 -9.000858
-8.998834 -8.982879 -8.992904 -9.00625 -8.990132 -8.998793 -8.992659 -9.006937
-9.010784 -8.981992 -9.014072 -9.003393 -8.995658 -9.00783 -9.01433 -9.008867
-8.996019 -8.985829 -9.010383 -8.99491 -9.000588 -9.013442 -9.014377 -9.003295
-9.012607 -8.99927 -9.000292 -9.002475 -9.00362 -9.0030985 -9.025183 -8.981732
-9.017138 -8.980591 -9.002209 -9.009816 -9.00233 -9.005076 -8.994958 -9.007969
-9.000798 -9.003755 -9.003316 -8.997586 -8.997214 -9.002236 -8.992237 -8.996462
-8.992112 -9.016059 -9.001725 -8.998461 -8.991808 -8.993054 -8.989838 -8.999018
-9.000382 -9.014554 -8.989195 -9.002262 -9.006907 -8.996686 -9.007928 -8.999981
-8.9976225 -9.005881 -8.996398 -9.015429 -9.0134 -9.006554 -8.997657 -9.017769
-9.008142 -9.022478 -8.998712 -9.009752 -9.00312 -8.990186 -9.002152 -9.021844
00000000: 172c 10c1 663a 10c1 31dc 0fc1 03f1 0fc1
00000010: 6669 10c1 a9ec 0fc1 7aee 0fc1 89e1 0fc1
00000020: 38cf 0fc1 2e56 10c1 45ed 0fc1 a42a 10c1
00000030: 20f1 0fc1 58ef 0fc1 1004 10c1 91ca 0fc1
00000040: db12 10c1 2ed3 0fc1 25bf 0fc1 04cc 0fc1
00000050: 0807 10c1 5213 10c1 2018 10c1 5f4a 10c1
00000060: f81c 10c1 e9fd 0fc1 89da 0fc1 112b 10c1
00000070: 4129 10c1 a463 10c1 ca47 10c1 11ee 0fc1
00000080: f9ff 0fc1 e4cf 0fc1 3053 10c1 4dcc 0fc1
00000090: f30f 10c1 b531 10c1 a61e 10c1 c417 10c1
000000a0: 0302 10c1 4efd 0fc1 1c16 10c1 090a 10c1
000000b0: 7803 10c1 e0c4 0fc1 8060 10c1 c2fe 0fc1
000000c0: 3a6f 10c1 33fb 0fc1 1428 10c1 1222 10c1
000000d0: 63ee 0fc1 b8fb 0fc1 75f8 0fc1 1fea 0fc1
000000e0: 8912 10c1 b64b 10c1 71ad 0fc1 0cd0 0fc1
000000f0: c4c5 0fc1 9822 10c1 0b05 10c1 aaf1 0fc1
00000100: 69fe 0fc1 7eed 0fc1 8248 10c1 efef 0fc1
00000110: df09 10c1 8c02 10c1 cd13 10c1 6335 10c1
00000120: 8405 10c1 dfbc 0fc1 ddf5 0fc1 940c 10c1
00000130: e0f7 0fc1 5623 10c1 6200 10c1 006c 10c1
00000140: 943c 10c1 6f47 10c1 050d 10c1 69f6 0fc1
00000150: 68c8 0fc1 5b09 10c1 331a 10c1 1cf2 0fc1
00000160: 6a24 10c1 7bbf 0fc1 d02e 10c1 f110 10c1
00000170: ebf0 0fc1 853d 10c1 ea12 10c1 2416 10c1
00000180: 86c9 0fc1 f8f6 0fc1 e1f0 0fc1 88ea 0fc1
00000190: f9ea 0fc1 6f24 10c1 76bc 0fc1 1ae4 0fc1
000001a0: 425e 10c1 9649 10c1 c46f 10c1 f539 10c1
000001b0: 79f0 0fc1 adef 0fc1 e921 10c1 3605 10c1
000001c0: 38d5 0fc1 4f2a 10c1 fa12 10c1 a72a 10c1
000001d0: 01c1 0fc1 a7e5 0fc1 9131 10c1 8403 10c1
000001e0: 39fb 0fc1 dfb9 0fc1 efe2 0fc1 9a19 10c1
000001f0: 95d7 0fc1 0efb 0fc1 eee1 0fc1 6a1c 10c1
00000200: 2c2c 10c1 3db6 0fc1 a439 10c1 e60d 10c1
00000210: 37ee 0fc1 1220 10c1 b23a 10c1 5224 10c1
00000220: b2ef 0fc1 f5c5 0fc1 872a 10c1 27eb 0fc1
00000230: 6902 10c1 0f37 10c1 e33a 10c1 7f0d 10c1
00000240: a333 10c1 03fd 0fc1 3201 10c1 230a 10c1
00000250: d40e 10c1 b10c 10c1 2667 10c1 2db5 0fc1
00000260: 3246 10c1 80b0 0fc1 0c09 10c1 3528 10c1
00000270: 8b09 10c1 cb14 10c1 59eb 0fc1 a420 10c1
00000280: 4503 10c1 610f 10c1 950d 10c1 1df6 0fc1
00000290: 97f4 0fc1 2909 10c1 34e0 0fc1 82f1 0fc1
000002a0: b1df 0fc1 c741 10c1 1107 10c1 b2f9 0fc1
000002b0: 72de 0fc1 8de3 0fc1 60d6 0fc1 fafb 0fc1
000002c0: 9101 10c1 9d3b 10c1 bed3 0fc1 4409 10c1
000002d0: 4b1c 10c1 6df2 0fc1 7920 10c1 ecff 0fc1
000002e0: 43f6 0fc1 1718 10c1 3ff1 0fc1 323f 10c1
000002f0: e336 10c1 d81a 10c1 67f6 0fc1 c848 10c1
00000300: 5a21 10c1 125c 10c1 b9fa 0fc1 f227 10c1
00000310: c80c 10c1 cdd7 0fc1 d108 10c1 7959 10c1

fc2.bias_mu f4 [20]
0.20110352 -0.10669013 0.14917402 0.24003483 -0.2213869 0.29946506 -0.17908524 -0.019011378
-0.18659759 0.47985414 -0.04623288 0.166632 0.10245997 -0.09011463 0.5003084 -0.100347616
-0.30930638 -0.15305938 -0.034748442 0.17609853
00000000: 15ee 4d3e 5b80 dabd 13c1 183e b1cb 753e
00000010: 3fb3 62be 7c53 993e 1f62 37be c0bd 9bbc
00000020: 7013 3fbe 71af f53e b05e 3dbd 94a1 2a3e
00000030: 88d6 d13d 058e b8bd 3614 003f 0d83 cdbd
00000040: 685d 9ebe 99bb 1cbe 6254 0ebd 2c53 343e

fc2.bias_logvar f4 [20]
-8.996179 -9.006946 -8.996955 -9.002098 -8.991472 -8.99838 -9.007695 -8.984684
-9.010936 -8.990949 -8.999225 -8.995201 -9.005585 -9.004291 -9.004283 -9.012346
-8.990369 -8.997102 -9.000771 -8.997732
00000000: 59f0 0fc1 731c 10c1 87f3 0fc1 9808 10c1
00000010: 12dd 0fc1 5df9 0fc1 851f 10c1 44c1 0fc1
00000020: cb2c 10c1 edda 0fc1 d3fc 0fc1 58ec 0fc1
00000030: e016 10c1 9311 10c1 8b11 10c1 9232 10c1
00000040: 8dd8 0fc1 21f4 0fc1 2803 10c1 b6f6 0fc1

fc3.dropout_mu f4 [20]
1.5728283 1.2607476 1.6277928 1.6788125 1.0483282 1.6781043 1.4397527 1.3024125
1.4326998 1.825974 1.4164649 2.0221527 1.5657356 1.011281 1.5281439 1.0899721
0.81457967 1.612807 1.0758599 2.3870804
00000000: 7052 c93f 2d60 a13f 845b d03f 54e3 d63f
00000010: 9e2f 863f 1fcc d63f d149 b83f 74b5 a63f
00000020: b562 b73f 84b9 e93f b94e b53f f36a 0140
00000030: 066a c83f a871 813f 389a c33f 3584 8b3f
00000040: 4b88 503f 7670 ce3f c7b5 893f edc5 1840

fc3.dropout_logvar f4 [20]
-8.99209 -9.002152 -8.994667 -8.998378 -8.9928255 -9.015031 -9.01043 -9.000498
-9.00098 -9.0221615 -9.00637 -9.013158 -8.99859 -8.993787 -9.017341 -9.016223
-8.995045 -9.007767 -9.006726 -9.011525
00000000: 9adf 0fc1 d108 10c1 28ea 0fc1 5bf9 0fc1
00000010: 9de2 0fc1 913d 10c1 b92a 10c1 0a02 10c1
00000020: 0404 10c1 c65a 10c1 171a 10c1 e535 10c1
00000030: 3afa 0fc1 8de6 0fc1 0747 10c1 7342 10c1
00000040: b4eb 0fc1 d01f 10c1 8d1b 10c1 352f 10c1

fc3.weight_mu f4 [5, 20]
-0.4798026 -0.19675507 -0.32849732 -0.4441912 -0.13824643 -0.7706588 -0.23276936 -0.52341133
-0.7376835 -0.71351224 -0.65959334 -1.4027807 -0.63436073 -0.14470741 -0.6898408 -0.45239636
-0.03419683 0.55613065 -0.11720434 0.8485695 -0.034717917 0.18380298 0.108843386 0.7444325
0.63512266 0.24869917 -0.06288568 -0.043833196 0.37076813 0.7239423 0.48121783 -0.5835098
0.077471755 0.4054214 0.10340534 -0.22528172 0.13259424 0.4189349 0.10781245 0.38951167
0.27048182 -0.23510596 0.4548336 0.055180356 -0.112515055 0.6920121 0.33991814 0.4948537
0.13877444 0.3872195 0.44530517 0.11315357 0.32276636 -0.20504282 0.31693622 0.062820904
0.19659953 0.39282897 0.31958038 0.0058600917 -0.14618862 0.34254122 0.3837721 0.089081466
-0.02140477 0.019443734 0.1425356 0.4377165 0.11916733 0.21334146 -0.44920388 0.4653674
0.0575829 -0.23547359 0.29027703 -0.22015356 0.16345426 -0.09134443 -0.21597117 -0.8141654
-0.7766102 -0.69734776 -0.5893238 -0.4070325 -0.014584014 -0.55321836 -0.73877084 -0.13862333
-0.47071072 -1.1649863 -0.6531497 0.5291905 -0.51207274 -0.20341015 -0.45978358 -0.45556954
-0.19755055 -1.1399938 -0.18852764 -1.7006902
00000000: b0a8 f5be 297a 49be cd30 a8be 076d e3be
00000010: 7990 0dbe e549 45bf 175b 6ebe 49fe 05bf
00000020: d3d8 3cbf bda8 36bf 1cdb 28bf 518e b3bf
00000030: 7765 22bf 2e2e 14be 6899 30bf 7fa0 e7be
00000040: fa11 0cbd 945e 0e3f d408 f0bd da3b 593f
00000050: 6034 0ebd d936 3c3e 48e9 de3d 2193 3e3f
00000060: 6697 223f ffaa 7e3e 35ca 80bd 708a 33bd
00000070: 52d5 bd3e 4854 393f 2f62 f63e e660 15bf
00000080: 83a9 9e3d 6593 cf3e 2ec6 d33d 40b0 66be
00000090: c9c6 073e a37e d63e c6cc dc3d 136e c73e
000000a0: 987c 8a3e 9ebf 70be f3df e83e cc04 623d
000000b0: 4b6e e6bd b427 313f c009 ae3e 775d fd3e
000000c0: e31a 0e3e a241 c63e 0aff e33e 0fbd e73d
000000d0: a241 a53e bff6 51be 7745 a23e 3fa8 803d
000000e0: 6351 493e e120 c93e 0aa0 a33e 0306 c03b
000000f0: 78b2 15be 9061 af3e c77d c43e 5870 b63d
00000100: 0e59 afbc 7748 9f3c daf4 113e 611c e03e
00000110: 000e f43d 2f76 5a3e 0dfe e5be a344 ee3e
00000120: 0cdc 6b3d fd1f 71be 319f 943e ef6f 61be
00000130: 8e60 273e ca12 bbbd 8c27 5dbe 256d 50bf
00000140: edcf 46bf 6285 32bf eddd 16bf 9066 d0be
00000150: caf1 6ebc b89f 0dbf 1620 3dbf 46f3 0dbe
00000160: ff00 f1be 451e 95bf d234 27bf 0779 073f
00000170: 3317 03bf c04a 50be c168 ebbe 6940 e9be
00000180: b14a 4abe 51eb 91bf 640d 41be 37b0 d9bf

fc3.weight_logvar f4 [5, 20]
-9.010897 -9.0163145 -8.991034 -8.999675 -9.017739 -8.998734 -9.005927 -9.005384
-9.007494 -9.003715 -9.01369 -9.011276 -9.007218 -9.004476 -8.993814 -8.992976
-9.010464 -8.996984 -8.991442 -9.019142 -8.985122 -8.988832 -9.000404 -8.9991255
-8.996961 -8.99453 -9.009766 -8.987329 -9.0060835 -8.994202 -8.990453 -9.0121355
-8.995717 -8.993179 -8.998672 -9.00107 -8.997677 -8.997065 -9.014889 -9.013545
-9.014965 -8.992246 -8.996099 -9.0164995 -9.012455 -9.003458 -9.000473 -8.9993515
-9.009365 -8.99807 -9.000388 -8.996191 -8.988887 -9.013819 -9.012633 -9.001672
-9.009616 -9.011075 -8.995457 -8.992194 -9.01028 -8.997173 -8.995816 -9.000105
-9.008294 -8.995096 -9.013936 -9.002495 -8.985996 -8.9905205 -8.99275 -9.016787
-9.010588 -8.988429 -8.993978 -8.993227 -9.011026 -8.993443 -9.008469 -9.014366
-8.9932575 -8.993455 -8.991848 -9.002818 -8.994984 -8.98678 -9.021985 -8.988542
-9.000739 -8.995915 -9.006295 -9.001174 -8.999231 -9.002105 -8.99711 -8.986404
-8.993482 -9.005402 -9.004564 -9.009261
00000000: a22c 10c1 d342 10c1 46db 0fc1 abfe 0fc1
00000010: a948 10c1 d1fa 0fc1 4718 10c1 0e16 10c1
00000020: b21e 10c1 370f 10c1 1338 10c1 302e 10c1
00000030: 911d 10c1 5512 10c1 aae6 0fc1 3be3 0fc1
00000040: dc2a 10c1 a5f3 0fc1 f2dc 0fc1 684e 10c1
00000050: 0fc3 0fc1 42d2 0fc1 a801 10c1 6bfc 0fc1
00000060: 8df3 0fc1 98e9 0fc1 0028 10c1 19cc 0fc1
00000070: eb18 10c1 40e8 0fc1 e5d8 0fc1 b531 10c1
00000080: 75ee 0fc1 10e4 0fc1 8ffa 0fc1 6204 10c1
00000090: 7cf6 0fc1 faf3 0fc1 fc3c 10c1 7b37 10c1
000000a0: 4c3d 10c1 3de0 0fc1 06f0 0fc1 9543 10c1
000000b0: 0433 10c1 2a0e 10c1 f001 10c1 58fd 0fc1
000000c0: 5c26 10c1 18f8 0fc1 9701 10c1 66f0 0fc1
000000d0: 7bd2 0fc1 9a38 10c1 bf33 10c1 d906 10c1
000000e0: 6327 10c1 5d2d 10c1 64ed 0fc1 07e0 0fc1
000000f0: 1b2a 10c1 6cf4 0fc1 ddee 0fc1 6e00 10c1
00000100: f921 10c1 eaeb 0fc1 1539 10c1 380a 10c1
00000110: a4c6 0fc1 2cd9 0fc1 4ee2 0fc1 c244 10c1
00000120: 5e2b 10c1 9bd0 0fc1 55e7 0fc1 42e4 0fc1
00000130: 2a2d 10c1 24e5 0fc1 b022 10c1 d83a 10c1
00000140: 62e4 0fc1 31e5 0fc1 9cde 0fc1 8b0b 10c1
00000150: 74eb 0fc1 dac9 0fc1 0d5a 10c1 11d1 0fc1
00000160: 0703 10c1 45ef 0fc1 c919 10c1 cf04 10c1
00000170: dafc 0fc1 9f08 10c1 2af4 0fc1 50c8 0fc1
00000180: 4de5 0fc1 2016 10c1 b212 10c1 ef25 10c1

fc3.bias_mu f4 [5]
-0.0856763 0.11519338 0.16128203 0.03624417 -0.22072387
00000000: 0e77 afbd 82ea eb3d 1e27 253e c474 143d
00000010: 7005 62be

fc3.bias_logvar f4 [5]
-9.014529 -8.985533 -8.99404 -9.0112505 -8.993328
00000000: 833b 10c1 bec4 0fc1 96e7 0fc1 152e 10c1
00000010: ace4 0fc1
