trainedModels/simple_model.pth (torch, 7763 bytes, 16 tensors)

fc1.dropout_mu f4 [4]
000000 fa 7c 9f 3f e0 9c 44 3f cc b0 7e 3f 80 8f 43 3f
       1.2460015 0.7680187 0.9948852 0.7639084

fc1.dropout_logvar f4 [4]
000000 f8 06 0b c1 3d 24 0b c1 f1 67 0b c1 75 de 0a c1
       -8.689201 -8.696347 -8.712876 -8.679311

fc1.weight_mu f4 [10, 4]
000000 91 24 74 bf 9c c1 7a 3b 50 57 a0 3e 4e 24 3d 3e
       -0.95368296 0.0038262373 0.31316614 0.1847088
000010 73 de 27 3f 35 27 de 3d 30 c4 b7 be 20 82 0c 3f
       0.65573806 0.10847322 -0.35891867 0.54886055
000020 f5 8b 45 3d 6f c8 e8 3e 6b 84 9e bf 0a f6 20 3e
       0.048229177 0.4546542 -1.2384161 0.15718856
000030 ea c8 20 3f ec 6f d8 be d1 60 3c 3f 6f ec 13 bf
       0.6280657 -0.4227289 0.7358523 -0.57782644
000040 47 2c 08 bd 29 ff 81 be f9 90 f3 3e 9b 8e e4 3d
       -0.03324535 -0.25389984 0.47571543 0.11160012
000050 a9 0d 68 bf f3 66 d8 bd b3 4d 54 3e 47 8a 8a 3e
       -0.90645844 -0.10566511 0.20732765 0.27058622
000060 95 67 a2 be 00 08 7b bf 31 52 b1 3e ed 7c 33 3f
       -0.31719652 -0.9805908 0.3463302 0.70112497
000070 c8 e7 b5 be f2 3c da 3d d8 22 d1 3e c9 37 11 3e
       -0.35528398 0.10656156 0.40846896 0.14181437
000080 b7 a8 90 3c 5c 50 a4 3e c0 7a 1a 3f 71 56 1a 3e
       0.017658575 0.3209256 0.6034355 0.15072037
000090 e4 73 f3 3e 59 cf 6a bf f4 88 dd 3e d9 59 40 be
       0.47549355 -0.9172264 0.4326855 -0.18784274

fc1.weight_logvar f4 [10, 4]
000000 b9 8f 0a c1 a3 35 0b c1 33 55 0b c1 4e fa 0a c1
       -8.660089 -8.700595 -8.708301 -8.68611
000010 fb 5e 0b c1 07 0b 0b c1 59 09 0b c1 49 2a 0b c1
       -8.710689 -8.690192 -8.689782 -8.697824
000020 cd 3d 0b c1 f2 ef 0a c1 63 1d 0b c1 14 12 0b c1
       -8.702588 -8.68358 -8.6946745 -8.691914
000030 0d 15 0b c1 73 3d 0b c1 2d 18 0b c1 89 2f 0b c1
       -8.692639 -8.702502 -8.693402 -8.699105
000040 34 93 0b c1 a3 2a 0b c1 1b 48 0b c1 9a 3c 0b c1
       -8.723438 -8.697909 -8.705104 -8.702295
000050 e9 46 0b c1 3d 0f 0b c1 9a c7 0a c1 42 f3 0a c1
       -8.704812 -8.69122 -8.673731 -8.684389
000060 84 26 0b c1 64 1e 0b c1 16 ff 0a c1 2c 2c 0b c1
       -8.696903 -8.69492 -8.687277 -8.698284
000070 09 2c 0b c1 5b 31 0b c1 e6 36 0b c1 7c de 0a c1
       -8.698251 -8.69955 -8.700903 -8.679317
000080 07 5d 0b c1 9d 6c 0b c1 a7 2c 0b c1 cb 61 0b c1
       -8.710212 -8.714017 -8.698401 -8.711375
000090 22 35 0b c1 e6 18 0b c1 35 0d 0b c1 18 85 0b c1
       -8.700472 -8.693579 -8.690724 -8.719994

fc1.bias_mu f4 [10]
000000 84 24 f4 bd 6d 95 09 3e b2 2c a0 3d d9 f9 c5 3d
       -0.11921027 0.13435908 0.07821025 0.09666795
000010 3c 92 1c be 94 70 35 be 9b a7 5b 3e 81 54 67 be
       -0.15290159 -0.17718726 0.21450655 -0.2259083
000020 c7 03 9b 3e af be 54 be
       0.3027632 -0.20775865

fc1.bias_logvar f4 [10]
000000 f1 58 0b c1 08 0b 0b c1 ba 0d 0b c1 b3 3e 0b c1
       -8.709214 -8.690193 -8.690851 -8.702807
000010 5f 53 0b c1 68 15 0b c1 f3 52 0b c1 35 17 0b c1
       -8.707854 -8.692726 -8.707751 -8.693166
000020 39 73 0b c1 27 08 0b c1
       -8.715631 -8.68949

fc2.dropout_mu f4 [10]
000000 33 d0 45 3f 75 22 7d 3f 2b ac 65 3f fd 8e 6f 3f
       0.7727081 0.988807 0.8971583 0.9357756
000010 35 fe 48 3f ca 7e 4e 3f 79 5f 9c 3f 66 82 3c 3f
       0.7851289 0.80662215 1.2216636 0.7363647
000020 43 54 54 3f c9 f2 4c 3f
       0.82941073 0.8005796

fc2.dropout_logvar f4 [10]
000000 2f 15 0b c1 28 4b 0b c1 52 3f 0b c1 a1 42 0b c1
       -8.692672 -8.705849 -8.702959 -8.703767
000010 af 53 0b c1 51 63 0b c1 8f 0b 0b c1 b9 2a 0b c1
       -8.707931 -8.711747 -8.690322 -8.69793
000020 c0 0d 0b c1 ce 16 0b c1
       -8.690857 -8.693068

fc2.weight_mu f4 [20, 10]
000000 f8 b9 15 3e 51 0d 5e be 82 96 e7 bd 74 d6 f0 bd
       0.14621723 -0.21684767 -0.11308004 -0.11759654
000010 d3 80 c6 3c 7f cd 0d 3e ee f6 81 3e 82 5c 4a 3e
       0.02423135 0.13847922 0.25383705 0.19761851
000020 f4 f4 bf bc a9 8b b2 3e dc b8 30 be b7 35 be 3e
       -0.023432232 0.34872177 -0.17258018 0.37150356
000030 89 9f f4 be 1d cc 4c be 6b 25 c9 3e 27 34 28 3d
       -0.47777966 -0.19999738 0.3928636 0.04106536
000040 02 0c c4 bd a1 ed 8c 3d 15 12 c9 3d 37 3c f5 3d
       -0.09572603 0.068812616 0.09817902 0.11974376
000050 f2 22 48 bd b3 e9 06 3e ff a4 ca 3d 31 46 28 be
       -0.04886145 0.13175087 0.09894752 -0.16433026
000060 08 1a d9 be a6 9c a7 3e e1 7a 22 3e 74 e2 2d be
       -0.42402673 0.327367 0.15867187 -0.16980916
000070 3f 55 69 be ae 2b 06 3e bd 30 af be 44 60 4a bf
       -0.22786425 0.131026 -0.34216872 -0.7905314
000080 1c 49 0d bf ce dc 44 3d 98 c4 99 bd 4f 06 38 bf
       -0.5518968 0.04806214 -0.075082004 -0.71884626
000090 c7 08 c2 3d 89 14 96 bd 48 5e 27 3e 98 c7 a7 be
       0.094743304 -0.073281355 0.16344559 -0.32769465
0000a0 73 f4 90 3e 69 52 03 bf ab 98 9b 3e 77 99 69 bf
       0.283115 -0.5129762 0.30389914 -0.91249794
0000b0 05 2a 1d be 09 60 83 bd b6 6e b2 be d6 6e cf 3c
       -0.1534806 -0.064148016 -0.3485009 0.025321405
0000c0 a4 7a 33 be cd 36 a3 be db a0 a7 3e 18 c5 ac be
       -0.17527252 -0.31877747 0.3273991 -0.3374412
0000d0 22 3a 3c 3e dc f3 f3 3d 7f 3d 84 3d 73 41 d5 3e
       0.18381551 0.11911747 0.06457042 0.41651496
0000e0 ec 04 fa 3c 01 1d e3 be 05 79 81 3e b7 1c ad bd
       0.030519925 -0.44358066 0.25287643 -0.084527425
0000f0 ae ee e1 be 39 af 94 3e a0 a0 9d 3e 4d ce 08 bf
       -0.4412741 0.29039934 0.3078661 -0.5343979
000100 36 a4 ea 3e 81 79 aa be bc da dc be cc 90 50 3e
       0.45828408 -0.33295825 -0.4313563 0.20367736
000110 c7 c8 84 ba b8 28 ed 3d 3b 88 b9 3e 45 d1 5f 3d
       -0.0010130637 0.11580032 0.36236748 0.054642934
000120 48 90 c0 be 4f 55 bb be 4f 43 af 3d 1a 60 9b be
       -0.37610078 -0.36588523 0.0855776 -0.30346757
000130 0a c1 a5 be 6c 08 9e bd 1e 88 99 3e f7 ea e6 3d
       -0.3237384 -0.0771645 0.29986662 0.11275285
000140 9b 47 9a 3e 28 d2 46 3f 33 a5 34 3e a4 62 a9 be
       0.30132756 0.77664423 0.17641144 -0.3308307
000150 fa ae b6 be 95 b4 d2 3b a4 6f a8 3d c1 0e 52 3e
       -0.35680372 0.0064302185 0.08224419 0.2051344
000160 28 9c ee bd 82 76 c3 3d ef 75 d0 be 40 ce 14 3f
       -0.11650878 0.09544088 -0.40714976 0.5812721
000170 7d 6f 5a 3e b1 ea e2 3d 2a 88 09 be 90 b9 63 bc
       0.21331592 0.1107992 -0.13430849 -0.013899222
000180 18 45 7e 3e cc 80 05 3e 12 16 a8 3d 19 04 f6 3c
       0.24831045 0.13037413 0.082073346 0.03003125
000190 d3 50 08 bf ba b9 51 be 7e b4 dc be 4b e1 85 be
       -0.5324833 -0.20481005 -0.43106455 -0.26148447
0001a0 cb 7d 3e bf e9 14 24 be 31 ee b2 be d6 71 bf bd
       -0.74410695 -0.16023602 -0.3494735 -0.09347884
0001b0 38 10 2f bd 4d 04 b8 3d fd ad 63 be 34 58 7f bd
       -0.042740077 0.08985195 -0.2223434 -0.062339976
0001c0 00 09 d0 be 73 6a 9a 3e a1 fd 1f 3f dd 95 e6 bd
       -0.40631866 0.3015934 0.6249638 -0.11259053
0001d0 39 2e c8 3e e2 9a f9 3d e4 72 3d 3f eb 94 0c bd
       0.39097765 0.12187745 0.74003434 -0.034321707
0001e0 39 b3 ca bd 81 c8 b5 be f2 2d c9 be b6 13 b0 bc
       -0.09897465 -0.35504535 -0.39292866 -0.021493774
0001f0 d5 a6 2a 3e 79 86 99 be 46 92 c4 be 2f 00 9b be
       0.16665204 -0.29985407 -0.38392848 -0.30273578
000200 ee d5 5e be b0 53 c5 3d 8f 1b b1 be 74 a9 37 be
       -0.21761295 0.09635103 -0.34591338 -0.17935735
000210 00 80 e3 be db 84 a1 3e b4 02 15 bf 8c d5 4c bd
       -0.44433594 0.31546673 -0.5820725 -0.05000834
000220 db 93 40 bf 2f df 08 3f df a1 a5 3c 0f d5 0e 3f
       -0.7522561 0.5346555 0.020218788 0.5579385
000230 a0 57 7b be 76 f8 df 3d 68 d1 df be f8 ab 73 be
       -0.24545145 0.10936062 -0.43714452 -0.2379607
000240 ae 8a 44 bd 9e 96 46 3d 5c d8 0e bf 83 93 5d be
       -0.047983818 0.048483483 -0.5579889 -0.21638303
000250 08 63 36 bf ad 0c a8 3e 83 ca 4f 3e 36 00 3a bd
       -0.7124486 0.3282217 0.20292096 -0.045410357
000260 fd a4 19 bf 67 0b c4 be af f1 6c be 58 f3 99 3c
       -0.6001738 -0.3828995 -0.2313907 0.018792793
000270 dc 2b ad be a6 63 7c 3e 50 bb 99 3e e1 a5 0e be
       -0.33822525 0.24647388 0.3002572 -0.13930465
000280 bc bf a6 be 40 95 a1 3b 2e 2d b2 be ce c0 81 3e
       -0.32568157 0.004931122 -0.34800094 0.2534241
000290 86 9a 5e 3e 5b 32 9a be 64 7b 7d be ce 55 41 be
       0.21738634 -0.30116543 -0.24754101 -0.18880388
0002a0 0e 86 aa 3e 00 77 77 be da f2 d3 3e 40 32 00 be
       0.333054 -0.24166489 0.4139622 -0.12519169
0002b0 ac 30 39 3e 16 dd ca bd da 19 cd 3e 11 45 f0 3e
       0.18084973 -0.0990545 0.40058786 0.46927693
0002c0 53 7f b1 be 57 29 58 bd e1 db b5 bd 67 89 ef be
       -0.34667453 -0.0527738 -0.08879829 -0.46784517
0002d0 6c 1e 87 be 63 61 eb 3e 4c a5 e8 3d af cf a9 3e
       -0.26390398 0.45972738 0.11359653 0.33166263
0002e0 e8 f7 3b 3d 1a 90 80 be aa 49 8d 3e db bd 72 3e
       0.04589072 -0.2510994 0.27595264 0.23705237
0002f0 b5 e1 07 3f 83 ac 9b bc 8b ef 2b 3f f6 b0 f1 bd
       0.53078777 -0.019003158 0.6716239 -0.11801331
000300 00 b6 f4 3d 62 c6 2c bf 77 c9 7e be be 57 09 3f
       0.11948776 -0.6749021 -0.2488154 0.5364951
000310 7e 41 99 be 75 38 49 be d7 48 b6 be c8 91 7e be
       -0.2993278 -0.19650443 -0.35602447 -0.24860299

fc2.weight_logvar f4 [20, 10]
000000 e3 54 0b c1 32 63 0b c1 fd 04 0b c1 cf 19 0b c1
       -8.708224 -8.711718 -8.688718 -8.693801
000010 32 92 0b c1 75 15 0b c1 46 17 0b c1 55 0a 0b c1
       -8.723192 -8.692739 -8.693182 -8.690022
000020 04 f8 0a c1 fa 7e 0b c1 11 16 0b c1 70 53 0b c1
       -8.685551 -8.7185 -8.692887 -8.7078705
000030 ec 19 0b c1 24 18 0b c1 dc 2c 0b c1 5d f3 0a c1
       -8.693829 -8.693394 -8.698452 -8.684415
000040 a7 3b 0b c1 fa fb 0a c1 f1 e7 0a c1 d0 f4 0a c1
       -8.702064 -8.686518 -8.681626 -8.684769
000050 d4 2f 0b c1 1e 3c 0b c1 ec 40 0b c1 2b 73 0b c1
       -8.699177 -8.702177 -8.70335 -8.715617
000060 c4 45 0b c1 b5 26 0b c1 55 03 0b c1 dd 53 0b c1
       -8.704533 -8.69695 -8.6883135 -8.707974
000070 0d 52 0b c1 70 8c 0b c1 96 70 0b c1 dd 16 0b c1
       -8.707532 -8.7217865 -8.714987 -8.693082
000080 c5 28 0b c1 b0 f8 0a c1 fc 7b 0b c1 19 f5 0a c1
       -8.6974535 -8.685715 -8.71777 -8.684838
000090 bf 38 0b c1 81 5a 0b c1 72 47 0b c1 90 40 0b c1
       -8.701354 -8.709596 -8.704943 -8.703262
0000a0 cf 2a 0b c1 1a 26 0b c1 e8 3e 0b c1 d5 32 0b c1
       -8.697951 -8.696802 -8.702858 -8.69991
0000b0 44 2c 0b c1 ac ed 0a c1 4c 89 0b c1 8e 27 0b c1
       -8.698307 -8.683025 -8.72102 -8.697157
0000c0 06 98 0b c1 ff 23 0b c1 e0 50 0b c1 de 4a 0b c1
       -8.724615 -8.696288 -8.707245 -8.705778
0000d0 2f 17 0b c1 84 24 0b c1 41 21 0b c1 eb 12 0b c1
       -8.69316 -8.696415 -8.695619 -8.692119
0000e0 55 3b 0b c1 82 74 0b c1 3d d6 0a c1 d8 f8 0a c1
       -8.701985 -8.715944 -8.677304 -8.685753
0000f0 90 ee 0a c1 64 4b 0b c1 d7 2d 0b c1 76 1a 0b c1
       -8.683243 -8.705906 -8.698691 -8.69396
000100 35 27 0b c1 4a 16 0b c1 4e 71 0b c1 bb 18 0b c1
       -8.697072 -8.692942 -8.715162 -8.693538
000110 ab 32 0b c1 58 2b 0b c1 99 3c 0b c1 2f 5e 0b c1
       -8.69987 -8.698082 -8.702294 -8.710494
000120 50 2e 0b c1 ab e5 0a c1 a9 1e 0b c1 60 35 0b c1
       -8.698807 -8.681071 -8.694985 -8.700531
000130 ac 20 0b c1 22 4c 0b c1 2e 29 0b c1 cc 94 0b c1
       -8.695477 -8.706087 -8.697554 -8.723827
000140 60 65 0b c1 3b 70 0b c1 d1 35 0b c1 35 1f 0b c1
       -8.71225 -8.7149 -8.700639 -8.695119
000150 34 f1 0a c1 27 32 0b c1 ff 42 0b c1 e8 1a 0b c1
       -8.6838875 -8.699744 -8.703856 -8.694069
000160 36 4d 0b c1 47 e8 0a c1 9c 57 0b c1 bd 39 0b c1
       -8.70635 -8.681708 -8.708889 -8.701596
000170 b7 19 0b c1 51 66 0b c1 b6 3b 0b c1 f0 3e 0b c1
       -8.693778 -8.71248 -8.702078 -8.702866
000180 52 f2 0a c1 c4 1f 0b c1 ad 19 0b c1 54 13 0b c1
       -8.68416 -8.695255 -8.6937685 -8.692219
000190 c5 13 0b c1 3b 4d 0b c1 42 e5 0a c1 e6 0c 0b c1
       -8.692327 -8.706355 -8.680971 -8.690649
0001a0 0e 87 0b c1 62 72 0b c1 90 98 0b c1 c1 62 0b c1
       -8.720472 -8.7154255 -8.724747 -8.71161
0001b0 45 19 0b c1 79 18 0b c1 b5 4a 0b c1 02 2e 0b c1
       -8.693669 -8.693475 -8.705739 -8.698732
0001c0 04 fe 0a c1 1b 53 0b c1 c6 3b 0b c1 73 53 0b c1
       -8.687016 -8.707789 -8.702093 -8.707873
0001d0 cd e9 0a c1 73 0e 0b c1 5d 5a 0b c1 50 2c 0b c1
       -8.68208 -8.691028 -8.709561 -8.6983185
0001e0 05 24 0b c1 ab e2 0a c1 bb 0b 0b c1 66 42 0b c1
       -8.696294 -8.680339 -8.690364 -8.703711
0001f0 61 00 0b c1 da 23 0b c1 ba 0a 0b c1 36 45 0b c1
       -8.6875925 -8.696253 -8.690119 -8.704397
000200 f8 54 0b c1 09 df 0a c1 70 62 0b c1 b2 36 0b c1
       -8.708244 -8.679452 -8.711533 -8.700853
000210 03 17 0b c1 de 48 0b c1 7e 63 0b c1 1e 4d 0b c1
       -8.693118 -8.70529 -8.71179 -8.706327
000220 7e 18 0b c1 c1 ee 0a c1 53 53 0b c1 f3 13 0b c1
       -8.69348 -8.68329 -8.707843 -8.69237
000230 35 2b 0b c1 db 5f 0b c1 af 63 0b c1 4b 36 0b c1
       -8.698049 -8.710902 -8.711837 -8.700755
000240 6f 5c 0b c1 cf 25 0b c1 fe 29 0b c1 ef 32 0b c1
       -8.710067 -8.696731 -8.697752 -8.699935
000250 a0 37 0b c1 7d 35 0b c1 f2 8f 0b c1 f9 dd 0a c1
       -8.70108 -8.700559 -8.722643 -8.679193
000260 fe 6e 0b c1 4c d9 0a c1 d8 31 0b c1 01 51 0b c1
       -8.714598 -8.678051 -8.699669 -8.707276
000270 57 32 0b c1 97 3d 0b c1 25 14 0b c1 70 49 0b c1
       -8.69979 -8.702537 -8.692418 -8.705429
000280 11 2c 0b c1 2d 38 0b c1 61 36 0b c1 e9 1e 0b c1
       -8.698258 -8.701215 -8.700776 -8.695046
000290 63 1d 0b c1 f5 31 0b c1 00 09 0b c1 4e 1a 0b c1
       -8.6946745 -8.699697 -8.689697 -8.693922
0002a0 7d 08 0b c1 93 6a 0b c1 dd 2f 0b c1 7e 22 0b c1
       -8.689572 -8.713519 -8.699185 -8.695921
0002b0 3e 07 0b c1 59 0c 0b c1 2c ff 0a c1 c6 24 0b c1
       -8.689268 -8.690515 -8.687298 -8.696478
0002c0 5d 2a 0b c1 69 64 0b c1 8a fc 0a c1 10 32 0b c1
       -8.697843 -8.712014 -8.686655 -8.699722
0002d0 17 45 0b c1 39 1b 0b c1 45 49 0b c1 b8 28 0b c1
       -8.704368 -8.694146 -8.705388 -8.697441
0002e0 0f 1f 0b c1 e3 40 0b c1 0b 1a 0b c1 fe 67 0b c1
       -8.695083 -8.7033415 -8.693858 -8.712889
0002f0 af 5f 0b c1 a4 43 0b c1 33 1f 0b c1 94 71 0b c1
       -8.71086 -8.704014 -8.695117 -8.715229
000300 26 4a 0b c1 de 84 0b c1 85 23 0b c1 be 50 0b c1
       -8.705603 -8.719938 -8.696172 -8.707212
000310 94 35 0b c1 99 00 0b c1 9d 31 0b c1 45 82 0b c1
       -8.700581 -8.687646 -8.699613 -8.719304

fc2.bias_mu f4 [20]
000000 b5 e0 22 3e 09 61 4b be 61 ae f8 bd a7 e0 81 be
       0.15906031 -0.19861235 -0.12142635 -0.2536671
000010 b8 32 47 3e 8e bd 4e bc 4c db 92 bd 3a 95 65 be
       0.19452941 -0.012618436 -0.07170734 -0.22420207
000020 a9 5b 5f be 54 16 30 3e d8 5d 62 be ec 86 26 3e
       -0.2181231 0.17196018 -0.22106111 0.16262406
000030 70 a7 53 be 9e 04 14 be 9a 5d 86 bd df 6d 53 be
       -0.20669341 -0.14454886 -0.06560822 -0.20647381
000040 47 1d 64 3d 1e 57 d7 3d 90 2a f9 3d db 92 43 3e
       0.055691984 0.10514663 0.12166321 0.1909899

fc2.bias_logvar f4 [20]
000000 25 19 0b c1 3f 45 0b c1 53 1c 0b c1 64 31 0b c1
       -8.693639 -8.704406 -8.694415 -8.699558
000010 de 05 0b c1 29 22 0b c1 51 48 0b c1 10 ea 0a c1
       -8.688932 -8.69584 -8.705155 -8.682144
000020 97 55 0b c1 b9 03 0b c1 9f 25 0b c1 24 15 0b c1
       -8.708396 -8.688409 -8.696685 -8.692661
000030 ac 3f 0b c1 5f 3a 0b c1 57 3a 0b c1 5e 5b 0b c1
       -8.703045 -8.701751 -8.701743 -8.709806
000040 59 01 0b c1 ed 1c 0b c1 f4 2b 0b c1 82 1f 0b c1
       -8.687829 -8.694562 -8.698231 -8.695192

fc3.dropout_mu f4 [20]
000000 eb 16 4f 3f 12 3c 46 3f 35 30 56 3f 88 e7 42 3f
       0.80894345 0.7743541 0.8366731 0.7613454
000010 2c 96 8b 3f 8a 12 62 3f ea ae 61 3f 7d 06 46 3f
       1.0905204 0.8830954 0.8815752 0.7735365
000020 e4 06 48 3f ec 6f 6f 3f 9e 22 44 3f 25 e0 72 3f
       0.78135514 0.93530154 0.7661532 0.9487327
000030 80 52 45 3f 0e 15 4b 3f a6 f6 63 3f 83 ee 49 3f
       0.7707901 0.79329 0.8904823 0.78879565
000040 a3 bc 58 3f f4 60 5a 3f e6 6e 5f 3f 6b 1b a1 3f
       0.84662837 0.8530419 0.8727859 1.2586492

fc3.dropout_logvar f4 [20]
000000 ad 5e 0b c1 08 2a 0b c1 c6 34 0b c1 40 17 0b c1
       -8.710614 -8.697762 -8.700384 -8.693176
000010 ec 3f 0b c1 d1 11 0b c1 ad 16 0b c1 1f 2a 0b c1
       -8.703106 -8.69185 -8.693036 -8.697783
000020 df ec 0a c1 e9 06 0b c1 9c 12 0b c1 97 27 0b c1
       -8.68283 -8.689187 -8.692043 -8.6971655
000030 12 0b 0b c1 a6 41 0b c1 84 1f 0b c1 4f 2b 0b c1
       -8.690203 -8.703527 -8.695194 -8.698073
000040 39 05 0b c1 53 0b 0b c1 ba 29 0b c1 78 fa 0a c1
       -8.688775 -8.690265 -8.697687 -8.68615

fc3.weight_mu f4 [1, 20]
000000 50 9f 1c 3d 29 f8 c4 bb 33 9f 0e 3d f6 b6 d2 3d
       0.03823787 -0.0060110283 0.034819793 0.10288803
000010 fe 10 c8 be 00 ce bd bc cd 0d f7 3d e0 bd ee 3c
       -0.39075464 -0.023169518 0.12063179 0.029143274
000020 0c d1 bf bd e7 d3 e7 3d 77 c1 f4 3d 48 b3 9d 3e
       -0.093660444 0.11319714 0.11950963 0.30800843
000030 23 19 85 bd 0b e0 88 3e 49 5d 28 bd ca cf ad bd
       -0.06498935 0.2673343 -0.04110459 -0.08486898
000040 bb f6 76 be 68 43 cd bd bc dd 28 3e 1c 65 d7 be
       -0.24117558 -0.10022622 0.16490835 -0.42069328

fc3.weight_logvar f4 [1, 20]
000000 5d 66 0b c1 1e 53 0b c1 9c 15 0b c1 04 f3 0a c1
       -8.712491 -8.707792 -8.692776 -8.68433
000010 be f0 0a c1 7e 39 0b c1 c6 ec 0a c1 30 2d 0b c1
       -8.683775 -8.701536 -8.682806 -8.698532
000020 24 41 0b c1 c4 41 0b c1 a2 2e 0b c1 74 52 0b c1
       -8.703403 -8.703556 -8.698885 -8.70763
000030 4b 45 0b c1 57 db 0a c1 8b e0 0a c1 12 4f 0b c1
       -8.704417 -8.67855 -8.67982 -8.706804
000040 f1 6c 0b c1 34 4c 0b c1 25 00 0b c1 cb 24 0b c1
       -8.714097 -8.706104 -8.687535 -8.696483
